PPO/model/ppo_599.pth (torch_old, 42209 bytes, 12 tensors)

a_logstd f4 [1, 3]
000000 1b 2e c7 bd f8 3c bb bd 30 f2 e4 bd
       -0.09725591 -0.09142488 -0.11179006

a_fc1.weight f4 [64, 11]
000000 0e 89 52 3e 31 d0 8d 3d ac 68 45 bd a0 46 93 be
       0.20560095 0.06924475 -0.048195526 -0.2876482
000010 4f 3a 70 3d 93 30 83 be 5b 64 0f be 9b 2c ac bc
       0.058649357 -0.25622997 -0.14003126 -0.021017363
000020 de 84 30 be fb e9 b0 bd 96 9c a7 bd 6c fc 3b 3e
       -0.17238185 -0.08638378 -0.08184163 0.1835801
000030 72 c9 fc bd 58 31 66 be ff 63 3f 3c 11 d1 1e 3d
       -0.1234311 -0.2247976 0.011681556 0.0387736
000040 23 e5 20 be 79 02 92 bd a0 5c a8 be 16 49 b9 bc
       -0.15712409 -0.07129378 -0.32883167 -0.022617858
000050 0d 53 40 be bf 9a 2b bd d8 f1 6a be 9f bd 5f 3e
       -0.18781681 -0.041895624 -0.22943819 0.21849678
000060 08 c2 0a 3d 03 89 51 3d 09 ff 6b 3e fc aa 55 bc
       0.03387645 0.051156055 0.23046507 -0.013041254
000070 0e 37 30 3e 0c f7 8d 3e c0 a7 c2 bc 44 4b 7e bd
       0.17208502 0.27727544 -0.02376163 -0.062083498
000080 cd 3c 56 be 41 11 d6 3d 07 e7 59 3e 96 ae 78 3e
       -0.20921631 0.1045251 0.21279536 0.24285349
000090 6a 8e 38 be b4 10 b2 3e bb 98 b4 3d 00 22 34 3e
       -0.18023077 0.34778368 0.088181935 0.17591095
0000a0 8c 7f 0b 3e fe 0d f1 3d a1 34 be 3d 6c 53 81 bd
       0.13622874 0.11770247 0.09287382 -0.063147396
0000b0 55 28 83 be f5 82 3a 3e 5c 6e dc bd 4c 83 41 3e
       -0.25616708 0.18214019 -0.10763237 0.18897742
0000c0 c2 02 1b 39 2b 65 1f 3e 8d 9f 67 be f0 2a 63 3e
       0.00014782979 0.15565936 -0.22619458 0.22184348
0000d0 d0 b7 c2 3b d5 09 46 bd 1f 08 b4 3b d4 88 7d bd
       0.0059423223 -0.04834922 0.005494132 -0.061898068
0000e0 90 60 ce bd 04 de 6c bd 29 21 1a 3e 32 55 2f be
       -0.100770116 -0.057828918 0.15051712 -0.17122343
0000f0 cf cc c7 bd 6b b1 8e 3c 7e 15 7a be 6c 22 5d bd
       -0.09755861 0.017418584 -0.24422261 -0.053987905
000100 05 f6 d4 bb 49 48 aa 3d d0 0c 92 3d ca 38 57 3e
       -0.0064990544 0.083145685 0.0713135 0.21017757
000110 7d 9a c6 3d a3 4a c3 bd 0a 93 8e 3d 3d 05 03 3e
       0.09697435 -0.0953572 0.06961639 0.12794967
000120 cf 8f b0 bd 0f 20 0d be fd 22 28 3e 7e e8 d3 bd
       -0.08621179 -0.1378176 0.16419597 -0.10347079
000130 10 10 73 bd de 54 c6 3d ab 4d 84 be a1 00 d1 3d
       -0.05934149 0.09684156 -0.25840506 0.10205198
000140 50 a2 4e 3e 99 7d 7b 3c 0b 54 cc 3d 8f 3c 10 3d
       0.20179105 0.015349769 0.099769674 0.035214003
000150 d1 32 d4 be e9 d2 f3 3c 14 72 e7 bd e8 d9 5a 3d
       -0.4144502 0.029763656 -0.113010556 0.053430468
000160 63 3f b3 3e b2 35 5d be 4d 0b 89 bd 28 f5 fa bd
       0.35009298 -0.21602514 -0.066916086 -0.12253791
000170 77 be 9a be 70 0a 35 3e e0 63 21 be e6 ad bc bd
       -0.30223438 0.17679763 -0.15760756 -0.09212856
000180 2f 5b 1c be 17 dc b5 3d 99 ee 9f 3b 0c 4e 6d bd
       -0.15269159 0.088798694 0.004880738 -0.05793576
000190 3c 1b 2b be c5 6e 48 be f0 75 15 3e 44 aa 7f be
       -0.16709608 -0.19573505 0.14595771 -0.24967295
0001a0 f9 53 14 bc 09 ad 60 bd c8 41 7a be a8 90 16 bd
       -0.009053224 -0.05485252 -0.24439156 -0.03675905
0001b0 2e 36 51 bc 80 07 d3 3d 39 11 56 be e0 44 e0 3d
       -0.012769265 0.10304165 -0.20905007 0.10950637
0001c0 72 80 9d bd 94 8f 1d be 08 63 94 3d 46 ed 33 3e
       -0.076905146 -0.15386802 0.07245451 0.17570981
0001d0 52 6c 27 3c 6f 6e 74 bd ec 65 28 3e 95 e5 9f bd
       0.010218697 -0.05967563 0.1644513 -0.07807461
0001e0 6c 05 96 bd 41 d3 67 3e 0f 2d 55 be af cd f5 3b
       -0.07325253 0.2263918 -0.2081797 0.007501326
0001f0 25 eb e9 bd 2c 65 41 bd 3b 26 b0 3d 52 8a 7b bd
       -0.114218034 -0.047215626 0.08601042 -0.06141121
000200 62 2a 25 be c3 29 ec bc 46 27 3c 3c 67 54 5a 3d
       -0.16129449 -0.028828507 0.011483973 0.05330315
000210 1f 21 08 3e 28 51 42 bc 09 87 96 bd 54 8a 58 bb
       0.13293885 -0.0118601695 -0.07349975 -0.0033041434
000220 b9 2a 8f 3e f7 58 67 be d1 25 9d bd f3 77 a0 be
       0.27962282 -0.22592531 -0.076732285 -0.31341514
000230 fa 9a fe 3d 7e 22 98 bd a6 8a 83 bd ab 28 73 be
       0.12431903 -0.07428454 -0.064229295 -0.23745982
000240 8a be 0c 3e 1d 1a 06 bc ab fa 24 be 3c 8c 37 bd
       0.1374456 -0.008184937 -0.16111247 -0.044811472
000250 f8 5a 4f 3e a6 f1 9e bc d2 f4 a4 3e c6 4b a7 3d
       0.20249546 -0.019402336 0.32218033 0.081687495
000260 48 10 9b bc 31 cf e2 bd 8d 54 17 3e 19 4a 62 be
       -0.018928662 -0.11074675 0.14778347 -0.22098579
000270 a9 3c 07 be a3 fa 12 be 26 92 7a be 34 ab 43 be
       -0.13206734 -0.14353423 -0.24469814 -0.19108278
000280 eb 1f ed bd 00 04 79 be 95 a1 f0 bd 34 be 9d bc
       -0.115783535 -0.24317932 -0.11749569 -0.019255735
000290 45 80 c8 3a 9a c4 77 be 61 62 4f be 46 41 d4 3c
       0.0015297016 -0.24196091 -0.20252372 0.025910031
0002a0 b6 76 d8 3c a5 33 ad 3d ae 25 e4 3d fd 0c 5d bd
       0.026423793 0.08457116 0.11139999 -0.053967465
0002b0 cc ce 09 3e 1e 3d 91 3d 61 62 50 3e cd 61 4d bd
       0.13457793 0.07091735 0.20350029 -0.0501421
0002c0 94 8e 95 3e fb 0c d7 3c fa db 35 3d 2b 6e b1 bd
       0.2921034 0.026251307 0.04439924 -0.08663591
0002d0 3d 87 02 be 4c 48 d3 bd c7 dd 83 3d 40 c9 3e be
       -0.12746902 -0.10316524 0.06438785 -0.18631458
0002e0 79 ad f2 bd 5c 8c f9 bc 46 7e 7c 3e e4 09 38 be
       -0.118494935 -0.030462436 0.24657544 -0.17972523
0002f0 1f 3d 8e 3d ab b2 1b bc 38 11 ed bd 65 9e 7b bb
       0.06945252 -0.009503047 -0.1157555 -0.003839397
000300 6c 53 89 bd 7c 42 d1 bd a7 d4 dc 3d 72 7e 26 3e
       -0.067053646 -0.10217759 0.10782748 0.16259173
000310 4d ed 4d 3e 93 1e 39 3e dd 1d 3d be e1 dc 41 bb
       0.20110054 0.1807807 -0.18468423 -0.0029581117
000320 83 80 27 bd 37 9c df bd f3 88 66 be 2e fb 32 bc
       -0.040894043 -0.109184675 -0.2251318 -0.010924144
000330 c7 20 b9 3c 1a 02 90 3e f1 0a b6 bd 89 19 28 3d
       0.022598637 0.28126603 -0.08888806 0.041039977
000340 7a 42 ea bd 4a f6 07 3e a0 15 3a 3c 71 46 41 bd
       -0.11438461 0.13277546 0.011357695 -0.04718632
000350 a0 f9 ea 3d 1c 38 a1 bd d8 4a 68 3d 05 f0 7f be
       0.114733934 -0.0787203 0.056712 -0.24993904
000360 1c 11 b2 3e 90 fe 33 3d 2f d3 95 3d 18 4a ff 39
       0.34778678 0.04394394 0.07315671 0.00048692594
000370 ae 75 e2 bd 70 9a 0b 3e ad 77 cb 3c cd d6 30 3e
       -0.11057602 0.13633132 0.02483734 0.1726944
000380 8f a3 12 be e5 10 0b 3e a9 eb 03 be 93 c6 51 3e
       -0.14320205 0.13580664 -0.12882866 0.20485906
000390 f7 cd 50 bd 86 90 9b bd 91 b2 6a be ad 69 e8 3d
       -0.050977673 -0.07595925 -0.2291968 0.11348281
0003a0 d3 b7 79 be 34 f5 e8 bd e3 70 9b 3d 86 ac a3 bd
       -0.2438653 -0.11374894 0.07589891 -0.079918906
0003b0 f0 2b 66 bd 3f 50 42 bd 31 0b 90 be f7 ba 97 bd
       -0.056194246 -0.04743981 -0.28133538 -0.074087076
0003c0 3b 38 ba bc c4 c2 b7 3d 9b 00 c9 bd 6e a2 39 3e
       -0.02273189 0.089726955 -0.098145686 0.18128368
0003d0 33 13 40 be 2a da 62 3d 40 d6 af bd 68 c2 86 3d
       -0.18757324 0.05538384 -0.08585787 0.06580049
0003e0 64 41 c2 3d 11 4d 82 3e 42 76 40 bc a2 13 e8 3d
       0.094851285 0.25449422 -0.011746945 0.1133187
0003f0 93 7a 81 3d a2 ae bf 3e 68 8d 97 be ac b5 17 be
       0.06322207 0.37437922 -0.29600072 -0.14815396

a_fc1.bias f4 [64]
000000 21 4d 84 3d 38 b3 31 3e 14 6f f3 bd 52 60 e0 bd
       0.06460024 0.17353523 -0.11886421 -0.10955872
000010 d4 cf 47 be ac a0 da 3b d4 3b 6f 3d c3 73 6f 3d
       -0.19512874 0.0066719856 0.058406666 0.05846001
000020 57 21 12 3e 1c c6 25 3d d3 9d 23 be e8 ec 95 3d
       0.1427053 0.040472135 -0.15978174 0.07320577
000030 3d 85 62 3e 64 eb ba bc fe cc 79 3e 6a 9b 53 be
       0.22121139 -0.022817321 0.24394605 -0.20664755
000040 5f 7a e0 3d 1d 62 0a be ff 49 93 bd ed 06 1c bd
       0.109608404 -0.1351399 -0.07191848 -0.038092542
000050 06 40 d9 bd dc 24 df 3d 57 b0 3f be e7 cf 0a 3e
       -0.106079146 0.10895702 -0.18719612 0.13555871
000060 72 87 0c bd 91 c6 81 3d 43 d2 35 3e d4 d7 1d bc
       -0.03430886 0.06336702 0.1775599 -0.009633977
000070 32 d4 2e be 62 d5 37 be 0c 00 18 be 82 a5 32 be
       -0.17073134 -0.17952493 -0.14843768 -0.17445949
000080 5f ab f8 bd 89 9f f5 3d 56 14 f6 bc 53 ab 0e bd
       -0.121420614 0.119933195 -0.030038994 -0.034831356
000090 9c e3 dd bd ef c1 b8 3d 3f 04 90 bd fe cb 53 be
       -0.10834429 0.09021365 -0.0703206 -0.20683286
0000a0 45 89 b8 bd 6a 8d 3c be c0 ca 28 3e 45 a8 83 bd
       -0.09010557 -0.1841332 0.16483593 -0.06428579
0000b0 5c 61 91 3d e9 0e f8 3d 84 89 1d 3e 52 06 bd 3d
       0.07098648 0.12112219 0.1538449 0.09229721
0000c0 e2 5f 08 be ce b4 08 be 09 e6 ad bd 67 15 90 bd
       -0.13317826 -0.13350222 -0.08491141 -0.07035332
0000d0 5b 80 59 3e 81 db 9d bd cb 11 09 be 06 d4 b9 bd
       0.2124037 -0.07707883 -0.13385694 -0.090736434
0000e0 92 97 95 3d ee 89 c3 3d ee a1 14 be 95 bf 59 be
       0.073043 0.095477924 -0.14514896 -0.21264489
0000f0 53 35 79 3c 53 4b d3 3c 87 f3 eb bd 1a f2 7d 3d
       0.015210467 0.025792753 -0.115210585 0.061998464

a_fc2.weight f4 [64, 64]
000000 46 70 96 be 14 4c ba bd 6e fe 59 3e fc 04 00 3e
       -0.29382533 -0.09096542 0.21288463 0.12501901
000010 b3 d6 3a 3e 47 23 cb bd 92 87 15 be f0 88 0a be
       0.18245964 -0.09918838 -0.14602497 -0.135288
000020 28 b0 43 be 87 65 8d 3c 56 27 5b 3e 80 40 ac bd
       -0.19110167 0.017260326 0.21401724 -0.0841074
000030 b7 1c 1f be c5 12 bb bd 55 d2 75 be 3d 4b 69 3e
       -0.15538298 -0.091344394 -0.24006017 0.22782607
000040 ee 6a 82 bc 73 a6 e7 bc 35 98 bc 3e f6 88 78 3c
       -0.015920129 -0.028277611 0.36834875 0.015169373
000050 e4 40 ac 3e 78 8e 25 be c7 c2 80 3d f9 d5 1e be
       0.33643258 -0.16167629 0.06287151 -0.15511312
000060 dd 37 36 be 41 22 00 be 0e 2f e9 bd 6e e0 17 3e
       -0.17794748 -0.12513067 -0.11385928 0.14831707
000070 ec e5 34 3d 87 f3 84 3d f4 9f 3f 3e f1 08 2b 3e
       0.044164583 0.06491762 0.18713361 0.1670263
000080 58 61 44 3d e2 a4 88 bd a9 c9 79 3c a7 55 2e 3d
       0.047944397 -0.06672074 0.015245833 0.042562153
000090 17 b4 69 3e 0d d9 c0 bd 67 57 57 3e ca 93 d7 3e
       0.22822605 -0.09416399 0.21029435 0.42104942
0000a0 36 c7 a9 3e 3d 89 e8 3d 9c a5 81 be cf 2d c0 3e
       0.33159798 0.11354301 -0.25321662 0.3753495
0000b0 a6 00 f3 3d 95 be 6c be 3e 36 d1 bd 35 79 a1 bd
       0.11865358 -0.23119576 -0.10215424 -0.078844465
0000c0 fc b4 2c 3d c1 62 70 3e 1c f7 28 bd d1 e3 70 3e
       0.042164788 0.23475172 -0.041251287 0.23524405
0000d0 92 b9 39 bd 31 01 c7 3c 22 29 ad 3d df 34 8d 3e
       -0.04534299 0.02429256 0.08455111 0.275794
0000e0 a4 75 aa bd af e5 74 bd 0a fa 7e 3d 8d 90 4e 3e
       -0.083232194 -0.059789356 0.062250175 0.20172329
0000f0 90 3b 82 3d 6f 01 df bc c0 ab f6 3d b7 dc a4 bd
       0.06359017 -0.027222363 0.120444775 -0.080499105
000100 8f a1 4c be 68 85 5b be ea 10 0c 3e b3 fc 85 bd
       -0.19983505 -0.21437609 0.13678327 -0.06542339
000110 35 5a 8a 3d 0c 9e e4 bd a0 8d a7 3d 69 6b 6c bc
       0.06755487 -0.111629575 0.0818131 -0.014429905
000120 d8 4a b0 bd 74 3a 95 be 2a 27 17 3e c3 f8 05 3e
       -0.08608025 -0.2914616 0.14761034 0.13083176
000130 8f 9d 07 3e 47 d6 1e 3d d2 0b 4f be 0a 67 61 bc
       0.13243698 0.03877857 -0.20219353 -0.013757477
000140 2c 22 aa bc b6 89 8c bb 67 81 b6 3c a2 bb ac bc
       -0.020768248 -0.0042888774 0.0222785 -0.021085564
000150 64 a7 9b 3e ac 08 46 be 66 fd 65 bd d7 19 48 be
       0.30401146 -0.19339246 -0.056149863 -0.19541107
000160 43 a6 80 be 27 ba 51 3e d2 7a 59 bd 0c b4 8e 3e
       -0.25126848 0.20481168 -0.053095646 0.2787174
000170 76 6f 38 3e 51 ff 70 3e 8c b2 47 3d 8a b8 03 3e
       0.18011269 0.23534895 0.04875426 0.12863365
000180 df 9c 17 3e 54 ce ac be cb cc 0b 3e 43 91 38 3c
       0.14805935 -0.33751166 0.13652341 0.011265102
000190 bd 25 9d 3d 15 a8 cc bd 20 a4 05 3c 9b 27 e4 3c
       0.07673214 -0.099929966 0.008156806 0.027850917
0001a0 e0 c9 4f be 46 76 91 3e 14 54 b5 bd 74 bb 88 3e
       -0.20291853 0.28410548 -0.08853927 0.26705515
0001b0 76 6c 76 be d1 3d 32 be 86 bb 0a be a3 e3 eb bd
       -0.24064812 -0.17406394 -0.13548097 -0.11518028
0001c0 62 52 82 3d 71 ec da 3d 6e 5f 83 bd f0 b9 1c 3d
       0.063633695 0.10689629 -0.06414686 0.03826326
0001d0 96 cd e5 bd c4 7e cd 3c 1b 4a 3f 3d bf 6a a9 3d
       -0.11220853 0.02508486 0.04670153 0.08272313
0001e0 23 65 3d bd 3e e6 71 3e f8 98 88 3e 17 a1 a0 3d
       -0.04623903 0.23622987 0.26679206 0.078432254
0001f0 d3 40 2e bd 17 c2 14 3e d1 30 01 bd 68 dc 28 3e
       -0.04254229 0.14527164 -0.031540696 0.16490328
000200 ea 46 2f bd 9d 81 96 3d ef f9 2e be 1e a6 88 be
       -0.04279224 0.073489405 -0.1708753 -0.26689237
000210 b5 71 42 3d ec df aa 3d 95 ec 97 be b9 9b 80 3c
       0.04747172 0.08343491 -0.29672685 0.015699254
000220 48 e7 d5 3d 91 2a 4a be db 7b 8c bd 4a 69 92 3d
       0.10444504 -0.197428 -0.06859561 0.071489885
000230 06 22 0c 3e 13 07 8b be 40 9c bb 3c 25 77 0e be
       0.13684854 -0.27153835 0.022901654 -0.13912638
000240 1d ae 6b 3e c0 b5 a4 3b 60 a5 d7 be cd 75 a6 3d
       0.23015638 0.005026549 -0.4211836 0.081279375
000250 3f 7c 88 bc 29 ac 0f 3e 43 6e f4 bd be d3 68 3e
       -0.016660808 0.14030518 -0.11935093 0.22737023
000260 ba dd 98 3d 03 ad c3 bd 4b cd c5 3d 27 05 29 be
       0.07464166 -0.09554484 0.09658297 -0.16505872
000270 42 7d aa 3c d4 57 b1 be 42 2c 3d be 4e 0e d9 bc
       0.02081168 -0.3463732 -0.18473914 -0.026496079
000280 af 81 51 be 5d a0 6c 3e ec 72 54 be d7 33 78 be
       -0.20459627 0.23108049 -0.20746964 -0.24238525
000290 54 66 23 be c4 ba c2 3c ad 39 98 bd 3a ef 0c be
       -0.15957004 0.023770697 -0.07432876 -0.13763133
0002a0 80 7b 5e bc 5f a2 d9 bd b6 89 f4 3c ac be 1e be
       -0.013579249 -0.10626673 0.029850822 -0.15502423
0002b0 58 33 54 3e 86 9a 8f bc d1 1e 12 3e 49 4a 3d 3e
       0.20722711 -0.017529737 0.14269568 0.18485369
0002c0 83 83 04 bd 23 65 5d be 45 c9 2f 3d 8d 69 65 be
       -0.03235198 -0.21620612 0.042916555 -0.22403546
0002d0 70 22 53 3e a0 89 bf be dd 24 22 ba a5 fe 1f be
       0.20618606 -0.37409687 -0.00061853026 -0.15624483
0002e0 fa 4e a5 3d 78 d4 2d 3e 44 7c 6d be f3 24 62 be
       0.08071704 0.16975582 -0.23191935 -0.22084408
0002f0 79 8e dd 3d bc c0 a7 bd e1 ec 4b 3d 6f f6 ad 3d
       0.1081819 -0.08191058 0.049786452 0.08494269
000300 16 cf c4 bc 54 17 d1 bd 0b 38 b3 3e 4f e5 2a 3e
       -0.024024528 -0.102095276 0.35003695 0.16689037
000310 e5 dd 6e 3d 0f 27 d7 be ca 52 27 3b d6 92 ed bd
       0.058317084 -0.42021987 0.0025531524 -0.11600272
000320 9f 1e a0 bd 23 5a 0c be 81 d9 ee 3d 05 f6 70 be
       -0.078183405 -0.1370626 0.11662579 -0.23531349
000330 b6 56 ec 3c 21 62 71 3e 12 2d a5 bd 94 c3 12 bc
       0.02884994 0.2357259 -0.08065237 -0.008957762
000340 5e 7a 6c 3d 01 ef 50 3e 29 7a bf bd 20 78 03 3e
       0.057733886 0.20403673 -0.09349472 0.12838793
000350 e5 33 92 3e 22 25 3e be 16 7e 9c 3d 14 ef 01 bd
       0.28555217 -0.18568853 0.076412365 -0.031722143
000360 b4 3a a6 be 83 84 5e be 50 f5 2c 3d 29 82 7e 3d
       -0.32466662 -0.21730237 0.042226136 0.06213585
000370 38 72 47 3e 4e 59 38 3e f6 32 4d 3d c7 18 26 3e
       0.19477165 0.18002817 0.05009743 0.1622039
000380 21 20 95 bd 03 3a 9c bd 37 fc a9 3d 6c 90 80 3e
       -0.07281519 -0.07628252 0.08300059 0.25110185
000390 70 be 23 bd df 50 ad be da 75 88 3e 66 48 4c 3e
       -0.039976537 -0.33850762 0.26652414 0.19949493
0003a0 c2 f6 47 3d 92 d1 72 3e 6c ea 24 3d 9c b1 c3 3e
       0.04881931 0.23712757 0.040262625 0.38221443
0003b0 a1 13 f0 be 3c 0a 72 3d 9f d5 e7 bd 22 05 ec ba
       -0.46889976 0.05909179 -0.11320042 -0.0018006901
0003c0 e9 c6 42 3e 42 8d 9a 3d e1 50 90 3d ea dd 58 3e
       0.1902119 0.07546474 0.070466764 0.21178403
0003d0 bd 39 08 3d 5f dd 09 3e 75 8d 8c 3d d1 78 8a 3e
       0.03325819 0.13463353 0.06862918 0.270453
0003e0 9a 6c 11 bd c1 f0 2f be 7c e5 00 3e f6 2a 79 3e
       -0.03550396 -0.17181684 0.12587541 0.24332795
0003f0 e4 80 46 3d ef f3 96 bc 6f 5b a4 bc 1c 22 e4 bd
       0.048462763 -0.018426863 -0.02006313 -0.11139318

a_fc2.bias f4 [64]
000000 79 bc 81 bd ba f3 ae bd 5b a5 23 3e eb 2f e1 bd
       -0.063347764 -0.08542581 0.15981047 -0.10995468
000010 9f a5 d5 3b d3 25 2e 3e af cf 65 3d 9e 31 fa bb
       0.0065199877 0.17006616 0.056106266 -0.0076353094
000020 41 6a 14 3e d0 ba b0 bd b0 25 f5 3c 13 60 78 bd
       0.14493658 -0.08629382 0.029925197 -0.0606385
000030 3a 82 e8 bd aa d3 67 3d c6 28 b1 bc 68 a3 e9 bd
       -0.11352964 0.056598343 -0.021625888 -0.114081204
000040 2c df 2f be 62 d3 30 3d 1f 62 cd 3d cb 17 02 bd
       -0.17174977 0.04317034 0.10028481 -0.031760972
000050 0f 0a fc 3c b5 2c b7 3d 25 5d 15 bc b9 89 03 bb
       0.030766515 0.08944074 -0.009116446 -0.0020071103
000060 4d b9 cd 3d 38 55 d6 3d 2d 41 c4 3d ec 5c c0 3c
       0.10045109 0.10465473 0.09582744 0.023481809
000070 bb e2 1c 3e c6 a4 55 3c a6 dc f2 bd b5 9f f7 3d
       0.15320866 0.013039773 -0.118584916 0.120910086
000080 0d 8a d7 bd 8e ee 58 bd e2 09 04 3d 93 aa 00 be
       -0.10524378 -0.05296188 0.032235987 -0.12565069
000090 2c f6 f2 bd 1f 25 3f be e2 fb 21 bd 8c 5c 2b bd
       -0.1186336 -0.18666504 -0.039546855 -0.041836306
0000a0 b6 37 24 3e 8a 5d b6 bd ef 81 0a be a2 5d 83 3d
       0.16036877 -0.0890456 -0.13526128 0.064143434
0000b0 dd 8e d5 bd 46 ab 68 bd 9a 2f 0c bc 5a 4e 01 bd
       -0.1042764 -0.056803964 -0.008556271 -0.031568862
0000c0 4e 7d a1 bd 44 e4 9b bd 44 e9 af bc ce e6 f1 3d
       -0.07885228 -0.076118976 -0.021473534 0.118116006
0000d0 4a 66 12 3e 39 2f b0 bc 06 b0 34 3e 8c 4c ec bb
       0.14296833 -0.021506893 0.17645273 -0.0072112735
0000e0 cc db 29 be 70 8a 42 3d 12 37 8f bd 86 b4 6f bb
       -0.16587752 0.047495306 -0.06992926 -0.0036576106
0000f0 3e 81 2e 3e fe 3d cb 3b 8b 76 7d bd d2 b3 fd 3d
       0.1704149 0.0062024584 -0.06188063 0.12387814

a_fc3.weight f4 [3, 64]
000000 2b 63 0b 3e c6 6b fa 3d a8 89 ab bd af 70 dc 3d
       0.13612048 0.122275874 -0.08375865 0.1076368
000010 dd 96 bc bd 8a 51 a8 bd ec 08 eb bd 1e 75 45 bd
       -0.092084624 -0.08218677 -0.11476311 -0.048207395
000020 40 93 02 be 81 4f 04 3e 2d 9f ae 3c 19 8a 42 bd
       -0.12751484 0.12920953 0.021316135 -0.04749498
000030 c4 03 20 3e 52 6d 8a bd 1c 2d 67 3c d9 d1 05 3e
       0.15626436 -0.067591324 0.014109876 0.13068332
000040 dc 94 6c 3d c1 97 e9 3c f9 0d 29 be 09 3f 8b 3d
       0.05775915 0.028514745 -0.16509236 0.067991324
000050 23 ce e7 bd d4 a3 f5 bd ad 12 37 3d 73 74 bb 3c
       -0.11318614 -0.11994138 0.044695545 0.022882676
000060 d4 18 7e bb 4c 56 0d be 4c d7 58 bd 14 55 91 bd
       -0.0038772123 -0.13802451 -0.052939698 -0.070963055
000070 99 6d 59 bd 5e 8d 72 3d d8 83 f9 3d 4d 06 0e be
       -0.053083036 0.05921685 0.1218335 -0.13869591
000080 25 8f 98 3d e8 08 b4 3d f8 1d 1b 3d de 8e 12 3e
       0.07449178 0.08790761 0.037870377 0.14312312
000090 33 de f0 3d e7 fc aa 3d 7b 38 3c bd c0 2b 25 3d
       0.11761131 0.083490185 -0.0459523 0.040324926
0000a0 87 d6 2a be e6 f1 d3 3d 90 c9 f8 3d 9e b1 39 bd
       -0.16683398 0.10348873 0.1214782 -0.045335405
0000b0 54 e6 03 3e 06 34 7c 3d 42 6d 00 3c 72 da f1 3d
       0.12880832 0.06157305 0.007838549 0.11809243
0000c0 6e 6f 82 3d 7f 67 fa 3d f3 25 6c 3d 86 9a 8a bd
       0.0636891 0.122267716 0.05765338 -0.06767754
0000d0 89 58 24 be 23 16 ee 3d d6 e0 b0 bd 85 ad f5 bc
       -0.16049398 0.11625316 -0.08636634 -0.029989967
0000e0 06 8b ea 3d ed e4 8e bd be c2 90 bb e8 a2 26 3c
       0.11452298 -0.06977258 -0.0044177463 0.010170676
0000f0 40 72 19 be bf c1 a8 bd 2a a3 0c 3e 98 b0 ed bc
       -0.14984989 -0.08240079 0.13734117 -0.02901487
000100 04 11 d0 bd 61 ab 61 bd 31 7a d6 3d 94 b2 ee bd
       -0.101594955 -0.05509508 0.10472525 -0.11655155
000110 4f 32 f5 3d 45 4f 28 3d ed 5a ef 3d 68 8e 38 3e
       0.11972486 0.041091222 0.116872646 0.18023074
000120 7b ef 7b 3b 17 49 08 be 84 e5 87 3c ea 93 22 be
       0.0038442302 -0.13309132 0.016588934 -0.15876737
000130 e2 70 bb bc a1 5f 41 3d 49 b2 c9 bc 49 06 83 bd
       -0.022880975 0.04721034 -0.024621146 -0.06397683
000140 ff c2 7a bd 90 fb de 3d 7c fe 79 bc b8 8f 56 bc
       -0.06122112 0.108878255 -0.015258428 -0.013095789
000150 d9 79 0f 3e 1c d2 fe 3d 65 b2 3f be d0 40 27 3d
       0.14011325 0.12442419 -0.18720396 0.040833294
000160 45 15 da bc 8a 4f 41 3d 88 48 1d 3d bb c9 8f bc
       -0.02662147 0.047194995 0.03839925 -0.017552247
000170 92 41 41 3d 49 87 ac 3b 7e 48 62 3d 7f 43 84 bb
       0.047181673 0.0052651507 0.055244915 -0.0040363665
000180 26 30 0c bd 7a d7 39 3d ad 7b 83 bd e6 2e ce bc
       -0.034225605 0.04537151 -0.06420074 -0.025168847
000190 51 6b de bd 78 1c 5f bd 6d 27 2a be 01 0c fa bc
       -0.10860313 -0.05447051 -0.16616602 -0.030523302
0001a0 b8 52 32 bc 4d 78 18 be d1 cd d0 bd 25 e2 1a 3e
       -0.0108839795 -0.14889641 -0.10195506 0.1512533
0001b0 08 8e 26 bc d4 93 45 be 19 c7 3b 3d d0 40 b1 bd
       -0.010165699 -0.19294673 0.04584417 -0.0865494
0001c0 29 39 85 3d ee e6 16 be e3 38 bb 3b ac 44 c7 3d
       0.06505043 -0.1473653 0.0057135685 0.09729895
0001d0 e8 86 bd bb b9 8a 95 bd cd 73 d7 3d 1a c7 8f 3c
       -0.0057839043 -0.0730185 0.10520134 0.017550994
0001e0 46 18 26 bd 50 5d 16 3c ab 2c a8 3d 3d e9 22 3d
       -0.040550493 0.009177521 0.08211645 0.039773215
0001f0 95 e7 f9 3c 57 e0 98 3d f5 e5 6e 3d c6 46 ed 3d
       0.030505935 0.074646644 0.058324773 0.115857646
000200 6e ca b4 bd f3 34 b1 bd a8 06 ee 3d 82 03 93 bd
       -0.08827673 -0.086526774 0.11622363 -0.071784034
000210 07 69 57 bc 35 48 d7 3d eb f3 1b 3d 00 58 22 bd
       -0.013147599 0.10511819 0.038074415 -0.039634705
000220 46 fd f1 3d 46 9c 62 bd 53 80 d3 3c 23 31 89 bd
       0.11815886 -0.055324815 0.025818026 -0.06698825
000230 41 52 08 be 9d ca 0f 3d a4 b4 90 3c 2d f0 b4 bd
       -0.13312627 0.035105336 0.017664261 -0.088348724
000240 7d f2 2e be b3 f5 5e 3d 5a ab 04 3e 3f 07 96 bd
       -0.1708469 0.054433536 0.1295599 -0.07325601
000250 df 7b 71 bc da 4d 80 3d 4f 20 b3 3c 89 22 65 3c
       -0.014739006 0.06264849 0.021865992 0.013985285
000260 07 77 af 3d 79 b2 ec 3d 60 84 56 3d ac be 13 3c
       0.085676245 0.115574785 0.052372336 0.009017628
000270 81 9a 1e 3e 28 92 90 3a 36 2d 8b bd d6 66 06 3e
       0.15488626 0.0011029886 -0.06795733 0.13125166
000280 2c 6f 96 bd 2d be 75 bd 44 d3 45 3c 5e 44 e9 bd
       -0.07345423 -0.05999582 0.012074295 -0.11389993
000290 27 40 96 bd b3 92 0a be b6 29 84 bd 96 93 02 bd
       -0.07336455 -0.13532524 -0.06453268 -0.03187903
0002a0 5a 80 25 3e 08 40 4f bd 11 7f a8 bd 45 e6 27 3d
       0.16162243 -0.050598174 -0.08227361 0.040991087
0002b0 02 7f 0a be 63 5f 84 bd ab 8a 8b bc 85 41 0f bd
       -0.13525012 -0.06463506 -0.017033895 -0.034974594
0002c0 78 33 83 bc f2 88 9b bc d0 e7 8b bd 87 bf a1 3d
       -0.016015753 -0.018986199 -0.06831324 0.07897859
0002d0 a8 1d 1f 3e 5a 78 52 bd 0b 66 f0 3d d3 5e 28 3d
       0.15538657 -0.051384307 0.11738213 0.041106056
0002e0 aa cd fe bd a4 4c 99 3d 31 2a 8c bd 37 e6 45 3b
       -0.12441571 0.07485321 -0.06843985 0.0030197033
0002f0 1c 7a 14 3e 68 de 19 3d 63 c4 e7 bd 98 06 f1 3d
       0.14499706 0.03756562 -0.11316755 0.11768836

a_fc3.bias f4 [3]
000000 25 b5 21 bd 90 0c aa 3c a2 e8 3d 3e
       -0.039479394 0.020757943 0.18545774

c_fc1.weight f4 [64, 11]
000000 8c 3d 1a 3e cf ec 82 be 90 35 be bd 5e cf d4 bd
       0.15062541 -0.25571296 -0.0928756 -0.10391115
000010 e2 90 a9 3c 89 e7 a8 bd ab b4 f8 bd 33 95 c8 bd
       0.020698968 -0.08247287 -0.12143835 -0.097940825
000020 ef 62 25 be b0 ea c4 bd cd 37 8f bd 27 53 9e 3e
       -0.16151021 -0.096150756 -0.06993065 0.30922815
000030 04 db 43 3e bd 3c af 3e 53 55 e3 3d 6a 81 94 be
       0.19126517 0.34226027 0.11100259 -0.29004985
000040 67 3f fc be 83 5e 1e 3e ac 1d 13 be 3c c9 02 be
       -0.49267122 0.15465741 -0.14366788 -0.12772077
000050 84 d7 61 3e 41 7e b1 3e 03 13 d0 3c 89 fe 00 3c
       0.22054869 0.34666637 0.02539969 0.007873186
000060 af a6 3f bd 81 f7 e5 bd 3a 05 5b 3e 0d a4 53 be
       -0.04678982 -0.11228848 0.21388713 -0.20668049
000070 4f 36 96 bd 42 d6 b7 3d 2e 72 a1 be 25 27 4c bd
       -0.07334577 0.08976413 -0.31532425 -0.04984202
000080 bd 95 fa 3d db 21 6c 3e e5 6f 85 bd 36 d2 a3 be
       0.122355916 0.2305979 -0.06515483 -0.31996316
000090 76 e0 80 be 62 27 84 3e 99 f1 b4 bd 1c 31 36 be
       -0.2517125 0.25811297 -0.088351436 -0.17792171
0000a0 bb 3c 94 3d 58 c9 a2 be 51 6b 87 be d4 15 83 bd
       0.07238146 -0.31794238 -0.26449063 -0.06400648
0000b0 90 ca 9d 3e 1a fd d2 be 61 e8 22 be 9b 9d 0e be
       0.30818605 -0.41208726 -0.15908958 -0.13927309
0000c0 fb 4a 54 3e c7 eb 69 3d 60 f4 df bd 0c c9 4b bc
       0.20731728 0.05710962 -0.10935283 -0.01243807
0000d0 70 8f 48 be 30 8c 58 be 0b 17 d6 bd 91 85 8c be
       -0.19585967 -0.21147227 -0.10453614 -0.27445653
0000e0 6c 36 a9 bb 0a e8 2c 3d 6f 5a ee 3d 3d 3a a6 3e
       -0.0051639583 0.042213477 0.116383426 0.32466307
0000f0 85 e7 c8 3e 22 8e 6f 3e fb 4a 28 3e 51 38 9c 3c
       0.39239135 0.23394063 0.16434853 0.019069823
000100 7c 74 21 be 16 4f e9 bd 75 1a 35 3e e7 6c bd 3d
       -0.15767092 -0.113920376 0.17685874 0.09249287
000110 9d 7e 9b 3e 86 34 10 3e f3 3d e2 bd 51 a5 30 be
       0.30370036 0.14082536 -0.11046972 -0.17250563
000120 d0 0b 06 3e 93 8c d4 3d 8c d0 d3 3d 0b 0c 0c 3e
       0.13090444 0.10378375 0.103425115 0.13676469
000130 fe 7e 23 3d 1b d7 e6 3d b3 1a b7 bc f2 25 24 3d
       0.03991603 0.11271497 -0.022351598 0.04007525
000140 be 65 c1 be 3c 0d 16 3d 6a 4f b4 bb 70 96 4a bd
       -0.37772936 0.036633715 -0.005502631 -0.049459875
000150 7b 64 b8 be 01 72 00 be 38 e4 6c be 03 e2 0e 3d
       -0.3601416 -0.12543489 -0.23133934 0.03488351
000160 5e 23 07 3e e6 56 ad be a1 90 02 bc 34 95 1c 3d
       0.13197085 -0.3385536 -0.0079690525 0.03822823
000170 52 bf bc 3d 2a e2 31 3e 02 d0 f1 bd a0 4e 70 bc
       0.09216179 0.17371431 -0.118072525 -0.014667183
000180 cb fc 3a be df 1c cf bd 37 07 bf bd 79 71 37 3d
       -0.18260495 -0.101129286 -0.09327548 0.04478595
000190 b1 64 dc 3d 91 ad 40 3e 32 a1 82 3e a9 60 97 be
       0.10761393 0.1881621 0.25513607 -0.29565933
0001a0 83 59 5a bd e8 52 d2 3c 6c 1c 51 bd e9 af d2 3d
       -0.05330802 0.025674298 -0.051052496 0.102874584
0001b0 ff ba 0c 3b 3b 4e 93 3d b0 e4 01 be 86 29 21 3e
       0.0021473763 0.07192656 -0.12684894 0.15738496
0001c0 d0 62 57 3e 7f 63 2a 3e b2 5a 69 be cb f4 7e bd
       0.21033788 0.16639517 -0.22788504 -0.06224517
0001d0 e3 d4 88 3e ae 9e a7 3d 8f b3 35 3e 2d e8 eb bc
       0.2672492 0.081845626 0.17744277 -0.028797233
0001e0 38 84 b8 bd 3e 82 69 3e 89 8e 67 be 29 1c 40 be
       -0.09009594 0.2280359 -0.22612967 -0.18760742
0001f0 eb 10 85 be c3 49 23 3c 91 e1 7f 3e d1 9a eb bd
       -0.2598947 0.009966317 0.2498839 -0.11504138
000200 0c 53 ca 3c 16 41 1d be 93 a6 56 be 83 0a 4e be
       0.024697803 -0.1535686 -0.2096198 -0.20121197
000210 b1 bd 2a be ba 67 7a 3e 78 45 b9 3e 90 ee 6f 3e
       -0.16673924 0.24453631 0.36185813 0.23430848
000220 87 25 b1 bb 9f f1 81 be 10 35 a6 3d a4 ed de 3d
       -0.005406085 -0.25379655 0.081155896 0.1088517
000230 1f 85 3e 3e d1 80 90 3e f2 9f 1a 3e 18 3d 0d 3e
       0.18605469 0.2822328 0.15100077 0.13792837
000240 7f 84 cd 3d a0 16 45 be 27 a1 19 be a3 d8 b0 be
       0.10035037 -0.19246912 -0.15002881 -0.3454028
000250 72 84 01 be 5d ef da bd 58 6e 1a be 14 c0 7c be
       -0.1264818 -0.10690186 -0.15081155 -0.24682647
000260 f5 c4 b9 bd 01 a3 ec 3d db e3 b5 3d 47 a8 76 bb
       -0.0907077 0.11554528 0.088813506 -0.0037636922
000270 df 64 99 3c f5 f6 88 3d dc 6c 12 bc 17 7c a2 be
       0.018724857 0.06687728 -0.008937087 -0.31735298
000280 4c 16 a6 3b 9f 31 4a bd b0 53 b0 3d 41 ec 99 3d
       0.005068576 -0.04936373 0.08609712 0.07515765
000290 90 ef 23 3d 8c 18 4c 3e 80 80 a7 3c 3e 3d 55 be
       0.040023386 0.19931239 0.020447016 -0.20824143
0002a0 0d 76 d6 bd eb 2c 63 bd 53 3d f9 3d 50 90 af bd
       -0.10471735 -0.05546276 0.121699 -0.08572447
0002b0 dc 4e 76 3d 2a d5 70 be 67 5e 8f be 84 ec f3 bd
       0.0601338 -0.23518816 -0.2800171 -0.11910346
0002c0 1e 22 67 bc 63 49 f6 3d 47 d9 16 be 5a 81 38 3d
       -0.014107255 0.12025716 -0.14731322 0.045045234
0002d0 eb 58 31 3d 75 d9 46 be c3 be 5b 3d 14 77 7e be
       0.04329769 -0.19418891 0.05364872 -0.24850112
0002e0 26 88 8f 3c 9f 6f c6 3e 11 13 8f 3c e8 0a 48 be
       0.017520975 0.38757035 0.017465146 -0.1953541
0002f0 17 49 c0 3d b9 fa c8 3e ea 3e d8 bd ef bb 50 3d
       0.09388941 0.39253786 -0.10558875 0.050960477
000300 59 ef b3 ba 3a 9d 24 3e 14 36 f4 3d ce f9 89 3e
       -0.0013727947 0.16075602 0.11924377 0.26948398
000310 f0 bd 8a 3e e2 55 93 3d 46 16 50 3e 8c 05 c0 bd
       0.27098036 0.07194115 0.20320997 -0.09376058
000320 f8 61 81 be 83 18 e6 bd 92 46 83 3c 12 03 0e 3e
       -0.25270057 -0.11235144 0.016024861 0.13868359
000330 3b 5c 88 bc c4 12 73 bc 3c 96 09 be e5 a8 24 3e
       -0.016645541 -0.014836017 -0.13436216 0.16080053
000340 ba bb 6d 3e 9e e3 9c bd c1 1e b9 3e 06 9d 57 3e
       0.23216143 -0.07660602 0.36156276 0.21055993
000350 d3 f4 cd 3d d5 0f ea ba 92 29 28 bd ed d3 8a 3e
       0.10056462 -0.0017857502 -0.04105527 0.27114812
000360 0a 51 d9 bd 9f 53 85 3e 58 e4 3c 3c 54 5a 2f bd
       -0.1061116 0.2604036 0.011529051 -0.042810753
000370 47 41 23 be 69 1c 46 3d 3a 00 93 3e d3 d8 87 3e
       -0.1594287 0.048366938 0.2871111 0.2653261
000380 aa 17 8c bd 7e 88 b6 bc 95 b1 c2 3e b7 97 08 3e
       -0.06840451 -0.022281881 0.3802611 0.13339125
000390 46 df ab 3c 1b fc e7 3c 56 66 5b 3d af 78 a6 3e
       0.020980489 0.028318455 0.053564392 0.3251395
0003a0 5b 4d 2e bd 6d a1 85 be fa 22 97 be 33 ad 24 be
       -0.04255424 -0.2609972 -0.29518872 -0.16081695
0003b0 60 28 17 3d 28 f4 4f be 4d 44 76 bd 7c 3e 91 be
       0.03690374 -0.20307982 -0.06012373 -0.28367984
0003c0 b2 78 16 be 80 72 cc bd eb 38 35 3e 00 dd 61 be
       -0.14694479 -0.09982777 0.17697494 -0.22056961
0003d0 0c 40 aa be ad 2a e0 bd 03 7b 4d 3e 3b 4f 75 3e
       -0.3325199 -0.1094564 0.20066456 0.23956005
0003e0 04 c3 02 be 25 ee 4c be 1d c2 f4 bd 40 70 65 be
       -0.12769705 -0.2001272 -0.11951087 -0.22406101
0003f0 7d a5 36 be 53 7f a7 bd d5 ea 84 bc d0 8c 30 be
       -0.17836566 -0.08178582 -0.016225258 -0.17241216

c_fc1.bias f4 [64]
000000 21 9e 87 3e c8 ac 97 bd 8a 3a 0f 3e d5 07 48 3e
       0.2648783 -0.07406002 0.13987175 0.19534238
000010 19 36 85 3e f2 e3 12 bd de 36 08 be 43 4b 36 3e
       0.26017836 -0.035861917 -0.1330218 0.17802148
000020 fc dd 54 3e b0 d4 16 be c6 fa 62 be f9 a4 49 3e
       0.20787805 -0.14729571 -0.22165975 0.19691838
000030 43 a7 69 be 43 44 f6 3d 46 13 10 be d5 db 48 3e
       -0.22817712 0.12024739 -0.14069852 0.1961511
000040 a5 53 2e bd d5 2a 5c be 85 4b 0f 3e 3c 4a 46 be
       -0.04256024 -0.21500714 0.13993652 -0.19364256
000050 15 4b 2e be 20 c8 74 3e e6 13 7b 3e 31 21 07 3e
       -0.17020829 0.23904467 0.2451931 0.13196255
000060 54 af 10 3e d6 ee 4c be d8 28 58 3e b6 88 3e 3e
       0.14129382 -0.20012984 0.2110933 0.18606839
000070 6f 21 30 be cd fa 97 3e 6a 50 79 be 74 54 3e be
       -0.17200254 0.29683533 -0.24347082 -0.18586904
000080 47 f8 fa bd b6 5f 5d be 4b cd 7f 3e 1e 64 07 3e
       -0.122543864 -0.21618542 0.24980657 0.13221785
000090 7e 99 7a 3e dc 9b 46 be c8 9d 1d be 15 3d ea bd
       0.24472615 -0.19395393 -0.1539222 -0.11437432
0000a0 0f d9 5e 3e b3 67 f9 bd 6f 2c 29 bd 4c 28 92 3d
       0.21762489 -0.12177982 -0.04130214 0.07136592
0000b0 ce 41 8d 3e 22 c3 52 be 30 cf 3f be 26 72 1a 3e
       0.27589267 -0.2058225 -0.1873138 0.15082607
0000c0 e7 3d a6 be 0d 64 5e be c8 83 58 be 80 17 e0 bd
       -0.32469103 -0.21717854 -0.2114402 -0.10941982
0000d0 ce a7 31 3e b3 d4 f6 bd 01 48 85 be 68 0c 8e 3d
       0.17349169 -0.12052288 -0.26031497 0.0693596
0000e0 07 95 85 3e 33 85 41 3e 14 0d b0 bd 67 ef 13 be
       0.2609026 0.18898468 -0.085962445 -0.14446793
0000f0 a1 4c d5 3d 8a 0b b7 be 0e c0 a8 3e 54 ec 7d be
       0.104150064 -0.3575099 0.32959026 -0.24797183

c_fc2.weight f4 [64, 64]
000000 1a 1c 51 3e 63 e6 fb bc 5c 31 2d 3e 64 0c 37 3e
       0.20420876 -0.030749505 0.1691336 0.1787582
000010 66 0c 31 3e 36 36 43 3e 92 98 fd bd 7b 9d 6d 3e
       0.17289886 0.19063649 -0.12382616 0.23204605
000020 08 99 6c bd a7 6f 5c be fc 5b 22 be 5a d2 17 bd
       -0.05776313 -0.21526967 -0.15855402 -0.03706584
000030 3f ff d8 3c b2 8c 85 bd 23 00 de be 67 aa cf bd
       0.026488898 -0.06520976 -0.4335948 -0.101399235
000040 8c 46 9d ba 1a 92 f9 3d 99 b1 88 3d 14 00 53 be
       -0.0011999174 0.1218607 0.06674499 -0.20605499
000050 e8 b3 c0 bd e4 ab 00 3e 4f d8 3e 3e 74 91 8b 3e
       -0.094093144 0.12565571 0.18637203 0.2725941
000060 05 e6 cf 3d 25 98 25 be 27 60 59 bd fc 09 e4 bc
       0.101512946 -0.1617132 -0.053070214 -0.027836792
000070 4b fb 5a be fe 05 39 3e 72 c1 cf bd 4d 98 d6 bd
       -0.21384923 0.18068692 -0.10144319 -0.10478268
000080 78 06 07 be f6 6c 3f bd 4c 4c bc 3d 64 c7 f8 3c
       -0.13186061 -0.046734773 0.0919424 0.030368514
000090 49 e0 60 3e 9e be 88 be 25 4d 3c be df c2 88 be
       0.21960558 -0.2670793 -0.18388803 -0.26711175
0000a0 6a e9 20 3e 07 f0 60 be de 5c e3 bd f1 8b 62 3e
       0.1571404 -0.21966563 -0.111016974 0.22123696
0000b0 14 da d4 3d 88 4e 87 bc cf eb eb bd 23 35 90 3d
       0.103931576 -0.016516939 -0.11519586 0.07041385
0000c0 66 c7 4c be d0 24 b8 bc 94 b8 a9 bc 9d 94 50 3d
       -0.1999794 -0.022478491 -0.020717897 0.05092298
0000d0 18 f3 6f 3e ba dc 6a be aa 6b 84 bd 8f 00 fa 3d
       0.23432577 -0.22935763 -0.06465848 0.12207138
0000e0 9d cd 84 be 67 81 a3 3d 89 95 04 bf c5 d9 9c 3d
       -0.2593812 0.07983666 -0.5179067 0.07658724
0000f0 83 11 98 bd f2 58 26 be d5 2a 42 3e 36 76 ad be
       -0.07425215 -0.16244867 0.18961652 -0.3387925
000100 ba 61 fc bd 1d fd d0 be e9 92 27 3e 67 08 3e be
       -0.12323327 -0.4081811 0.16364636 -0.18557893
000110 db 80 a8 bd 69 23 80 3e 4e d4 39 bd 05 12 d5 3d
       -0.08227702 0.25027016 -0.045368485 0.104038276
000120 f5 2a b4 bc 06 b7 56 3e 7f e3 a5 3d f1 a0 6f be
       -0.02199314 0.20968255 0.08100032 -0.23401238
000130 4d eb a2 3e 86 cd 99 be 5a 15 82 bd 4c 56 40 be
       0.31820145 -0.30039614 -0.06351729 -0.1878292
000140 f3 fe 5d be a3 08 20 3e 6d d2 24 be c2 88 23 3e
       -0.21679287 0.15628295 -0.16095896 0.15970138
000150 d9 db 89 3d f3 08 fa bd ac ab 35 be 64 d1 5e bd
       0.06731386 -0.12208738 -0.17741269 -0.05439891
000160 b1 69 a8 3c a2 26 56 3e 71 81 f0 bd a7 3f 72 be
       0.02055821 0.20913175 -0.11743439 -0.23657094
000170 c1 0c 5a 3e ba f3 d8 be 87 d8 0d 3d dc ff 9b 3d
       0.21293928 -0.4237345 0.034630325 0.07617161
000180 92 d1 ce be 9b d3 16 3e 28 d4 46 bd c1 7f 86 3d
       -0.40394264 0.14729159 -0.04854217 0.06567336
000190 f1 51 e0 3c 18 f4 be 3c 9e ab 4c bd d1 03 3b 3e
       0.027382823 0.023309752 -0.049968354 0.18263175
0001a0 f3 44 94 3c e9 34 99 bd af ba c0 3e c7 22 d3 3e
       0.018099284 -0.07480795 0.37642428 0.4123747
0001b0 70 77 a6 be 54 26 ec 3d 7f 0e 8e bc 09 2f 98 3d
       -0.32513 0.11530748 -0.017340897 0.07430846
0001c0 66 f8 b5 3d 8f 00 dc 3d 9f 10 90 3c a5 97 90 3d
       0.08885269 0.10742294 0.01758605 0.07060174
0001d0 66 c2 44 be f5 a6 10 be dc 23 06 3d 0f 13 13 3e
       -0.19214782 -0.14126189 0.032749042 0.14362739
0001e0 ff c2 32 be 5d 44 8d 3d 28 bd c7 3c 06 b9 b1 bc
       -0.17457198 0.06897805 0.024382189 -0.021694671
0001f0 22 68 6d bd 84 63 cb bc 03 46 95 be 35 74 2a be
       -0.057960637 -0.024827726 -0.29154977 -0.16645892
000200 e9 28 dc 3d fe 0c d1 be 5c 04 2d 3e b6 a0 a7 3d
       0.107499905 -0.40830225 0.16896194 0.0818495
000210 a6 b7 ce 3d 92 5c 38 bc 89 c2 a8 be d5 a5 95 3b
       0.10093622 -0.011252539 -0.3296092 0.004566888
000220 c3 88 fa bb 37 95 3c be 79 15 76 bd 06 4b be 3d
       -0.007645698 -0.18416296 -0.06007907 0.09291653
000230 c1 fa 2c 3e f7 49 f0 3d a6 55 83 be 81 47 34 3e
       0.1689253 0.11732858 -0.25651282 0.17605402
000240 5c f8 d4 bd 1f 71 9c 3b d6 47 9d 3e cc 20 a3 be
       -0.10398933 0.0047742273 0.3071887 -0.3186096
000250 ab 63 21 3e b1 06 5f 3e b0 0d 35 bc 71 1e 38 be
       0.15760677 0.21779896 -0.011050627 -0.17980362
000260 9a c6 a6 3e 90 b2 aa be a8 89 70 3e f8 5f 43 bc
       0.32573396 -0.33339357 0.23490012 -0.011924736
000270 b1 28 d3 bd 01 36 ae 3e c4 ed 36 be 2c 66 28 be
       -0.10310496 0.34025577 -0.17864138 -0.16445225
000280 54 7e 6a bd 3a 33 a7 bd b4 bb 7a 3e 6b 51 bc bd
       -0.057249382 -0.081640676 0.24485666 -0.09195217
000290 d8 1c f1 3d 28 a7 02 be 37 08 59 bb d1 6d 20 bd
       0.1177308 -0.12759078 -0.0033116469 -0.03916723
0002a0 34 ad 2a 3e 03 83 e0 be 64 4f b4 3d db a9 0d 3e
       0.16667634 -0.43849954 0.08804205 0.13834326
0002b0 46 35 14 3e ff dd 42 be 2f 9e a2 bd 09 aa 4a 3e
       0.14473447 -0.19029997 -0.079403274 0.19791426
0002c0 4e df 24 be 35 86 58 be f1 f3 38 3d a0 32 6a 3d
       -0.16100809 -0.21144946 0.045154516 0.057177186
0002d0 4f 44 28 3e bf 44 48 be 84 8c ab bd c8 77 60 3e
       0.16432308 -0.19557475 -0.083764106 0.21920693
0002e0 b0 f5 31 3e a0 21 c7 3d 97 48 c5 bb 1c 4b e2 3d
       0.17378879 0.0972321 -0.0060206163 0.11049482
0002f0 b1 6a b5 3d b1 59 88 be e4 d7 09 3e 93 d6 62 be
       0.088582404 -0.2663093 0.13461262 -0.22152166
000300 b2 8d 73 be 6f 12 8e 3e f8 28 e6 3c a9 70 ba bd
       -0.23784521 0.2774844 0.028095707 -0.091035195
000310 96 29 d7 bd 8e f9 3a 3e 4b e2 80 3e 82 81 46 be
       -0.10505979 0.1825926 0.25172648 -0.19385341
000320 7c 09 02 be cc 2e cd 3d de 8b ea 3e 80 58 86 be
       -0.1269893 0.100186914 0.45809835 -0.26239395
000330 bb 86 03 3e 9a 4d f2 bd f4 05 b5 3e ca f9 55 be
       0.12844364 -0.118312076 0.35356104 -0.20896068
000340 eb 05 b8 3c cb a5 5c 3d bd c3 f0 bd bb 05 b8 3d
       0.02246376 0.05386905 -0.11756084 0.08985468
000350 bd 9e 3a bc 70 27 6d be 38 b0 30 be 97 0b 2a bd
       -0.011390385 -0.23159575 -0.17254722 -0.04151496
000360 e4 71 83 be 90 f6 92 3e 77 7e ff be 87 9d e2 bb
       -0.2567283 0.28703737 -0.49901173 -0.0069157514
000370 c3 70 87 bc 58 b2 08 be ae 7c 92 3c 5f 59 70 3d
       -0.016533261 -0.13349283 0.017881718 0.05867898
000380 e6 c8 67 3e 10 28 43 3d 5e 30 bb 3c 41 bc a4 be
       0.2263523 0.04764563 0.022850212 -0.32174876
000390 c3 c6 53 be 69 0c 6e 3e 07 25 76 3e bb ba 86 3e
       -0.2068129 0.23246922 0.24037562 0.2631434
0003a0 ca fb 1b bd 67 e6 99 3e f4 96 ec 3d 78 19 22 be
       -0.03808192 0.30058596 0.115522295 -0.15830028
0003b0 fd c2 91 3e da 65 c0 3d 16 d5 5e 3c 91 21 28 be
       0.28469077 0.09394427 0.013600608 -0.16419055
0003c0 52 79 24 3d 44 4a c6 3d fb 3d ec 3d 7f 18 df 3d
       0.040154763 0.09682134 0.11535259 0.10893344
0003d0 64 46 8d be d8 8c 92 3e 40 17 b1 3e b7 80 16 3c
       -0.27592766 0.2862308 0.3458805 0.009185961
0003e0 ff 1b 07 be 14 c4 8f be de cc 66 3e 7b bc 45 3e
       -0.13194273 -0.28079283 0.22539088 0.19310181
0003f0 12 8f b5 3b 58 69 54 3d ad b3 04 3c 99 cc 06 3d
       0.005540737 0.051858276 0.008099479 0.032909963

c_fc2.bias f4 [64]
000000 5d 5e f0 3d 60 ef 88 3c 24 1e 10 3e 1a 23 29 be
       0.11736748 0.016715705 0.14073998 -0.16517296
000010 76 d9 a4 bc 03 ae c9 3d f8 57 6a 3d 8a 69 2c 3e
       -0.020123225 0.09847643 0.0572128 0.16837135
000020 1e e9 f3 3d fd e2 f7 3d 70 1d 2a 3e c7 9b b5 3d
       0.11909698 0.121038415 0.16612792 0.08867603
000030 c5 e9 d9 bd aa bf f1 3d 58 38 f6 3a 93 09 3d be
       -0.10640291 0.11804135 0.0018785102 -0.18460684
000040 b6 3d 69 bd 07 37 8a 3d 20 b5 f9 3d 3c c4 3a be
       -0.056943618 0.06748777 0.1219275 -0.1823892
000050 86 c8 f1 3d a5 c3 36 3e a9 be c5 3d b5 e2 3d be
       0.11805825 0.1784807 0.09655506 -0.18543513
000060 63 b6 37 3e 7b 5c f6 bd 94 ec 02 be c1 3e ac 3d
       0.17940669 -0.12029358 -0.1278556 0.08410407
000070 07 cc de bd 5f 27 fc bd 65 5b 09 bd 5b 66 2b 3e
       -0.10878759 -0.12312197 -0.033534426 0.16738264
000080 25 b5 12 3e 0f 94 db bd de 90 28 bd 64 22 94 3d
       0.14326914 -0.10721599 -0.04115378 0.07233122
000090 e5 93 17 3e 70 a7 4e be 6d 4c db bd f8 63 06 be
       0.14802511 -0.2018106 -0.107079364 -0.13124073
0000a0 d7 cb 00 3e ff 79 e1 3d f1 5b 10 3e 1c 74 98 3d
       0.12577759 0.11009597 0.14097573 0.07444021
0000b0 fd f6 1f bd 90 87 ed bd 65 b7 3a be 77 36 c8 3d
       -0.039053906 -0.11598122 -0.18234022 0.09776013
0000c0 76 49 d8 3d c6 5b 0c bd 8a ca e9 3d ed 42 41 be
       0.105608866 -0.03426721 0.114155844 -0.18873186
0000d0 cc 3e a9 3c 38 64 68 3d bb ac ca 3d 9d 3b ca 3d
       0.020659827 0.0567362 0.09896227 0.098746516
0000e0 41 6d ef 3d ea 6a 14 3e 59 08 17 be 81 31 b1 3d
       0.116907604 0.1449391 -0.14749278 0.0865202
0000f0 c5 e2 83 bd 19 ac 0f be 48 58 a3 bd ce a3 18 be
       -0.06439737 -0.14030494 -0.07975823 -0.14906237

c_fc3.weight f4 [1, 64]
000000 45 56 3d 40 77 86 3a 40 05 a0 38 40 02 e9 36 c0
       2.9583905 2.914457 2.8847668 -2.8579717
000010 d9 a7 42 c0 4e 1b 3f 40 f8 a3 38 40 aa 31 35 40
       -3.0414946 2.9860415 2.8850079 2.8311563
000020 5a 8d 3e 40 2f a4 3b 40 0f 66 35 40 a0 a5 48 40
       2.9773774 2.931896 2.8343542 3.135109
000030 f3 22 43 c0 85 a4 3a 40 b9 cd 3c c0 dd fb 35 c0
       -3.0490081 2.9162915 -2.9500563 -2.8434975
000040 6b 5f 36 c0 9c 46 36 40 85 6e 3a 40 99 f2 34 c0
       -2.8495739 2.8480597 2.9129956 -2.827307
000050 dc 71 3b 40 3c 56 35 40 8c 59 44 40 13 fb 33 c0
       2.9288244 2.8333883 3.0679655 -2.8121994
000060 ca 4d 34 40 ff 83 3b c0 ba 90 39 c0 f8 52 3b c0
       2.8172479 -2.9299314 -2.8994584 -2.926939
000070 42 8e 3e c0 c1 d2 39 40 88 65 3c c0 3d e9 34 40
       -2.9774327 2.9034884 -2.943697 2.8267357
000080 14 68 3a 40 11 8c 3e c0 4d 81 39 c0 a2 eb 34 40
       2.9126024 -2.977299 -2.898517 2.826882
000090 bd ff 37 40 cb 29 35 c0 d5 5f 3c c0 08 d9 39 c0
       2.874984 -2.8306758 -2.9433491 -2.9038715
0000a0 4d a8 3c 40 92 7a 42 40 c0 73 39 40 28 5e 39 40
       2.9477723 3.038731 2.8976898 2.8963718
0000b0 31 20 3b c0 bf cf 40 c0 03 2b 36 c0 4b 03 42 40
       -2.9238398 -3.0126798 -2.8463752 3.031451
0000c0 a4 96 3f 40 54 77 3c 40 49 c4 3d 40 36 42 35 c0
       2.9935694 2.9447832 2.9651053 -2.8321662
0000d0 36 26 3d 40 34 84 37 40 0b 56 46 40 04 38 42 c0
       2.9554572 2.867444 3.0990016 -3.034669
0000e0 81 10 3f 40 7d b4 37 40 e9 c7 36 c0 e5 b9 46 40
       2.9853823 2.8703911 -2.8559515 3.105096
0000f0 3b 98 3d c0 42 de 39 c0 08 a3 37 40 0c 91 37 c0
       -2.9624164 -2.9041905 2.8693256 -2.868228
