PPO/model/ppo_699.pth (torch_old, 42209 bytes, 12 tensors)

a_logstd f4 [1, 3]
0	0xbdc1fc1a	-0.09471913
1	0xbdb67c0d	-0.089103796
2	0xbde0becc	-0.109738916

a_fc1.weight f4 [64, 11]
0	0x3e528929	0.20560135
1	0x3d8dd03a	0.06924482
2	0xbd456870	-0.048195302
3	0xbe9346a0	-0.2876482
4	0x3d703a85	0.05864956
5	0xbe833093	-0.25622997
6	0xbe0f6450	-0.1400311
7	0xbcac303b	-0.021019092
8	0xbe30851b	-0.17238276
9	0xbdb0e9e6	-0.086383626
10	0xbda79c90	-0.08184159
11	0x3e3bfc6c	0.1835801
12	0xbdfcc972	-0.1234311
13	0xbe663158	-0.2247976
14	0x3c3f63ab	0.011681478
15	0x3d1ed111	0.0387736
16	0xbe20e523	-0.15712409
17	0xbd920279	-0.07129378
18	0xbea85ca0	-0.32883167
19	0xbcb9486e	-0.022617545
20	0xbe40530d	-0.18781681
21	0xbd2b9ac3	-0.04189564
22	0xbe6af222	-0.22943929
23	0x3e5fbdb6	0.21849713
24	0x3d0ac288	0.033876926
25	0x3d518974	0.051156476
26	0x3e6bff1f	0.2304654
27	0xbc55aa15	-0.013041039
28	0x3e303722	0.17208531
29	0x3e8df70c	0.27727544
30	0xbcc2a82f	-0.023761837
31	0xbd7e4ade	-0.062083118
32	0xbe563ccd	-0.20921631
33	0x3dd610c8	0.104524195
34	0x3e59e72e	0.21279594
35	0x3e78aec1	0.24285413
36	0xbe388e3b	-0.18023007
37	0x3eb210a9	0.34778336
38	0x3db498e7	0.08818226
39	0x3e342203	0.175911
40	0x3e0b7edc	0.13622612
41	0x3df10d06	0.11770062
42	0x3dbe3508	0.09287459
43	0xbd815317	-0.06314676
44	0xbe832879	-0.25616816
45	0x3e3a82f3	0.18214016
46	0xbddc6ebb	-0.10763308
47	0x3e418346	0.18897733
48	0x391a5104	0.00014716765
49	0x3e1f6514	0.15565902
50	0xbe679f95	-0.2261947
51	0x3e632b94	0.22184592
52	0x3bc2caa4	0.005944567
53	0xbd460a96	-0.04834994
54	0x3bb3ff49	0.005493079
55	0xbd7d873f	-0.06189656
56	0xbdce60e4	-0.10077074
57	0xbd6cde72	-0.057829328
58	0x3e1a2115	0.15051682
59	0xbe2f5532	-0.17122343
60	0xbdc7cce2	-0.09755875
61	0x3c8eb0c1	0.017418267
62	0xbe7a1591	-0.2442229
63	0xbd5d229b	-0.05398808
64	0xbbd4f771	-0.006499224
65	0x3daa4849	0.083145685
66	0x3d920c67	0.07131272
67	0x3e5738e2	0.21017793
68	0x3dc69a90	0.09697449
69	0xbdc34aa7	-0.09535723
70	0x3d8e930b	0.0696164
71	0x3e03053d	0.12794967
72	0xbdb08f92	-0.08621134
73	0xbe0d1fda	-0.13781682
74	0x3e282309	0.16419615
75	0xbdd3e85d	-0.10347054
76	0xbd73102f	-0.059341606
77	0x3dc65449	0.09684045
78	0xbe844da2	-0.2584048
79	0x3dd100cb	0.10205229
80	0x3e4ea270	0.20179152
81	0x3c7b7ed3	0.0153500615
82	0x3dcc542c	0.09976992
83	0x3d103cce	0.035214238
84	0xbed432c8	-0.41444993
85	0x3cf3d25f	0.029763399
86	0xbde77216	-0.11301057
87	0x3d5ada27	0.053430703
88	0x3eb33f63	0.35009298
89	0xbe5d35b2	-0.21602514
90	0xbd890b4d	-0.066916086
91	0xbdfaf528	-0.12253791
92	0xbe9abe77	-0.30223438
93	0x3e350a70	0.17679763
94	0xbe2163e0	-0.15760756
95	0xbdbcaf71	-0.0921315
96	0xbe1c5ba9	-0.1526934
97	0x3db5dc17	0.088798694
98	0x3b9ff5b5	0.0048815855
99	0xbd6d4bf6	-0.05793377
100	0xbe2b1b5d	-0.16709657
101	0xbe486ef4	-0.19573575
102	0x3e1575cc	0.14595717
103	0xbe7faa65	-0.24967344
104	0xbc1455c3	-0.00905365
105	0xbd60ada6	-0.054853104
106	0xbe7a4160	-0.24439001
107	0xbd168fed	-0.036758352
108	0xbc51384b	-0.012769769
109	0x3dd30723	0.103040956
110	0xbe5610c0	-0.20904827
111	0x3de04495	0.10950581
112	0xbd9d80c3	-0.07690575
113	0xbe1d8fd9	-0.15386905
114	0x3d9462bc	0.072453946
115	0x3e33ed26	0.17570934
116	0x3c276a94	0.010218281
117	0xbd746e56	-0.059675537
118	0x3e2865f3	0.1644514
119	0xbd9fe5d6	-0.078075096
120	0xbd960572	-0.07325257
121	0x3e67d3d8	0.22639406
122	0xbe552cfe	-0.20817944
123	0x3bf5cf14	0.0075014923
124	0xbde9eb30	-0.114218116
125	0xbd4164cc	-0.047215268
126	0x3db02648	0.086010516
127	0xbd7b8ad7	-0.061411705
128	0xbe252b9e	-0.1612992
129	0xbcec30eb	-0.02883192
130	0x3c3c28f8	0.011484377
131	0x3d5a55c8	0.053304464
132	0x3e0820e3	0.13293795
133	0xbc424ef5	-0.011859645
134	0xbd9686cc	-0.07349929
135	0xbb5881a6	-0.003303626
136	0x3e8f2ac8	0.27962327
137	0xbe6758e6	-0.22592506
138	0xbd9d25b6	-0.076732084
139	0xbea07800	-0.31341553
140	0x3dfe9aca	0.124318674
141	0xbd982276	-0.07428448
142	0xbd838a9a	-0.064229205
143	0xbe73289c	-0.2374596
144	0x3e0cbe8a	0.1374456
145	0xbc061a8c	-0.00818504
146	0xbe24faab	-0.16111247
147	0xbd378c58	-0.044811577
148	0x3e4f5af8	0.20249546
149	0xbc9ef1c4	-0.019402392
150	0x3ea4f4de	0.3221807
151	0x3da74bc5	0.08168749
152	0xbc9b104b	-0.018928668
153	0xbde2cf31	-0.11074675
154	0x3e17548b	0.14778344
155	0xbe624a19	-0.22098579
156	0xbe073ca9	-0.13206734
157	0xbe12faa3	-0.14353423
158	0xbe7a9226	-0.24469814
159	0xbe43ab34	-0.19108278
160	0xbded1feb	-0.115783535
161	0xbe7903ff	-0.2431793
162	0xbdf0a1c6	-0.11749606
163	0xbc9dbdec	-0.0192556
164	0x3ac887ed	0.0015299298
165	0xbe77c490	-0.24196076
166	0xbe4f6261	-0.20252372
167	0x3cd4416d	0.025910104
168	0x3cd876ce	0.026423838
169	0x3dad33a4	0.08457115
170	0x3de425ae	0.11139999
171	0xbd5d0d02	-0.053967483
172	0x3e09ced4	0.13457805
173	0x3d913d33	0.07091751
174	0x3e506261	0.20350029
175	0xbd4d61e1	-0.050142173
176	0x3e958ee2	0.29210573
177	0x3cd70bec	0.026250802
178	0x3d35db6e	0.044398718
179	0xbdb16e57	-0.08663624
180	0xbe028753	-0.12746935
181	0xbdd34866	-0.10316543
182	0x3d83dd87	0.06438737
183	0xbe3ec97f	-0.18631552
184	0xbdf2adaa	-0.1184953
185	0xbcf98ce9	-0.030462699
186	0x3e7c7e3f	0.24657534
187	0xbe3809ed	-0.17972536
188	0x3d8e3d22	0.06945254
189	0xbc1bb376	-0.009503236
190	0xbded1148	-0.11575562
191	0xbb7ba082	-0.003839523
192	0xbd895374	-0.067053705
193	0xbdd14283	-0.10217764
194	0x3ddcd540	0.10782862
195	0x3e267ea2	0.16259244
196	0x3e4ded4b	0.20110051
197	0x3e391e91	0.18078066
198	0xbe3d1d03	-0.18468098
199	0xbb41f406	-0.0029594912
200	0xbd2781c0	-0.040895224
201	0xbddf9cc0	-0.109185696
202	0xbe668941	-0.22513296
203	0xbc32fd4b	-0.010924648
204	0x3cb91f79	0.022598015
205	0x3e90021c	0.2812661
206	0xbdb60ac3	-0.088887714
207	0x3d2818be	0.04103922
208	0xbdea42b7	-0.11438506
209	0x3e07f7cb	0.1327812
210	0x3c3a0d76	0.011355748
211	0xbd414827	-0.04718795
212	0x3deaf8cc	0.114732355
213	0xbda138c5	-0.07872156
214	0x3d684a18	0.056711286
215	0xbe7ff053	-0.2499402
216	0x3eb210c1	0.34778407
217	0x3d33fdb2	0.043943115
218	0x3d95d2b8	0.07315582
219	0x39ff49b9	0.00048692318
220	0xbde27578	-0.11057562
221	0x3e0b9a72	0.13633135
222	0x3ccb777d	0.02483725
223	0x3e30d6c5	0.17269428
224	0xbe12a391	-0.14320208
225	0x3e0b10e6	0.13580665
226	0xbe03ebb5	-0.12882884
227	0x3e51c689	0.20485891
228	0xbd50ce3d	-0.050977934
229	0xbd9b907d	-0.07595918
230	0xbe6ab294	-0.22919685
231	0x3de86a0a	0.1134835
232	0xbe79b7d6	-0.24386534
233	0xbde8f56b	-0.11374935
234	0x3d9b70ad	0.075898506
235	0xbda3acbf	-0.07991933
236	0xbd662c20	-0.056194425
237	0xbd42505d	-0.04743992
238	0xbe900b2e	-0.2813353
239	0xbd97bb10	-0.07408726
240	0xbcba3859	-0.022731947
241	0x3db7c2c4	0.089726955
242	0xbdc8ffae	-0.09814392
243	0x3e39a20e	0.18128225
244	0xbe401396	-0.18757471
245	0x3d62d8d6	0.055382572
246	0xbdafd6c0	-0.08585882
247	0x3d86c21d	0.06579993
248	0x3dc24127	0.09485083
249	0x3e824d64	0.2544967
250	0xbc406d9c	-0.011744883
251	0x3de81330	0.11331785
252	0x3d8179f5	0.063220896
253	0x3ebfae9e	0.3743791
254	0xbe978d68	-0.29600072
255	0xbe17b5ac	-0.14815396

a_fc1.bias f4 [64]
0	0x3d844d49	0.064600535
1	0x3e31b338	0.17353523
2	0xbdf36f36	-0.11886446
3	0xbde0603b	-0.109558545
4	0xbe47d00e	-0.1951296
5	0x3bdaa69b	0.006672693
6	0x3d6f3b26	0.058406018
7	0x3d6f736f	0.058459695
8	0x3e12215c	0.14270538
9	0x3d25c694	0.040472582
10	0xbe239db9	-0.15978135
11	0x3d95ee1b	0.07320806
12	0x3e628526	0.22121105
13	0xbcbaeb14	-0.022817172
14	0x3e79ccfe	0.24394605
15	0xbe539b6a	-0.20664755
16	0x3de07ab1	0.109609015
17	0xbe0a6231	-0.1351402
18	0xbd93496b	-0.07191738
19	0xbd1c0440	-0.03808999
20	0xbdd93fe0	-0.10607886
21	0x3ddf24f9	0.10895724
22	0xbe3fb073	-0.18719654
23	0x3e0acfe7	0.13555871
24	0xbd0c8896	-0.034309946
25	0x3d81c5d3	0.0633656
26	0x3e35d23e	0.17755982
27	0xbc1dd55a	-0.0096333865
28	0xbe2ed441	-0.17073156
29	0xbe37d530	-0.17952418
30	0xbe180013	-0.14843778
31	0xbe32a591	-0.17445971
32	0xbdf8ab06	-0.12141995
33	0x3df59f52	0.119932786
34	0xbcf61330	-0.030038446
35	0xbd0eabf6	-0.034831963
36	0xbddde387	-0.10834413
37	0x3db8c199	0.09021301
38	0xbd900413	-0.07032027
39	0xbe53cbfe	-0.20683286
40	0xbdb88921	-0.0901053
41	0xbe3c8d72	-0.18413332
42	0x3e28cac0	0.16483593
43	0xbd83a84c	-0.064285845
44	0x3d916130	0.07098615
45	0x3df80f48	0.1211229
46	0x3e1d8999	0.1538452
47	0x3dbd06bd	0.09229801
48	0xbe085fe5	-0.13317831
49	0xbe08b4dc	-0.13350242
50	0xbdade64e	-0.08491193
51	0xbd901589	-0.070353575
52	0x3e598040	0.2124033
53	0xbd9ddae8	-0.07707769
54	0xbe0911db	-0.13385718
55	0xbdb9d433	-0.09073677
56	0x3d9596f5	0.073041834
57	0x3dc389f0	0.09547794
58	0xbe14a1fb	-0.14514916
59	0xbe59bf95	-0.21264489
60	0x3c793479	0.015210264
61	0x3cd349c3	0.025792008
62	0xbdebf3bd	-0.11521099
63	0x3d7df236	0.06199857

a_fc2.weight f4 [64, 64]
0	0xbe967046	-0.29382533
1	0xbdba4c14	-0.09096542
2	0x3e59fe6e	0.21288463
3	0x3e0004fc	0.12501901
4	0x3e3ad6b3	0.18245964
5	0xbdcb2347	-0.09918838
6	0xbe158792	-0.14602497
7	0xbe0a88f0	-0.135288
8	0xbe43b028	-0.19110167
9	0x3c8d6587	0.017260326
10	0x3e5b2756	0.21401724
11	0xbdac4080	-0.0841074
12	0xbe1f1cb7	-0.15538298
13	0xbdbb12c5	-0.091344394
14	0xbe75d255	-0.24006017
15	0x3e694b3d	0.22782607
16	0xbc826aee	-0.015920129
17	0xbce7a673	-0.028277611
18	0x3ebc9835	0.36834875
19	0x3c7888f6	0.015169373
20	0x3eac40e4	0.33643258
21	0xbe258e78	-0.16167629
22	0x3d80c2c7	0.06287151
23	0xbe1ed5f9	-0.15511312
24	0xbe3637dd	-0.17794748
25	0xbe002241	-0.12513067
26	0xbde92f0e	-0.11385928
27	0x3e17e06e	0.14831707
28	0x3d34e5ec	0.044164583
29	0x3d84f387	0.06491762
30	0x3e3f9ff4	0.18713361
31	0x3e2b08f1	0.1670263
32	0x3d446158	0.047944397
33	0xbd88a4e2	-0.06672074
34	0x3c79c9a9	0.015245833
35	0x3d2e55a7	0.042562153
36	0x3e69b417	0.22822605
37	0xbdc0d90d	-0.09416399
38	0x3e575767	0.21029435
39	0x3ed793ca	0.42104942
40	0x3ea9c736	0.33159798
41	0x3de8893d	0.11354301
42	0xbe81a59c	-0.25321662
43	0x3ec02dcf	0.3753495
44	0x3df300a6	0.11865358
45	0xbe6cbe95	-0.23119576
46	0xbdd1363e	-0.10215424
47	0xbda17935	-0.078844465
48	0x3d2cb4fc	0.042164788
49	0x3e7062c1	0.23475172
50	0xbd28f71c	-0.041251287
51	0x3e70e3d1	0.23524405
52	0xbd39b992	-0.04534299
53	0x3cc70131	0.02429256
54	0x3dad2922	0.08455111
55	0x3e8d34df	0.275794
56	0xbdaa75a4	-0.083232194
57	0xbd74e5af	-0.059789356
58	0x3d7efa0a	0.062250175
59	0x3e4e908d	0.20172329
60	0x3d823b90	0.06359017
61	0xbcdf016f	-0.027222363
62	0x3df6abc0	0.120444775
63	0xbda4dcb7	-0.080499105
64	0xbe4ca18f	-0.19983505
65	0xbe5b8568	-0.21437609
66	0x3e0c10ea	0.13678327
67	0xbd85fcb3	-0.06542339
68	0x3d8a5a35	0.06755487
69	0xbde49e0c	-0.111629575
70	0x3da78da0	0.0818131
71	0xbc6c6b43	-0.01442987
72	0xbdb04ad8	-0.08608025
73	0xbe953a74	-0.2914616
74	0x3e17272a	0.14761034
75	0x3e05f8c3	0.13083176
76	0x3e079d8f	0.13243698
77	0x3d1ed647	0.03877857
78	0xbe4f0bd2	-0.20219353
79	0xbc616731	-0.013757513
80	0xbcaa220d	-0.02076819
81	0xbb8c89da	-0.004288894
82	0x3cb68142	0.022278432
83	0xbcacbba2	-0.021085564
84	0x3e9ba764	0.30401146
85	0xbe4608ac	-0.19339246
86	0xbd65fd66	-0.056149863
87	0xbe4819d7	-0.19541107
88	0xbe80a643	-0.25126848
89	0x3e51ba27	0.20481168
90	0xbd597aca	-0.053095616
91	0x3e8eb40c	0.2787174
92	0x3e386f76	0.18011269
93	0x3e70ff51	0.23534895
94	0x3d47b287	0.04875424
95	0x3e03b88a	0.12863365
96	0x3e179cdf	0.14805935
97	0xbeacce54	-0.33751166
98	0x3e0bcccb	0.13652341
99	0x3c389111	0.011265055
100	0x3d9d25bd	0.07673214
101	0xbdcca815	-0.099929966
102	0x3c05a41b	0.008156802
103	0x3ce42773	0.027850842
104	0xbe4fc9e0	-0.20291853
105	0x3e917646	0.28410548
106	0xbdb55414	-0.08853927
107	0x3e88bb74	0.26705515
108	0xbe766c76	-0.24064812
109	0xbe323dd1	-0.17406394
110	0xbe0abb86	-0.13548097
111	0xbdebe3a3	-0.11518028
112	0x3d825262	0.063633695
113	0x3ddaec71	0.10689629
114	0xbd835f6e	-0.06414686
115	0x3d1cb9f2	0.03826327
116	0xbde5cd96	-0.11220853
117	0x3ccd7ecf	0.025084881
118	0x3d3f4a1a	0.046701528
119	0x3da96abf	0.08272313
120	0xbd3d6523	-0.04623903
121	0x3e71e63e	0.23622987
122	0x3e8898f8	0.26679206
123	0x3da0a117	0.078432254
124	0xbd2e40cb	-0.04254226
125	0x3e14c217	0.14527164
126	0xbd0130d1	-0.031540696
127	0x3e28dc68	0.16490328
128	0xbd2f46ea	-0.04279224
129	0x3d96819d	0.073489405
130	0xbe2ef9ef	-0.1708753
131	0xbe88a61e	-0.26689237
132	0x3d4271b5	0.04747172
133	0x3daadfec	0.08343491
134	0xbe97ec95	-0.29672685
135	0x3c809bb9	0.015699254
136	0x3dd5e748	0.10444504
137	0xbe4a2a91	-0.197428
138	0xbd8c7bdb	-0.06859561
139	0x3d92694a	0.071489885
140	0x3e0c2206	0.13684854
141	0xbe8b0713	-0.27153835
142	0x3cbb9c54	0.022901691
143	0xbe0e7725	-0.13912638
144	0x3e6bae1d	0.23015638
145	0x3ba4b5c0	0.005026549
146	0xbed7a560	-0.4211836
147	0x3da675cd	0.081279375
148	0xbc887c45	-0.016660819
149	0x3e0fac29	0.14030518
150	0xbdf46e43	-0.11935093
151	0x3e68d3be	0.22737023
152	0x3d98ddba	0.07464166
153	0xbdc3ad03	-0.09554484
154	0x3dc5cd4b	0.09658297
155	0xbe290527	-0.16505872
156	0x3caa7d3c	0.02081167
157	0xbeb157d4	-0.3463732
158	0xbe3d2c42	-0.18473914
159	0xbcd90e4f	-0.02649608
160	0xbe5181af	-0.20459627
161	0x3e6ca05d	0.23108049
162	0xbe5472ec	-0.20746964
163	0xbe7833d7	-0.24238525
164	0xbe236654	-0.15957004
165	0x3cc2bac4	0.023770697
166	0xbd9839ad	-0.07432876
167	0xbe0cef3a	-0.13763133
168	0xbc5e7b80	-0.013579249
169	0xbdd9a25f	-0.10626673
170	0x3cf489c3	0.029850846
171	0xbe1ebeac	-0.15502423
172	0x3e543358	0.20722711
173	0xbc8f9a73	-0.017529702
174	0x3e121ed1	0.14269568
175	0x3e3d4a49	0.18485369
176	0xbd048383	-0.03235198
177	0xbe5d6523	-0.21620612
178	0x3d2fc945	0.042916555
179	0xbe65698d	-0.22403546
180	0x3e532270	0.20618606
181	0xbebf89a0	-0.37409687
182	0xba2224ee	-0.00061853125
183	0xbe1ffea5	-0.15624483
184	0x3da54efa	0.08071704
185	0x3e2dd478	0.16975582
186	0xbe6d7c44	-0.23191935
187	0xbe6224f3	-0.22084408
188	0x3ddd8e79	0.1081819
189	0xbda7c0bc	-0.08191058
190	0x3d4bece1	0.049786452
191	0x3dadf66f	0.08494269
192	0xbcc4cf06	-0.024024498
193	0xbdd11754	-0.102095276
194	0x3eb3380b	0.35003695
195	0x3e2ae54f	0.16689037
196	0x3d6edde5	0.058317084
197	0xbed7270f	-0.42021987
198	0x3b27530b	0.0025531675
199	0xbded92d6	-0.11600272
200	0xbda01e9f	-0.078183405
201	0xbe0c5a23	-0.1370626
202	0x3deed981	0.11662579
203	0xbe70f605	-0.23531349
204	0x3cec56c4	0.028849967
205	0x3e716221	0.2357259
206	0xbda52d12	-0.08065237
207	0xbc12c3c1	-0.008957804
208	0x3d6c7a5e	0.057733886
209	0x3e50ef01	0.20403673
210	0xbdbf7a29	-0.09349472
211	0x3e037820	0.12838793
212	0x3e9233e5	0.28555217
213	0xbe3e2522	-0.18568853
214	0x3d9c7e16	0.076412365
215	0xbd01ef14	-0.031722143
216	0xbea63ab4	-0.32466662
217	0xbe5e8483	-0.21730237
218	0x3d2cf550	0.042226136
219	0x3d7e8229	0.06213585
220	0x3e477238	0.19477165
221	0x3e38594e	0.18002817
222	0x3d4d32f6	0.05009743
223	0x3e2618c7	0.1622039
224	0xbd952021	-0.07281519
225	0xbd9c3a03	-0.07628252
226	0x3da9fc37	0.08300059
227	0x3e80906c	0.25110185
228	0xbd23be70	-0.039976537
229	0xbead50df	-0.33850762
230	0x3e8875da	0.26652414
231	0x3e4c4866	0.19949493
232	0x3d47f6c2	0.04881931
233	0x3e72d192	0.23712757
234	0x3d24ea75	0.04026266
235	0x3ec3b19c	0.38221443
236	0xbef013a1	-0.46889976
237	0x3d720a4c	0.05909185
238	0xbde7d59f	-0.11320042
239	0xbaec0432	-0.0018006621
240	0x3e42c6e9	0.1902119
241	0x3d9a8d42	0.07546474
242	0x3d9050e1	0.070466764
243	0x3e58ddea	0.21178403
244	0x3d0839bd	0.03325819
245	0x3e09dd5f	0.13463353
246	0x3d8c8d75	0.06862918
247	0x3e8a78d1	0.270453
248	0xbd116c9a	-0.03550396
249	0xbe2ff0c1	-0.17181684
250	0x3e00e57c	0.12587541
251	0x3e792af6	0.24332795
252	0x3d4680f6	0.04846283
253	0xbc96f3ef	-0.018426863
254	0xbca45b6f	-0.02006313
255	0xbde4221c	-0.11139318

a_fc2.bias f4 [64]
0	0xbd81bc79	-0.063347764
1	0xbdaef3ba	-0.08542581
2	0x3e23a55b	0.15981047
3	0xbde12feb	-0.10995468
4	0x3bd5a329	0.0065196943
5	0x3e2e25d3	0.17006616
6	0x3d65cfaf	0.056106266
7	0xbbfa4a1c	-0.007638229
8	0x3e146a41	0.14493658
9	0xbdb0bad0	-0.08629382
10	0x3cf5274c	0.029925965
11	0xbd785ff6	-0.06063839
12	0xbde8823a	-0.11352964
13	0x3d67d247	0.05659702
14	0xbcb112e0	-0.021615446
15	0xbde9a368	-0.114081204
16	0xbe2fdf2c	-0.17174977
17	0x3d30d366	0.043170355
18	0x3dcd621f	0.10028481
19	0xbd021923	-0.031762253
20	0x3cfc09f7	0.03076647
21	0x3db72cb5	0.08944074
22	0xbc1555d0	-0.009114698
23	0xbb02ef5f	-0.0019979102
24	0x3dcdb94d	0.10045109
25	0x3dd6552f	0.10465466
26	0x3dc44116	0.09582727
27	0x3cc04a24	0.023472853
28	0x3e1ce2bb	0.15320866
29	0x3c55aa9b	0.013041164
30	0xbdf2dec1	-0.11858893
31	0x3df79fbb	0.12091013
32	0xbdd78a0d	-0.10524378
33	0xbd58f351	-0.05296642
34	0x3d040f32	0.032241054
35	0xbe00aa93	-0.12565069
36	0xbdf2f62c	-0.1186336
37	0xbe3f251f	-0.18666504
38	0xbd21fbee	-0.0395469
39	0xbd2b5c8c	-0.041836306
40	0x3e2437b6	0.16036877
41	0xbdb65d8a	-0.0890456
42	0xbe0a81ef	-0.13526128
43	0x3d835d5f	0.064142935
44	0xbdd58edd	-0.1042764
45	0xbd68ab4a	-0.05680398
46	0xbc0c3bd9	-0.008559191
47	0xbd014e5a	-0.031568862
48	0xbda17843	-0.07884266
49	0xbd9be444	-0.076118976
50	0xbcafec51	-0.02147499
51	0x3df1e6ce	0.118116006
52	0x3e12664a	0.14296833
53	0xbcb02f28	-0.02150686
54	0x3e34b006	0.17645273
55	0xbbec4434	-0.007210279
56	0xbe29dbcc	-0.16587752
57	0x3d428a8a	0.047495402
58	0xbd8f3853	-0.06993165
59	0xbb6fa384	-0.0036565969
60	0x3e2e813e	0.1704149
61	0x3bcb370a	0.0062016295
62	0xbd7d7a03	-0.061883938
63	0x3dfdb3d2	0.12387814

a_fc3.weight f4 [3, 64]
0	0x3e0b615a	0.13611355
1	0x3dfa5a67	0.12224274
2	0xbdab86a2	-0.083752885
3	0x3ddc6b9f	0.107627146
4	0xbdbc914c	-0.09207401
5	0xbda84b93	-0.0821754
6	0xbdeb0557	-0.11475628
7	0xbd456e8f	-0.04820114
8	0xbe028a92	-0.12748173
9	0x3e044d6e	0.12920162
10	0x3caedd4c	0.021345757
11	0xbd428eb1	-0.047499362
12	0x3e1ffde1	0.15624191
13	0xbd8a4a89	-0.06752498
14	0x3c6736da	0.014112199
15	0x3e05cddb	0.13066809
16	0x3d6c8f58	0.05775389
17	0x3ce9a233	0.028519725
18	0xbe29068f	-0.16506408
19	0x3d8b3b8d	0.06798468
20	0xbde7c956	-0.11317699
21	0xbdf5a019	-0.11993427
22	0x3d370bdc	0.044689044
23	0x3cbbb80f	0.022914914
24	0xbb7c6c88	-0.0038516838
25	0xbe0d4cf0	-0.1379888
26	0xbd58b44c	-0.05290632
27	0xbd914ad6	-0.07094352
28	0xbd596811	-0.05307776
29	0x3d729c2f	0.05923098
30	0x3df96d16	0.121790096
31	0xbe0dffbd	-0.13867088
32	0x3d98846e	0.07447134
33	0x3db3f41b	0.08786794
34	0x3d1b1bfe	0.037868492
35	0x3e1289dc	0.14310402
36	0x3df0d970	0.11760223
37	0x3daaf949	0.083483286
38	0xbd3c3cf9	-0.045956586
39	0x3d25193a	0.04030726
40	0xbe2ad021	-0.16680957
41	0x3dd3ee93	0.10348239
42	0x3df8c6b2	0.12147273
43	0xbd39ab4a	-0.04532937
44	0x3e03e02a	0.1287848
45	0x3d7c2f40	0.0615685
46	0x3c004ac8	0.007830329
47	0x3df1d152	0.11807503
48	0x3d8265af	0.06367051
49	0x3dfa6333	0.12225952
50	0x3d6c2375	0.057651002
51	0xbd8a966d	-0.06766973
52	0xbe245274	-0.16047078
53	0x3dee0e61	0.11623836
54	0xbdb0dd69	-0.08635981
55	0xbcf548ab	-0.029941877
56	0x3dea8484	0.114510566
57	0xbd8ed336	-0.06973879
58	0xbb910d4c	-0.004426634
59	0x3c269556	0.01016744
60	0xbe196945	-0.14981563
61	0xbda8b9f2	-0.08238591
62	0x3e0c9b2a	0.13731065
63	0xbceda695	-0.029010097
64	0xbdd01017	-0.10159319
65	0xbd61a6bc	-0.05509065
66	0x3dd67938	0.104723394
67	0xbdeeb0bf	-0.116548054
68	0x3df530e0	0.11972213
69	0x3d284c35	0.0410883
70	0x3def59ac	0.116870254
71	0x3e388e21	0.18022968
72	0x3b7b56ac	0.003835122
73	0xbe084871	-0.13308884
74	0x3c87dd4f	0.01658502
75	0xbe229370	-0.15876555
76	0xbcbb669f	-0.022876082
77	0x3d4156d9	0.047201965
78	0xbcc9aadf	-0.02461761
79	0xbd830325	-0.06397084
80	0xbd7ac157	-0.06121954
81	0x3ddefaf3	0.108877085
82	0xbc7a2886	-0.015268451
83	0xbc56a6a4	-0.013101254
84	0x3e0f7968	0.14011157
85	0x3dfed106	0.12442212
86	0xbe3fb1ec	-0.18720216
87	0x3d27330f	0.040820178
88	0xbcda1ab9	-0.02662407
89	0x3d414325	0.047183175
90	0x3d1d43a0	0.03839457
91	0xbc8f90bf	-0.017525075
92	0x3d413ffc	0.04718016
93	0x3bac6bd6	0.0052618785
94	0x3d623eb6	0.055235587
95	0xbb84802a	-0.0040435987
96	0xbd0c2d21	-0.034222726
97	0x3d39c957	0.04535803
98	0xbd8384bb	-0.06421801
99	0xbcce2192	-0.025162492
100	0xbdde69ff	-0.10860061
101	0xbd5f1a70	-0.054468572
102	0xbe2a26f0	-0.16616416
103	0xbcfa076b	-0.030521115
104	0xbc327927	-0.010893143
105	0xbe1877b1	-0.14889409
106	0xbdd0cce3	-0.10195329
107	0x3e1ae178	0.15125072
108	0xbc2680d0	-0.010162547
109	0xbe459369	-0.19294514
110	0x3d3ba44d	0.045810986
111	0xbdb13ed7	-0.08654564
112	0x3d8525ad	0.06501327
113	0xbe16e649	-0.14736284
114	0x3bbae5c2	0.005703659
115	0x3dc74325	0.09729604
116	0xbbbdc715	-0.0057915547
117	0xbd958874	-0.07301417
118	0x3dd772ad	0.105199195
119	0x3c8fb9c8	0.017544642
120	0xbd261520	-0.04054749
121	0x3c164560	0.009171814
122	0x3da82ec4	0.08212045
123	0x3d22ef93	0.039779257
124	0x3cf9d66a	0.030497748
125	0x3d98ddf9	0.07464213
126	0x3d6ee80b	0.058326762
127	0x3ded45db	0.115855895
128	0xbdb4cf73	-0.0882863
129	0xbdb145ec	-0.08655915
130	0x3dee0be5	0.116233625
131	0xbd930b86	-0.07179932
132	0xbc572631	-0.013131664
133	0x3dd7528d	0.10513792
134	0x3d1bffca	0.038085736
135	0xbd2248be	-0.039620154
136	0x3df21ec1	0.11822272
137	0xbd62a8cd	-0.055336762
138	0x3cd3c075	0.025848607
139	0xbd8935a7	-0.066996865
140	0xbe085ab6	-0.13315853
141	0x3d102bef	0.03519815
142	0x3c90b83e	0.017665979
143	0xbdb4fe90	-0.088376164
144	0xbe2ef521	-0.17085697
145	0x3d5f0285	0.054445762
146	0x3e04b9ce	0.12961504
147	0xbd960dcc	-0.0732685
148	0xbc714c71	-0.014727698
149	0x3d805385	0.0626593
150	0x3cb3042f	0.02185258
151	0x3c65d5f2	0.014028059
152	0x3daf82dc	0.08569881
153	0x3decd78b	0.11564549
154	0x3d56b6ef	0.052420553
155	0x3c1419a3	0.009039315
156	0x3e1e9d1d	0.15489621
157	0x3a93396b	0.0011232322
158	0xbd8b4d90	-0.06801903
159	0x3e0673d4	0.13130122
160	0xbd967a4a	-0.073475435
161	0xbd75f599	-0.060048673
162	0x3c45c8fe	0.012071846
163	0xbde9587c	-0.1139383
164	0xbd9646f4	-0.07337752
165	0xbe0a95d0	-0.13533711
166	0xbd842e01	-0.06454087
167	0xbd02a416	-0.031894766
168	0x3e258e4f	0.16167568
169	0xbd4f4b31	-0.050608817
170	0xbda883d2	-0.08228268
171	0x3d27f2a9	0.041002903
172	0xbe0a85f5	-0.13527663
173	0xbd8463b8	-0.06464332
174	0xbc8b9adf	-0.017041622
175	0xbd0f57cb	-0.034995835
176	0xbc835dda	-0.016035963
177	0xbc9ba32e	-0.018998709
178	0xbd8be942	-0.068316
179	0x3da1c700	0.07899284
180	0x3e1f2a4e	0.15543482
181	0xbd528ece	-0.05140572
182	0x3df06bc3	0.11739304
183	0x3d2894b3	0.041157436
184	0xbdfed818	-0.1244356
185	0x3d99673e	0.07490395
186	0xbd8c3489	-0.06845958
187	0x3b455bca	0.0030114525
188	0x3e1489c6	0.14505681
189	0x3d19f8a1	0.037590627
190	0xbde7e1f6	-0.113223955
191	0x3df10b28	0.11769706

a_fc3.bias f4 [3]
0	0xbd21b089	-0.039474998
1	0x3caa0abd	0.020757074
2	0x3e3deaaf	0.18546556

c_fc1.weight f4 [64, 11]
0	0x3e1bb622	0.15206197
1	0xbe829541	-0.25504497
2	0xbdbc6621	-0.09199167
3	0xbdd5f2ae	-0.10446678
4	0x3c9c6e93	0.019095695
5	0xbdad1e63	-0.084530614
6	0xbdf50dc9	-0.1196552
7	0xbdc9d506	-0.09855084
8	0xbe260cd4	-0.16215831
9	0xbdc3c1e3	-0.09558465
10	0xbd8ddc7d	-0.069268204
11	0x3e9ecb45	0.31014457
12	0x3e436d03	0.19084553
13	0x3eaedf2e	0.34154648
14	0x3de4eca6	0.111779496
15	0xbe938c90	-0.28818178
16	0xbefb4bba	-0.49081212
17	0x3e1bd362	0.15217355
18	0xbe13d1bb	-0.14435475
19	0xbe03731c	-0.1283688
20	0x3e61b1ac	0.22040433
21	0x3eb1c14f	0.34717795
22	0x3cd40994	0.025883473
23	0x3c24728a	0.010037074
24	0xbd32580b	-0.043540996
25	0xbde8621a	-0.113468364
26	0x3e55dcce	0.20885012
27	0xbe5687a8	-0.20950186
28	0xbd8d1c4c	-0.06890163
29	0x3db6d680	0.089276314
30	0xbea1ca14	-0.31599486
31	0xbd4244bc	-0.04742883
32	0x3dfbc647	0.12293678
33	0x3e6d8860	0.23196554
34	0xbd84c4c5	-0.06482843
35	0xbea37499	-0.31924894
36	0xbe81d5d7	-0.2535846
37	0x3e824a05	0.25447097
38	0xbdbd6114	-0.09247032
39	0xbe311625	-0.17293604
40	0x3d946232	0.07245292
41	0xbea2caa3	-0.31795225
42	0xbe87202b	-0.2639173
43	0xbd831536	-0.0640053
44	0x3e9e179e	0.30877393
45	0xbed2aa62	-0.41145617
46	0xbe2249e3	-0.15848498
47	0xbe0ddc36	-0.13853535
48	0x3e5525fc	0.20815271
49	0x3d6cbd47	0.057797696
50	0xbde12ccd	-0.10994873
51	0xbc57cac0	-0.013170898
52	0xbe495136	-0.19659886
53	0xbe579cdc	-0.21055931
54	0xbdd49e9b	-0.10381814
55	0xbe8c9802	-0.27459723
56	0xbbc21962	-0.005923436
57	0x3d2b8edd	0.041884292
58	0x3de7c1c0	0.11316252
59	0x3ea38f0f	0.31945083
60	0x3ec605b9	0.3867624
61	0x3e73fa0a	0.23825851
62	0x3e29e393	0.16590719
63	0x3ca92035	0.02064524
64	0xbe24cfab	-0.16094844
65	0xbdec050f	-0.11524402
66	0x3e338afb	0.17533486
67	0x3dbc1a42	0.09184696
68	0x3e9af28a	0.30263168
69	0x3e11d25c	0.14240402
70	0xbddb46a0	-0.1070683
71	0xbe2c8f19	-0.16851462
72	0x3e01f524	0.1269117
73	0x3dd534a6	0.104104325
74	0x3dd4a021	0.10382105
75	0x3e0b365e	0.13594958
76	0x3d21df09	0.039519344
77	0x3de7e676	0.11323254
78	0xbcb5ba1c	-0.02218347
79	0x3d2598a2	0.040428765
80	0xbec1c68c	-0.37846792
81	0x3d0eff42	0.0349114
82	0xbbd1dd5b	-0.0064045615
83	0xbd488959	-0.04895911
84	0xbeb89a0b	-0.36055025
85	0xbe00ff8a	-0.1259748
86	0xbe6b9c5c	-0.23008865
87	0x3d110913	0.035409044
88	0x3e07ec9f	0.13273858
89	0xbead2546	-0.338175
90	0xbbf9c863	-0.007622765
91	0x3d1eb7ad	0.038749386
92	0x3dbe164e	0.09281598
93	0x3e3262b6	0.17420468
94	0xbdf38759	-0.1189105
95	0xbc7bcba8	-0.01536838
96	0xbe3bb8f6	-0.18332276
97	0xbdcd7726	-0.100324914
98	0xbdbdad6c	-0.09261593
99	0x3d32b2f9	0.043627713
100	0x3ddab2ea	0.106786564
101	0x3e3f6a79	0.1869296
102	0x3e832edb	0.25621685
103	0xbe95f7d7	-0.2929065
104	0xbd4c8824	-0.04993452
105	0x3cb2718b	0.021782657
106	0xbd50393b	-0.05083583
107	0x3dd34044	0.10314992
108	0x3aa57603	0.0012623671
109	0x3d92e91f	0.071733706
110	0xbe028505	-0.12746055
111	0x3e2009de	0.15628764
112	0x3e55b472	0.20869616
113	0x3e2b9583	0.16756253
114	0xbe661d39	-0.22472085
115	0xbd73d8c7	-0.059532907
116	0x3e868de9	0.26280144
117	0x3da8155c	0.08207199
118	0x3e35f855	0.17770512
119	0xbcecc97d	-0.02890467
120	0xbdb95b16	-0.090505764
121	0x3e69bd14	0.22826034
122	0xbe66d52a	-0.22542253
123	0xbe3f809d	-0.18701406
124	0xbe845f1c	-0.25853813
125	0x3c422459	0.011849486
126	0x3e8104ac	0.25198877
127	0xbdf031f9	-0.117282815
128	0x3cc27be5	0.023740718
129	0xbe1e3b90	-0.15452409
130	0xbe558a84	-0.20853621
131	0xbe4d0706	-0.2002221
132	0xbe2bd5b6	-0.16780743
133	0x3e79a998	0.24381101
134	0x3eb8ea92	0.36116463
135	0x3e6efd9c	0.23338932
136	0xbbd4021d	-0.0064699785
137	0xbe8263fb	-0.25466904
138	0x3da90a6a	0.082539394
139	0x3de1035d	0.109869696
140	0x3e3f94a0	0.1870904
141	0x3e8fcda6	0.28086585
142	0x3e199d0a	0.15001312
143	0x3e0d9916	0.13827929
144	0x3dcd6f40	0.10030985
145	0xbe457180	-0.19281578
146	0xbe184ce7	-0.14873086
147	0xbeae8372	-0.3408466
148	0xbdfff6ab	-0.1249822
149	0xbdddff96	-0.10839765
150	0xbe1c73ab	-0.15278499
151	0xbe7ed6cf	-0.2488663
152	0xbdb9b05b	-0.0906684
153	0x3df0b1e4	0.1175268
154	0x3db2d6b1	0.087323554
155	0xbb9b0ba5	-0.0047316127
156	0x3c8cc2aa	0.017182667
157	0x3d8cb1cf	0.06869852
158	0xbb9ae636	-0.0047271503
159	0xbe9fdc80	-0.31222916
160	0xba40b419	-0.00073510554
161	0xbd499cd0	-0.049221814
162	0x3db0cab4	0.086324126
163	0x3d97f272	0.0741929
164	0x3d23481e	0.0398637
165	0x3e4c6170	0.19959044
166	0x3caa9a82	0.020825628
167	0xbe54d7e2	-0.20785478
168	0xbdd5d7c8	-0.10441548
169	0xbd621779	-0.055198167
170	0x3df99aaa	0.12187703
171	0xbdafe423	-0.085884355
172	0x3d7482bf	0.059695
173	0xbe714a6a	-0.23563543
174	0xbe8f27a4	-0.2795993
175	0xbdf2e7f2	-0.11860646
176	0xbc6f06c3	-0.014589014
177	0x3df4ef89	0.1195975
178	0xbe17e501	-0.14833452
179	0x3d3af1a4	0.045640603
180	0x3d38cae9	0.045115385
181	0xbe457237	-0.19281851
182	0x3d52e8ca	0.051491536
183	0xbe7e4ade	-0.24833247
184	0x3c90dc84	0.017683275
185	0x3ec68b92	0.3877836
186	0x3c8db9d6	0.017300528
187	0xbe48f13f	-0.19623278
188	0x3dbfac5d	0.093590476
189	0x3ec8bf5b	0.39208493
190	0xbdd6ebb4	-0.104941756
191	0x3d569b8d	0.05239444
192	0xb83bdd16	-4.4790177e-05
193	0x3e23c442	0.15992835
194	0x3df52d13	0.11971488
195	0x3e8a3d27	0.2699978
196	0x3e8aa1db	0.2707661
197	0x3d920720	0.07130265
198	0x3e507431	0.20356824
199	0xbdbea4bf	-0.093087666
200	0xbe80bbdd	-0.25143328
201	0xbde8405b	-0.113404
202	0x3c502c9a	0.012705946
203	0x3e0c887f	0.13723944
204	0xbc72383b	-0.014783914
205	0xbc76cca2	-0.015063437
206	0xbe09d6db	-0.13460867
207	0x3e245c9d	0.16050954
208	0x3e6e3ce0	0.2326541
209	0xbd9fe4b0	-0.078072906
210	0x3eb89155	0.3604838
211	0x3e55f25c	0.20893234
212	0x3dd0dcf0	0.101983905
213	0x3ae9efa2	0.0017847905
214	0xbd183a6c	-0.03716509
215	0x3e87aa6d	0.26497212
216	0xbdd8b2a6	-0.105809495
217	0x3e857bd3	0.26071033
218	0x3c46101c	0.012088802
219	0xbd30f0ad	-0.043198276
220	0xbe245c16	-0.16050753
221	0x3d439573	0.047749948
222	0x3e9285ac	0.2861761
223	0x3e884dcc	0.26621854
224	0xbd8778e9	-0.06614859
225	0xbca533af	-0.020166246
226	0x3ec142d7	0.37746307
227	0x3e08f070	0.1337297
228	0x3caeeee0	0.021354139
229	0x3ce5f643	0.028071528
230	0x3d5a0f7d	0.053237427
231	0x3ea71846	0.32635707
232	0xbd2b4ba7	-0.041820195
233	0xbe8541b2	-0.26026684
234	0xbe96bf04	-0.29442608
235	0xbe23d4e6	-0.15999183
236	0x3d194e48	0.03742817
237	0xbe512e7b	-0.20427887
238	0xbd7ae5fe	-0.061254494
239	0xbe91d449	-0.28482273
240	0xbe15a43e	-0.14613435
241	0xbdca0aa2	-0.09865309
242	0x3e360632	0.17775801
243	0xbe618de4	-0.22026783
244	0xbeaa0f94	-0.3321501
245	0xbde09408	-0.10965735
246	0x3e4ce7e7	0.20010339
247	0x3e7462ac	0.23865765
248	0xbe02523f	-0.12726687
249	0xbe4d603a	-0.20056239
250	0xbdf5af67	-0.11996346
251	0xbe6546b4	-0.22390252
252	0xbe361591	-0.17781664
253	0xbda692d4	-0.08133474
254	0xbc851fbf	-0.01625049
255	0xbe3088f9	-0.17239751

c_fc1.bias f4 [64]
0	0x3e87f789	0.26556042
1	0xbd95cd7f	-0.07314586
2	0x3e0f3275	0.13984092
3	0x3e4815bc	0.19539541
4	0x3e859763	0.2609206
5	0xbd18f440	-0.03734231
6	0xbe089d2a	-0.13341203
7	0x3e36c7ce	0.17849657
8	0x3e559f6a	0.20861593
9	0xbe16fb80	-0.14744377
10	0xbe6319a7	-0.22177754
11	0x3e4a9abb	0.19785587
12	0xbe6ab798	-0.22921598
13	0x3df92e56	0.12167041
14	0xbe102ef3	-0.1408041
15	0x3e49546a	0.19661108
16	0xbd2eab3e	-0.042643778
17	0xbe5cc4de	-0.21559474
18	0x3e0f6d7d	0.1400661
19	0xbe4686c3	-0.19387345
20	0xbe2eb406	-0.17060861
21	0x3e75f9e6	0.2402111
22	0x3e7b9db2	0.24571875
23	0x3e076038	0.13220298
24	0x3e10eda0	0.14153147
25	0xbe4d5ec3	-0.2005568
26	0x3e589fb4	0.21154672
27	0x3e4014c1	0.18757917
28	0xbe3023de	-0.17201182
29	0x3e985a87	0.29756567
30	0xbe79dda2	-0.24400952
31	0xbe3ebb37	-0.18626104
32	0xbdf99f69	-0.12188608
33	0xbe5dca18	-0.21659124
34	0x3e8037fa	0.25042707
35	0x3e07bd31	0.13255765
36	0x3e7b4ed9	0.24541797
37	0xbe46bfdd	-0.19409128
38	0xbe1e38a3	-0.15451293
39	0xbdea83d8	-0.114509284
40	0x3e602d09	0.2189218
41	0xbdf8ecb5	-0.12154523
42	0xbd2c050f	-0.04199701
43	0x3d9161c8	0.070987284
44	0x3e8d2e5e	0.27574438
45	0xbe53ea2e	-0.20694801
46	0xbe408311	-0.18799998
47	0x3e1b6e27	0.15178739
48	0xbea67f07	-0.3251879
49	0xbe5fcbc8	-0.2185508
50	0xbe59eed8	-0.21282518
51	0xbde1cdfa	-0.11025615
52	0x3e32b17f	0.17450522
53	0xbdf9110b	-0.12161454
54	0xbe85200f	-0.2600102
55	0x3d8dd41e	0.06925224
56	0x3e859433	0.2608963
57	0x3e41fde0	0.18944502
58	0xbdaff2f8	-0.085912645
59	0xbe142646	-0.14467725
60	0x3dd6db3c	0.104910344
61	0xbeb75921	-0.35810187
62	0x3ea97144	0.33094227
63	0xbe7e0fc8	-0.24810708

c_fc2.weight f4 [64, 64]
0	0x3e53ada6	0.2067171
1	0xbce6400c	-0.028106712
2	0x3e2eb0e4	0.17059666
3	0x3e382999	0.17984618
4	0x3e3328d1	0.17496039
5	0x3e3d2b28	0.18473494
6	0xbdfcc62f	-0.12342488
7	0x3e6f31fb	0.2335891
8	0xbd62cf2b	-0.055373352
9	0xbe5bba04	-0.21457678
10	0xbe24054a	-0.16017643
11	0xbd14e1e4	-0.03634824
12	0x3ccbeb81	0.02489257
13	0xbd7cc3cd	-0.061710168
14	0xbedd92b8	-0.43276
15	0xbdcd3556	-0.10019939
16	0x381a8121	3.6836722e-05
17	0x3df6aa09	0.120441504
18	0x3d8c187e	0.06840609
19	0xbe5486b6	-0.20754513
20	0xbdc379cd	-0.09544716
21	0x3e02757e	0.12740132
22	0x3e3fa912	0.18716839
23	0x3e8a6008	0.2702639
24	0x3dd2dd88	0.1029616
25	0xbe271f48	-0.16320527
26	0xbd54211d	-0.05178939
27	0xbcb935a4	-0.022608586
28	0xbe5be80a	-0.21475235
29	0x3e3a860a	0.18215194
30	0xbdd442bb	-0.1036429
31	0xbdd9533c	-0.10611579
32	0xbe040cb3	-0.1289547
33	0xbd4d2c7d	-0.050091255
34	0x3dc02c85	0.093834914
35	0x3cff3d28	0.031157091
36	0x3e636128	0.22205031
37	0xbe89c201	-0.26905826
38	0xbe3d63ea	-0.18495145
39	0xbe895184	-0.26820004
40	0x3e2263b0	0.1585834
41	0xbe628467	-0.2212082
42	0xbde9465b	-0.11390372
43	0x3e5ff12b	0.21869342
44	0x3ddac66d	0.10682378
45	0xbc8efcdc	-0.017454557
46	0xbdef654b	-0.11689242
47	0x3d8c8f1f	0.06863236
48	0xbe4e4d13	-0.20146589
49	0xbcc077d1	-0.023494633
50	0xbcb49514	-0.022043742
51	0x3d50e5d7	0.051000442
52	0x3e7113a6	0.23542652
53	0xbe6b6d6c	-0.2299096
54	0xbd875163	-0.0660732
55	0x3df68cc9	0.120385714
56	0xbe83f0ad	-0.2576956
57	0x3da64c7a	0.081200555
58	0xbf043292	-0.51639664
59	0x3d9ad122	0.0755942
60	0xbd96e7cb	-0.0736843
61	0xbe29f4d2	-0.16597298
62	0x3e4520c9	0.19250788
63	0xbeae583b	-0.3405169
64	0xbdfc698d	-0.1232482
65	0xbed0ff78	-0.40819907
66	0x3e278e3d	0.16362853
67	0xbe3e0c08	-0.18559277
68	0xbda88914	-0.082292706
69	0x3e802422	0.25027567
70	0xbd39bd2a	-0.045346417
71	0x3dd50904	0.1040211
72	0xbcb45c2b	-0.022016605
73	0x3e56bcc1	0.20970441
74	0x3da5edef	0.08102023
75	0xbe6f9fc1	-0.23400785
76	0x3ea2ed7e	0.31821817
77	0xbe99cfe0	-0.3004141
78	0xbd820c07	-0.0634995
79	0xbe40580b	-0.18783586
80	0xbe5e08b2	-0.21683004
81	0x3e200cda	0.15629902
82	0xbe24d6fc	-0.16097635
83	0x3e238cf7	0.15971743
84	0x3d89e2a0	0.067326784
85	0xbdfa0e23	-0.122097276
86	0xbe35b0de	-0.1774325
87	0xbd5ec427	-0.054386284
88	0x3ca857e0	0.020549715
89	0x3e562aac	0.20914716
90	0xbdf0891b	-0.11744901
91	0xbe724610	-0.23659539
92	0x3e5a0ec3	0.21294694
93	0xbed8f627	-0.423753
94	0x3d0dea7a	0.034647442
95	0x3d9c0519	0.0761816
96	0xbeced3d1	-0.40395978
97	0x3e16d8ec	0.14731187
98	0xbd46e955	-0.048562367
99	0x3d86755a	0.06565352
100	0x3ce0345d	0.027368719
101	0x3cbf0e31	0.023322197
102	0xbd4c98a0	-0.049950242
103	0x3e3b089d	0.18265004
104	0x3c943181	0.018090012
105	0xbd992b3d	-0.0747895
106	0x3ec0bcf5	0.37644163
107	0x3ed325ac	0.4123968
108	0xbea67920	-0.32514286
109	0x3dec2e19	0.1153223
110	0xbc8dec3a	-0.017324556
111	0x3d982953	0.07429757
112	0x3db5fec5	0.08886484
113	0x3ddc05ae	0.10743271
114	0x3c9033fe	0.017602917
115	0x3d909e94	0.070614964
116	0xbe44c7b1	-0.19216801
117	0xbe10a0c3	-0.14123826
118	0x3d063378	0.03276393
119	0x3e131c05	0.14366157
120	0xbe32c729	-0.17458786
121	0x3d8d3adb	0.068959914
122	0x3cc78d03	0.024359232
123	0xbcb18d16	-0.02167372
124	0xbd6d9ee3	-0.058012854
125	0xbccb433c	-0.024812333
126	0xbe95481b	-0.29156575
127	0xbe2a6ee8	-0.1664387
128	0x3ddd16c2	0.10795356
129	0xbed0cb16	-0.40779942
130	0x3e2d3b5e	0.16917178
131	0x3da80d0b	0.08205613
132	0x3dcfba2d	0.10142932
133	0xbc5ece4c	-0.01359899
134	0xbea8a611	-0.329392
135	0x3b9e4ef7	0.0048311907
136	0xbbf1e0a5	-0.007381516
137	0xbe3c47b3	-0.18386726
138	0xbd76fe74	-0.06030126
139	0x3dbe9241	0.093052395
140	0x3e2cad15	0.168629
141	0x3df25984	0.1183348
142	0xbe832c4b	-0.2561973
143	0x3e348cfd	0.17631908
144	0xbdd4afb3	-0.103850745
145	0x3b944e2e	0.0045259213
146	0x3e9d6a39	0.30745104
147	0xbea33e32	-0.3188339
148	0x3e21246a	0.15736547
149	0x3e5f764d	0.21822472
150	0xbc349b1b	-0.011023308
151	0xbe38c328	-0.18043196
152	0x3ea6f057	0.3260524
153	0xbeaacf56	-0.3336131
154	0x3e70c393	0.23512106
155	0xbc1aef2e	-0.009456439
156	0xbdd38ce5	-0.10329608
157	0x3eae3c77	0.34030506
158	0xbe3773c6	-0.17915258
159	0xbe28aff9	-0.16473378
160	0xbd681028	-0.056656033
161	0xbda971a2	-0.08273627
162	0x3e7acce9	0.2449223
163	0xbdbc4445	-0.09192709
164	0x3df1ddf7	0.118099146
165	0xbe030a7f	-0.12796973
166	0xbb60e580	-0.003431648
167	0xbd20e6c7	-0.039282586
168	0x3e2affac	0.16699094
169	0xbee0a0e5	-0.43872753
170	0x3db2eda8	0.087367356
171	0x3e0d306c	0.13788003
172	0x3e150a59	0.14554729
173	0xbe4305e2	-0.19045213
174	0xbda33afd	-0.079702355
175	0x3e4a049f	0.19728325
176	0xbe253ae2	-0.16135743
177	0xbe58c378	-0.21168315
178	0x3d382355	0.04495557
179	0x3d6aabd0	0.05729276
180	0x3e2875b8	0.16451156
181	0xbe4831e0	-0.19550276
182	0xbdac265c	-0.08405754
183	0x3e60325c	0.2189421
184	0x3e324b77	0.174116
185	0x3dc77bb3	0.09740391
186	0xbbbbdaac	-0.005732855
187	0x3de2357c	0.110453576
188	0x3db505c3	0.088389896
189	0xbe88cdce	-0.26719517
190	0x3e0aade1	0.13542892
191	0xbe63174b	-0.22176854
192	0xbe74328f	-0.23847412
193	0x3e8dbc8f	0.2768292
194	0x3ce3759b	0.02776604
195	0xbdbb16bb	-0.09135195
196	0xbdd8bd78	-0.10583013
197	0x3e3dc024	0.18530327
198	0x3e80d749	0.2516425
199	0xbe46e77e	-0.19424245
200	0xbe02c0e7	-0.12768899
201	0x3dccc8a2	0.09999205
202	0x3eeabf22	0.45848948
203	0xbe866a2e	-0.26252884
204	0x3e03ff0e	0.12890264
205	0xbdf51ef2	-0.11968793
206	0x3eb4eb73	0.35335883
207	0xbe565160	-0.2092948
208	0x3cb509ac	0.022099338
209	0x3d5e2eca	0.05424384
210	0xbdf18e3e	-0.11794709
211	0x3db8c8b5	0.09022657
212	0xbc343865	-0.010999774
213	0xbe6dbb77	-0.23216043
214	0xbe30ddff	-0.17272185
215	0xbd26be03	-0.040708553
216	0xbe83a7a0	-0.25713825
217	0x3e93263f	0.28740117
218	0xbeffac84	-0.49936306
219	0xbc27870d	-0.01022507
220	0xbc8527e1	-0.016254367
221	0xbe08f6b9	-0.13375367
222	0x3c996ad6	0.018727701
223	0x3d71e47e	0.059055798
224	0x3e6701af	0.22559236
225	0x3d4a1908	0.049340278
226	0x3cb804ff	0.02246332
227	0xbea4d337	-0.32192394
228	0xbe5453aa	-0.2073504
229	0x3e6e9012	0.23297146
230	0x3e766768	0.24062884
231	0x3e86d9b3	0.26337966
232	0xbd1db2fb	-0.038500767
233	0x3e9a13fb	0.3009337
234	0x3dee59b4	0.11638203
235	0xbe2170a9	-0.15765633
236	0x3e9133a0	0.283597
237	0x3dc0ebd3	0.0941998
238	0x3c661aae	0.014044447
239	0xbe277eea	-0.16357008
240	0x3d268d4f	0.040662106
241	0x3dc6f934	0.097155005
242	0x3ded09df	0.115741484
243	0x3ddee36a	0.108832195
244	0xbe8d743b	-0.2762774
245	0x3e92940c	0.28628576
246	0x3eb1503f	0.34631535
247	0x3c1db739	0.009626203
248	0xbe07af45	-0.13250454
249	0xbe8feffa	-0.28112775
250	0x3e66580a	0.22494522
251	0x3e45fb9f	0.19334267
252	0x3bb68f52	0.0055712843
253	0x3d59c321	0.053164605
254	0x3be0246b	0.006840279
255	0x3d086af8	0.03330514

c_fc2.bias f4 [64]
0	0x3df2cd35	0.118555464
1	0x3c88c6c1	0.016696336
2	0x3e104e99	0.14092483
3	0xbe297133	-0.16547088
4	0xbca401bc	-0.020020358
5	0x3dcae88c	0.09907636
6	0x3d69ab63	0.057048213
7	0x3e2d0a3e	0.16898438
8	0x3df469e4	0.119342595
9	0x3df8b39e	0.12143634
10	0x3e2c8587	0.16847812
11	0x3db799d5	0.08964888
12	0xbddb755d	-0.10715745
13	0x3df27f51	0.1184069
14	0x3af6d7d0	0.0018832628
15	0xbe3d33b8	-0.1847676
16	0xbd68ddb2	-0.05685205
17	0x3d8a04b0	0.06739175
18	0x3dfa69c3	0.12227204
19	0xbe3adefa	-0.18249121
20	0x3df292bd	0.11844394
21	0x3e37652c	0.17909688
22	0x3dc6f14b	0.09713992
23	0xbe3e762e	-0.1859977
24	0x3e3801ce	0.17969438
25	0xbdf67585	-0.12034134
26	0xbe03eaa6	-0.1288248
27	0x3dac3ef3	0.08410444
28	0xbddfee41	-0.10934115
29	0xbdfc2761	-0.123121984
30	0xbd07066d	-0.032965112
31	0x3e2b8444	0.16749674
32	0x3e12db55	0.14341481
33	0xbddcbb3d	-0.107779
34	0xbd27ac55	-0.040935833
35	0x3d91d77e	0.0712118
36	0x3e17be81	0.14818765
37	0xbe4ee866	-0.2020584
38	0xbddc84bb	-0.10767504
39	0xbe0a8f1c	-0.13531154
40	0x3e018f5d	0.12652345
41	0x3de224f5	0.11042205
42	0x3e1132fa	0.14179602
43	0x3d931e13	0.071834706
44	0xbd1da799	-0.03848991
45	0xbdedd9dc	-0.11613819
46	0xbe3b1e9a	-0.18273392
47	0x3dc9f1f0	0.09860599
48	0x3dd908f8	0.10597414
49	0xbd0c609b	-0.034271818
50	0x3dea957e	0.114542946
51	0xbe4160a4	-0.18884522
52	0x3ca8ca08	0.020604149
53	0x3d630c6d	0.055431772
54	0x3dcbec13	0.09957137
55	0x3dca3ba9	0.098746605
56	0x3deff49d	0.11716578
57	0x3e15b197	0.14618526
58	0xbe1740d1	-0.14770819
59	0x3db40e3b	0.08791777
60	0xbd6fcb7f	-0.05854368
61	0xbe1149e6	-0.14188346
62	0xbda35862	-0.07975842
63	0xbe190cec	-0.14946336

c_fc3.weight f4 [1, 64]
0	0x403d56fe	2.9584346
1	0x403a85b6	2.914411
2	0x4038a0c5	2.8848126
3	0xc036e9bf	-2.8580167
4	0xc042a719	-3.0414488
5	0x403f1c04	2.986085
6	0x4038a338	2.884962
7	0x40353266	2.831201
8	0x403e8e13	2.9774215
9	0x403ba4ef	2.9319417
10	0x403566c8	2.8343983
11	0x4048a65b	3.1351535
12	0xc04323a3	-3.04905
13	0x403aa545	2.9163373
14	0xc03cccf8	-2.9500103
15	0xc035fc9c	-2.843543
16	0xc0365eaf	-2.849529
17	0x403645de	2.8480144
18	0x403a6f44	2.913041
19	0xc034f35a	-2.827353
20	0x403b729b	2.92887
21	0x403556fa	2.8334336
22	0x40445a3d	3.0680077
23	0xc033fbd0	-2.8122444
24	0x40344e8b	2.817294
25	0xc03b84c0	-2.9299774
26	0xc0399171	-2.899502
27	0xc03b5236	-2.9268928
28	0xc03e8ef7	-2.977476
29	0x4039d1ff	2.9034421
30	0xc03c64c0	-2.9436493
31	0x4034e9ff	2.826782
32	0x403a68d2	2.9126477
33	0xc03e8cc7	-2.9773424
34	0xc0398092	-2.8984723
35	0x4034ead4	2.8268328
36	0x4038007b	2.8750293
37	0xc0352a8a	-2.8307214
38	0xc03c6091	-2.943394
39	0xc039d9b1	-2.9039118
40	0x403ca901	2.9478152
41	0x40427b4b	3.0387752
42	0x40397479	2.897734
43	0x40395d50	2.8963203
44	0xc03b1f67	-2.9237916
45	0xc040d079	-3.0127242
46	0xc0362bc1	-2.8464205
47	0x40420406	3.0314956
48	0x403f9761	2.9936144
49	0x403c7692	2.944737
50	0x403dc506	2.9651504
51	0xc03542f8	-2.8322124
52	0x403d2578	2.955412
53	0x40378374	2.8673983
54	0x404656c7	3.0990465
55	0xc0423742	-3.0346227
56	0x403f113e	2.9854274
57	0x4037b530	2.8704338
58	0xc036c8a8	-2.855997
59	0x4046ba90	3.1051369
60	0xc03d9717	-2.9623468
61	0xc039def4	-2.904233
62	0x4037a246	2.8692794
63	0xc03791ca	-2.8682733
