PPO/model/ppo_99.pth (torch_old, 42209 bytes, 12 tensors)

a_logstd f4 [1, 3]
000000 00 00 00 00 00 00 00 00 00 00 00 00
       0.0 0.0 0.0

a_fc1.weight f4 [64, 11]
000000 a0 81 36 bd 88 40 04 be a2 f4 83 3e 4c fe 1d 3e
       -0.044557214 -0.12915242 0.25772578 0.15429038
000010 16 f7 13 be 2d 19 dc 3c b5 3d ca bc a3 df 89 3e
       -0.14449725 0.026867473 -0.024687627 0.26928434
000020 6d c2 cc bd 4b 62 67 3d 00 54 1b be 90 0d f2 bd
       -0.09998021 0.056490224 -0.15168762 -0.11818993
000030 be e6 60 bd 6d ec 11 be 45 79 cb 3c b0 bc b0 bd
       -0.054907553 -0.14250346 0.0248381 -0.08629739
000040 1b 62 28 bd dd 51 16 bd e5 33 64 3e 76 90 8e bc
       -0.041109186 -0.036699165 0.22285421 -0.017402869
000050 bb 11 09 be 8f e6 75 3e 20 4d 13 be d5 24 cb 3d
       -0.1338567 0.24013732 -0.1438489 0.099191345
000060 78 ac 8f 3d 48 7c 9f bc 11 76 4a be c4 37 31 bc
       0.07015318 -0.019468442 -0.19771601 -0.010816518
000070 a7 f7 38 bd 83 d5 26 be 4b a3 34 be 87 17 46 3e
       -0.045158055 -0.16292386 -0.17640416 0.19344912
000080 77 96 c5 3d a4 32 12 3e 55 9c 48 bd 21 d4 68 bc
       0.096478395 0.1427713 -0.048977215 -0.014210732
000090 84 fb 8e 3c 55 35 10 be ab 4d d0 bd df 6b 10 3b
       0.017453916 -0.14082845 -0.10171064 0.0022036952
0000a0 09 4b d8 3c 16 44 a6 3e 59 95 c5 bc 0d 8e b2 bd
       0.026402967 0.3247382 -0.024119066 -0.087185
0000b0 c8 25 33 3e 3d 26 da bd af 8b 8d 3c 37 57 3b 3c
       0.17494881 -0.106518246 0.01727852 0.011434368
0000c0 9c 1a 6e be 2f 65 be 3c 63 03 80 bd f9 7a 73 3e
       -0.23252338 0.023241607 -0.06250646 0.23777379
0000d0 c3 9c 98 3d 6e 89 5f 3e 3b cf b7 bc 92 ec 01 3e
       0.07451775 0.21829769 -0.022437682 0.126879
0000e0 b4 87 09 3d ba 27 30 be 0b 7a be 3d d8 6e 24 be
       0.033576682 -0.17202654 0.093006216 -0.16057909
0000f0 a6 bb 68 be 21 a6 da bc 6e 29 0f 3d 86 82 23 bd
       -0.22727832 -0.026690545 0.03495162 -0.0399194
000100 2e 28 e9 bd 86 58 81 be 3f dc 43 3e 47 0f f9 bc
       -0.11384617 -0.2526285 0.19126986 -0.030402793
000110 03 be c6 3b 07 ea c0 bd 4b 72 72 bc 39 e9 13 be
       0.0060651316 -0.09419637 -0.014797757 -0.14444436
000120 11 be ac be 6e 8d 4f 3d 34 7d af bd 2b 3c 99 3d
       -0.3373876 0.050671987 -0.085688025 0.07482179
000130 2d 02 08 be a1 b5 d1 bc 01 06 7b bd 6f 7f 3f 3d
       -0.1328208 -0.025599303 -0.061285023 0.04675239
000140 b8 c8 8f bd 45 19 0d 3d b6 b6 a7 3d 63 e7 2b be
       -0.07020706 0.034447927 0.08189146 -0.16787486
000150 07 c8 13 bd f7 10 d8 3d 55 49 ea bb 2e c8 1d be
       -0.036079433 0.10550111 -0.007149855 -0.15408394
000160 66 6c b1 bd 5b 02 85 be ea 59 57 be ad db 63 3e
       -0.086632535 -0.2597836 -0.21030393 0.22251768
000170 b4 e0 07 be bd 8c 1d be aa a1 49 3e 06 b4 a7 bd
       -0.13269311 -0.15385719 0.19690576 -0.081886336
000180 09 b4 34 bc f0 2a 1b bd c1 5e 13 3d ae ab ee 3c
       -0.011029252 -0.037882745 0.035979036 0.029134598
000190 79 4f 3e 3e c4 fa bd bd dd 5d 2a 3e 9a 93 31 3d
       0.18585004 -0.09276345 0.16637369 0.043353654
0001a0 dd 82 6a 3d af e8 0d be 73 fa 86 be 66 24 11 3e
       0.057253707 -0.13858293 -0.26362953 0.14174041
0001b0 bb f8 1d bd 49 8c 24 bd 81 7e 01 3e 90 41 40 be
       -0.038567286 -0.04017285 0.12645914 -0.1877501
0001c0 ef 31 f2 bd 6d dc 2c bd 36 ba ee 3d 67 6f 34 3e
       -0.1182593 -0.042202402 0.11656611 0.17620622
0001d0 90 3f 2c 3d a3 50 2a be c9 97 7e 3c d1 48 25 bc
       0.042052805 -0.16632323 0.015539118 -0.010088162
0001e0 62 dd 8f bd c8 f5 18 3e f5 80 c2 bc 95 7c 23 be
       -0.07024647 0.14937508 -0.023743132 -0.15965493
0001f0 7d ec e1 bd 9b 56 31 3e 92 f7 a1 bd ce 33 87 3e
       -0.11031435 0.17318194 -0.079085484 0.2640671
000200 b6 b8 d9 bd 3f 59 15 3e 4c 6e ba 3d d5 46 1e bd
       -0.10630934 0.14584826 0.09103069 -0.03864177
000210 7c 60 43 be 1e 19 19 be 05 26 0c 3c 4a f2 fc bd
       -0.19079775 -0.14950988 0.008553986 -0.123509005
000220 85 88 1e be 7d c8 be 3c d4 60 48 3e 92 69 a6 bd
       -0.15481766 0.02328896 0.19568187 -0.08125605
000230 49 f9 97 bd 93 05 63 bb b3 4d 76 3c 38 ce 16 bd
       -0.07420594 -0.0034640774 0.015033173 -0.03681776
000240 52 34 31 3e b0 42 55 3d cd 5f a5 3d 65 56 b7 be
       0.17305115 0.05206555 0.08074913 -0.358081
000250 87 d4 50 3e eb 38 05 3d 4c 6e de 3c 66 b7 ba 3d
       0.20393573 0.032524984 0.027152203 0.09117012
000260 32 d9 70 bd c2 e8 c4 3b f2 0c 22 be b5 41 77 3e
       -0.058800884 0.006009192 -0.1582525 0.24146159
000270 bb af 61 bd 4c 66 b3 bd bd b4 05 be 74 44 23 3e
       -0.05509923 -0.08759746 -0.13057227 0.15944082
000280 9d 37 4d bd ae f8 1c bd 53 05 4d be bd a6 2f 3e
       -0.050101865 -0.038323097 -0.20021562 0.1715345
000290 53 fc 93 3d 0e eb 49 3e e1 ab a6 3d 1d b6 9b 3a
       0.072258614 0.19718572 0.08138252 0.0011879836
0002a0 cb f6 1b bd 3b 88 e8 bd b3 83 56 3e 52 42 1f 3e
       -0.038077157 -0.11354109 0.20948677 0.15552643
0002b0 08 d7 5a 3d eb 56 92 bd bf 30 14 be 24 d7 57 be
       0.053427726 -0.071454845 -0.1447172 -0.21078163
0002c0 c7 cc c7 bd bb f7 8a bd 58 1c 30 be 6e 0e 44 3e
       -0.09755855 -0.06785532 -0.17198312 0.1914613
0002d0 9c 4f 66 3c 13 09 08 3e 5c 21 c9 bd ab 25 81 3e
       0.014057066 0.13284712 -0.09820816 0.2522405
0002e0 45 73 9f bc f3 a5 78 bd ee a2 09 be 92 46 e4 bd
       -0.019464144 -0.060705137 -0.13441059 -0.11146273
0002f0 3d 50 2c 3c da d9 9f bc 31 8a c9 3c 0e 82 ee 3c
       0.010517177 -0.01951306 0.024602028 0.02911475
000300 48 f8 04 be f3 8a 18 3d 0d 01 d2 bd fa 2e 7a 3e
       -0.12985337 0.037241887 -0.10254107 0.24431983
000310 df b4 6a be 10 4d 11 3d 84 ee a2 bd 8c 80 28 be
       -0.2292056 0.035473883 -0.079556495 -0.16455287
000320 e1 4b 3d 3e d0 b1 47 be 71 f8 a8 bd 5c e0 46 bd
       0.18485977 -0.19501424 -0.082505114 -0.04855381
000330 13 35 9f 3a b0 1f c6 3d e1 ef c0 3c 66 08 91 bd
       0.0012146555 0.09674013 0.023551883 -0.0708168
000340 e7 f2 3a 3c c6 d0 b2 bd 72 d7 e4 bd 4f 6d 2e 3e
       0.0114104515 -0.087312266 -0.111739054 0.17033885
000350 a8 99 57 3a 41 3b de bd 28 3b b2 3c 36 87 89 bc
       0.00082244957 -0.108511455 0.021756724 -0.016788106
000360 b7 05 4b bd 60 aa 32 bd 55 ba da 3c c8 2d f4 bc
       -0.049565997 -0.043619514 0.026700178 -0.029806986
000370 db 27 aa bc 9a 16 1d be c3 3d 06 3e c9 6f 10 bd
       -0.020770958 -0.15340653 0.13109498 -0.035262857
000380 0d ec 34 3d d9 89 ee 3c cc 5c d6 bd 9f cc 5d 3d
       0.044170428 0.029118465 -0.10466918 0.05415022
000390 9e 5f 0c be d9 af ab bc f6 dd f2 bd d7 d0 0d bd
       -0.1370835 -0.020957874 -0.11858742 -0.034622993
0003a0 c1 f8 05 3d 64 a1 92 3c e6 e3 75 bd e6 96 d5 bd
       0.032707933 0.017899223 -0.060031794 -0.10429172
0003b0 af 57 20 3e 2b 4d 0c bb 80 94 42 3d b2 40 3b bd
       0.15658449 -0.00214083 0.047504902 -0.045715995
0003c0 d0 55 4f bd b1 5a c4 bb cc 4e cf 3d 27 ce c4 3d
       -0.050618947 -0.0059922566 0.10122451 0.09609633
0003d0 9f 56 fa 3d 32 3c a0 be 1f a9 30 3e 12 8e 60 be
       0.12223553 -0.31295925 0.17252015 -0.21929196
0003e0 01 7f bf 3d a7 00 19 3e 2c 4d 81 bd cb 06 31 3d
       0.09350396 0.14941655 -0.063135475 0.04321937
0003f0 d7 e1 7d 3d 8d d3 19 be 4e 3a 06 be e1 fe 04 be
       0.061982956 -0.15022106 -0.13108179 -0.12987854

a_fc1.bias f4 [64]
000000 00 00 00 00 00 00 00 00 00 00 00 00 00 00 00 00
       0.0 0.0 0.0 0.0
000010 00 00 00 00 00 00 00 00 00 00 00 00 00 00 00 00
       0.0 0.0 0.0 0.0
000020 00 00 00 00 00 00 00 00 00 00 00 00 00 00 00 00
       0.0 0.0 0.0 0.0
000030 00 00 00 00 00 00 00 00 00 00 00 00 00 00 00 00
       0.0 0.0 0.0 0.0
000040 00 00 00 00 00 00 00 00 00 00 00 00 00 00 00 00
       0.0 0.0 0.0 0.0
000050 00 00 00 00 00 00 00 00 00 00 00 00 00 00 00 00
       0.0 0.0 0.0 0.0
000060 00 00 00 00 00 00 00 00 00 00 00 00 00 00 00 00
       0.0 0.0 0.0 0.0
000070 00 00 00 00 00 00 00 00 00 00 00 00 00 00 00 00
       0.0 0.0 0.0 0.0
000080 00 00 00 00 00 00 00 00 00 00 00 00 00 00 00 00
       0.0 0.0 0.0 0.0
000090 00 00 00 00 00 00 00 00 00 00 00 00 00 00 00 00
       0.0 0.0 0.0 0.0
0000a0 00 00 00 00 00 00 00 00 00 00 00 00 00 00 00 00
       0.0 0.0 0.0 0.0
0000b0 00 00 00 00 00 00 00 00 00 00 00 00 00 00 00 00
       0.0 0.0 0.0 0.0
0000c0 00 00 00 00 00 00 00 00 00 00 00 00 00 00 00 00
       0.0 0.0 0.0 0.0
0000d0 00 00 00 00 00 00 00 00 00 00 00 00 00 00 00 00
       0.0 0.0 0.0 0.0
0000e0 00 00 00 00 00 00 00 00 00 00 00 00 00 00 00 00
       0.0 0.0 0.0 0.0
0000f0 00 00 00 00 00 00 00 00 00 00 00 00 00 00 00 00
       0.0 0.0 0.0 0.0

a_fc2.weight f4 [64, 64]
000000 40 4c 5b 3d 0e b6 fc 3d 40 f4 87 bd e0 26 d6 bb
       0.053539515 0.12339412 -0.06638384 -0.006535396
000010 30 22 03 3c df d0 a2 3e de 13 b8 3d e2 62 6d 3e
       0.008003756 0.3179998 0.08988164 0.23182252
000020 a4 9f 91 be 04 5d d7 bd 54 5d 42 3d d3 e8 04 3e
       -0.2844211 -0.10515788 0.047452286 0.1297944
000030 e7 3f 6f 3e 8b 86 3c be 16 68 67 bd 2a 10 00 3d
       0.2336422 -0.18410699 -0.05649575 0.031265415
000040 bc 91 14 3e 41 30 17 3c 53 fd 0c 3e ad c0 73 bd
       0.14508718 0.009227813 0.1376851 -0.05950992
000050 fb c5 9d bc 58 84 58 3d 8b ef 28 3e ea eb 9f 3d
       -0.019259444 0.052860588 0.16497628 0.07808669
000060 5a 9b 88 3e 00 88 af 3c 7c cf 1a 3e be eb c7 bd
       0.26681024 0.021427155 0.15118212 -0.09761761
000070 b4 56 5b bd 02 e5 c1 3c fe 9e 85 3d 57 01 b5 bd
       -0.053549483 0.02366877 0.06524466 -0.08838146
000080 81 75 b0 3c b8 a3 26 be a6 24 31 3d 12 05 3b be
       0.021540405 -0.16273391 0.04324784 -0.18263653
000090 04 83 af bd ea eb 85 3e 08 5f 3a be 9e 5c 10 3c
       -0.08569911 0.2615655 -0.18200314 0.008811144
0000a0 96 6f 2c bd d9 44 9e 3d 49 f6 43 bd 66 9c ef 3d
       -0.042098604 0.077279754 -0.047842298 0.116997525
0000b0 33 29 ed bd 9e d9 b4 bd 58 46 a9 3c 52 7d 53 3c
       -0.11580124 -0.0883057 0.020663425 0.012908297
0000c0 1f 9d 24 be 41 26 3c 3e 0a e5 8d bd 11 1c b2 3d
       -0.16075562 0.18373968 -0.06928451 0.086967595
0000d0 2e 8c d0 bc 49 b5 b8 bd 0d bc 4d 3e 9a bf fc bd
       -0.025457468 -0.090189524 0.20091267 -0.123412326
0000e0 23 e5 a4 bd 54 19 45 bd 4e dd cc bc e2 f2 6c 3b
       -0.08051517 -0.048119858 -0.02500787 0.0036155512
0000f0 6c bc fb 3d f3 8b 89 3d 0e 39 29 be 34 72 2a bd
       0.12291798 0.06716146 -0.16525671 -0.04161282
000100 bd 4d 23 be f8 3a 1f be a4 84 39 be e6 c4 33 3d
       -0.15947624 -0.15549839 -0.18117005 0.04388895
000110 7b 67 b6 3e d4 88 96 3d a4 b2 ba 3d 7c 44 12 be
       0.35625824 0.07350317 0.09116104 -0.14283937
000120 06 55 0a be 03 b3 4d be 4b eb 18 be 01 90 0d 3e
       -0.13508996 -0.20087819 -0.14933507 0.13824464
000130 62 75 46 bd 19 b6 ee bd 97 52 3a be 63 5b e8 bc
       -0.04845179 -0.11655826 -0.18195568 -0.02836389
000140 47 35 a6 bc ef e0 90 bd 4c ff 9c bd 7e 60 1e 3e
       -0.020289076 -0.07074153 -0.076658815 0.15466496
000150 ca 9f c2 bb 1b 1a b0 bc 0e 74 dd 3d fc 1f 23 bb
       -0.0059394585 -0.021496823 0.10813151 -0.002489089
000160 8a e2 6b 3e 68 df d4 bd 8e 25 89 be c7 ef 0b 3d
       0.23035637 -0.10394174 -0.26786464 0.034164216
000170 68 c4 11 be 1f 59 67 3d 5e 13 01 3d d5 68 ce 3d
       -0.1423508 0.056481477 0.03151261 0.10078589
000180 b6 d3 df 3c cb 2e 15 bd be c6 53 3c d3 3a c6 3d
       0.027322631 -0.03642158 0.012925802 0.096791886
000190 be 3a 5a 3d 55 e1 ff bd 18 6a 05 3e d2 f6 87 be
       0.053278677 -0.124941505 0.13028753 -0.26555496
0001a0 ac 23 58 bd 71 ff 22 3d ad 54 f3 3c 46 70 e3 bd
       -0.052768394 0.03979439 0.029703462 -0.11105399
0001b0 1a 3f 7e bd 28 b5 5a bd ba bf 25 3e 93 31 31 bc
       -0.062071897 -0.05339542 0.16186419 -0.010815042
0001c0 fb c4 dd 3d fe 67 bf bd 67 9d a2 3d 35 d7 51 be
       0.10828587 -0.09346007 0.07940178 -0.20492251
0001d0 c1 4c 07 bd 2e 69 3f 3e 86 9d db 3d 8e bd 30 be
       -0.033032183 0.18692467 0.107234046 -0.1725981
0001e0 ed 0c 6d bd fb 2f de bd 5c 27 04 be b3 36 02 be
       -0.057873655 -0.10848995 -0.1290564 -0.12716179
0001f0 6e 6f ba 3d 9c 81 8d 3d f4 6c cd 3d 73 eb ce bc
       0.09103285 0.06909487 0.10030547 -0.025258755
000200 52 5e 21 be 87 8b 23 3e 0c 20 8f 3e 0f 52 4a 3e
       -0.15758637 0.15971194 0.27954137 0.19757865
000210 fe f1 cd 3d d6 63 10 bd c3 23 9b 3d cf 60 2c bd
       0.10055922 -0.03525146 0.075751804 -0.04208451
000220 34 a4 95 3c 13 92 b9 bd cf d1 21 bd b8 e0 47 3e
       0.018266775 -0.090610646 -0.03950673 0.19519317
000230 ba 71 89 3d 6f 90 35 bd 16 56 e9 bd 7b 68 26 bc
       0.06711145 -0.044327196 -0.11393373 -0.010156746
000240 3f f8 37 be 58 6c 0f 3d e0 63 d7 3d af a5 17 be
       -0.17965792 0.035015434 0.105170965 -0.14809297
000250 46 5d 37 3c 67 9f 79 bd 7a a4 c0 3c 10 1d 11 be
       0.011191672 -0.060943034 0.023515929 -0.14171243
000260 e8 48 0b be 57 d4 0e 3e 5c 57 81 3d 4b c3 28 3e
       -0.1360203 0.13948189 0.063154906 0.16480748
000270 ac 25 84 3e 76 4e 35 bd 76 0b 00 3d d2 89 b7 3d
       0.2580999 -0.04426428 0.03126093 0.08961834
000280 81 51 9b 3e 20 c0 6c bd 72 33 6a 3c 3d e3 d5 3d
       0.3033562 -0.057800412 0.014294492 0.10443733
000290 c5 b2 55 bd 61 aa 24 be 53 ae c6 3d 42 b6 ce 3d
       -0.05217244 -0.1608062 0.097012185 0.10093357
0002a0 fc 9d 1e be 20 51 50 bd 99 6e 4e be c4 3a e3 3a
       -0.15489954 -0.050858617 -0.20159377 0.0017336239
0002b0 d2 bb 70 3d 4d 8f b5 3c 80 09 4f bb f4 f4 c4 bd
       0.05877287 0.022163058 -0.0031591356 -0.096170336
0002c0 94 1f 6f 3d 79 d9 d8 3d e1 16 dc bd 78 5b 07 3c
       0.058379725 0.105883546 -0.10746551 0.008261554
0002d0 24 e8 fb bc 56 f4 fc bd a6 1f 75 3e 70 b7 54 bc
       -0.030750342 -0.12351291 0.23937854 -0.012983188
0002e0 0e 18 89 3e 52 0a 6e be ca fc 06 be 49 61 0f bd
       0.26776165 -0.23246124 -0.13182369 -0.035004888
0002f0 1c 38 a7 3d 89 85 d6 bd 30 62 ae bd 54 23 81 bd
       0.08164999 -0.104746886 -0.085148215 -0.063055664
000300 0b d3 e7 bd f8 a0 04 be 8d 3a 23 3d 00 4b d5 bb
       -0.1131955 -0.1295203 0.03985076 -0.006509185
000310 12 8a 32 3e 61 8d bd 3c d1 69 9b 3d c0 10 44 be
       0.17435482 0.023138704 0.07588542 -0.19147015
000320 86 54 b4 bd 36 d1 1c be d1 80 78 3d 67 66 db bd
       -0.08805184 -0.15314183 0.060669724 -0.10712891
000330 9b ea ca 3d 0c 4a 22 3d 6e 47 77 bc 3d 2c 2d be
       0.09908029 0.039621398 -0.015092714 -0.16911407
000340 22 e9 59 3c 9d 3d 77 be f2 b8 da bd c8 83 97 bc
       0.013300212 -0.24144597 -0.10679807 -0.018495455
000350 bf e8 38 3c 17 ef 3e 3d 3a 47 4b bc 10 df e4 3c
       0.01128596 0.046614733 -0.012407118 0.027938396
000360 c2 b8 7a be 77 6a 46 be c6 40 5f bd 35 2a 27 3e
       -0.24484542 -0.1937655 -0.054505132 0.16324694
000370 a2 d5 1e be eb 00 af 3d 07 ce cf bd 4d 81 ec bc
       -0.15511182 0.08545097 -0.101467185 -0.02887025
000380 ae 4e e4 bd b2 21 96 bb 0a e9 1a be e1 b1 c8 bc
       -0.111478195 -0.0045816535 -0.1512796 -0.024498882
000390 32 8f d1 3c 59 37 48 3d 7c 53 d3 bd ea d2 6d 3d
       0.025580976 0.04888091 -0.10318658 0.05806247
0003a0 86 83 e3 bd 6a a8 9e 3c b7 7a 26 be 6e 91 34 3e
       -0.111090705 0.019367415 -0.1625775 0.17633602
0003b0 36 b4 2d 3e 7a f0 af 3d 29 47 98 3d b0 11 1c 3e
       0.16963276 0.08590789 0.07435448 0.15241122
0003c0 3a eb 09 bd 02 6e da 3e fb a9 f4 bc 35 c6 5e 3e
       -0.033671595 0.42662054 -0.02986621 0.21755297
0003d0 53 dc 12 be 64 e7 b9 bd 0e 99 2e be e1 c3 eb bd
       -0.1434186 -0.090773374 -0.17050573 -0.1151197
0003e0 1c 3e ba bc 7c e2 23 3d 9d d8 c9 3d 78 78 f3 bb
       -0.022734694 0.040010914 0.09855769 -0.0074301325
0003f0 7d 04 a2 3d 33 73 3d be 3b 82 01 3e eb 8e a8 bd
       0.07911012 -0.18500976 0.12647335 -0.082303844

a_fc2.bias f4 [64]
000000 00 00 00 00 00 00 00 00 00 00 00 00 00 00 00 00
       0.0 0.0 0.0 0.0
000010 00 00 00 00 00 00 00 00 00 00 00 00 00 00 00 00
       0.0 0.0 0.0 0.0
000020 00 00 00 00 00 00 00 00 00 00 00 00 00 00 00 00
       0.0 0.0 0.0 0.0
000030 00 00 00 00 00 00 00 00 00 00 00 00 00 00 00 00
       0.0 0.0 0.0 0.0
000040 00 00 00 00 00 00 00 00 00 00 00 00 00 00 00 00
       0.0 0.0 0.0 0.0
000050 00 00 00 00 00 00 00 00 00 00 00 00 00 00 00 00
       0.0 0.0 0.0 0.0
000060 00 00 00 00 00 00 00 00 00 00 00 00 00 00 00 00
       0.0 0.0 0.0 0.0
000070 00 00 00 00 00 00 00 00 00 00 00 00 00 00 00 00
       0.0 0.0 0.0 0.0
000080 00 00 00 00 00 00 00 00 00 00 00 00 00 00 00 00
       0.0 0.0 0.0 0.0
000090 00 00 00 00 00 00 00 00 00 00 00 00 00 00 00 00
       0.0 0.0 0.0 0.0
0000a0 00 00 00 00 00 00 00 00 00 00 00 00 00 00 00 00
       0.0 0.0 0.0 0.0
0000b0 00 00 00 00 00 00 00 00 00 00 00 00 00 00 00 00
       0.0 0.0 0.0 0.0
0000c0 00 00 00 00 00 00 00 00 00 00 00 00 00 00 00 00
       0.0 0.0 0.0 0.0
0000d0 00 00 00 00 00 00 00 00 00 00 00 00 00 00 00 00
       0.0 0.0 0.0 0.0
0000e0 00 00 00 00 00 00 00 00 00 00 00 00 00 00 00 00
       0.0 0.0 0.0 0.0
0000f0 00 00 00 00 00 00 00 00 00 00 00 00 00 00 00 00
       0.0 0.0 0.0 0.0

a_fc3.weight f4 [3, 64]
000000 8f c2 f3 b6 c0 ee 8a 3a a6 2e 6a ba 25 39 91 3a
       -7.264614e-06 0.0010599717 -0.0008933343 0.0011079652
000010 49 2f 88 ba 4f 9f f9 39 39 5f 72 3a 3c 79 4b ba
       -0.0010390069 0.00047611675 0.00092457567 -0.0007761901
000020 38 b0 94 39 53 e9 bd 3a bc 96 b5 38 9f 7d 80 3a
       0.00028360053 0.0014489092 8.658829e-05 0.0009803063
000030 a7 bd 1f ba a1 e2 79 38 dd bb 1a 3b 32 5e 45 3a
       -0.0006093629 5.957729e-05 0.002361051 0.000752899
000040 9c 08 05 bb f1 70 93 3a e0 49 09 ba 1a 29 20 ba
       -0.002029932 0.0011248869 -0.00052371435 -0.000610964
000050 3f 53 96 39 54 ca 08 b6 c2 f2 20 3a f5 83 8a 3a
       0.00028672253 -2.038335e-06 0.00061396894 0.0010567891
000060 7d ae 3d 3a b0 23 49 ba 71 fe 03 ba e8 92 14 3b
       0.00072357786 -0.00076728594 -0.0005035168 0.002267057
000070 76 d4 89 ba c0 c0 d3 ba 55 9b 52 3b 49 d1 99 3a
       -0.0010515589 -0.0016155466 0.0032136042 0.0011735345
000080 84 6e 2d 3a 53 45 dd 3a 14 5c c7 3a 5d 03 27 3a
       0.00066158944 0.0016881622 0.0015209937 0.00063710456
000090 65 c8 b9 ba d4 e7 7a 39 e6 08 92 38 b6 cd 0e 3a
       -0.0014174102 0.0002392822 6.96348e-05 0.00054475234
0000a0 f2 8a 38 3b e9 64 0d 3a 1b 23 a7 3a 65 64 01 3a
       0.002815899 0.000539376 0.0012751551 0.00049359194
0000b0 80 e4 71 3a 94 be 92 36 93 80 6b 3a 84 43 dc b9
       0.00092274696 4.3733253e-06 0.00089836976 -0.00042011973
0000c0 25 87 db b8 93 be c1 3a ad 61 34 3b 0f 40 fe 39
       -0.000104679064 0.0014781527 0.002752404 0.00048494383
0000d0 0a 0a 33 3a e9 ac b7 ba fb 67 b8 ba 40 bd 09 ba
       0.0006829804 -0.0014013323 -0.0014069075 -0.00052543357
0000e0 6e 45 5e 3a 5c 4a 2e b7 20 ca 15 3b 87 01 44 3b
       0.0008478974 -1.0388521e-05 0.0022856072 0.0029908137
0000f0 60 77 62 ba 7b fe a2 ba 60 39 ae ba c3 35 7f ba
       -0.0008639004 -0.001243546 -0.0013292246 -0.0009735489
000100 f9 5a 83 ba 30 51 f5 39 8a a4 cc b9 79 b6 83 b9
       -0.0010021619 0.0004679053 -0.00039032503 -0.0002512222
000110 52 ac ca b9 1f 29 02 3b 4e 18 b9 38 a9 44 f1 b9
       -0.0003865683 0.0019860936 8.8260145e-05 -0.00046018258
000120 85 49 35 3b 98 ef 38 3a c0 e4 bf 3a e9 2d 93 39
       0.002766223 0.0007054745 0.0014640316 0.0002807223
000130 e0 69 4d 3a 7c 74 2a 3b 65 80 3c 39 20 61 43 3a
       0.0007835906 0.0026009372 0.00017976908 0.00074531324
000140 d7 a3 b1 39 e3 fd 6e b9 ca 98 c3 3a 0d 89 31 b9
       0.0003388214 -0.00022792029 0.0014922854 -0.00016931091
000150 6d ab 42 bb c6 5c 11 bb fc 2c e8 3a a7 72 06 39
       -0.0029704229 -0.0022180541 0.0017713602 0.00012821947
000160 8e 09 38 3a 35 ff ff b9 ea df 22 bb b3 6a 3f 3a
       0.0007020467 -0.00048827534 -0.0024852701 0.0007301971
000170 99 41 69 3a 0a 5e 95 3a fb a6 01 3a d9 92 57 ba
       0.00088980194 0.0011395824 0.00049458415 -0.0008223481
000180 ea 01 43 39 51 e0 22 3a c4 c8 2a 3a 90 8a 38 ba
       0.00018597362 0.00062132353 0.0006514902 -0.00070396904
000190 45 24 09 39 a9 ca 10 ba 62 33 30 ba d4 64 c3 3a
       0.0001307885 -0.0005523363 -0.0006721524 0.0014907368
0001a0 d7 a5 9c ba 89 c1 b9 3a 8f 48 be ba 8b 9b d3 b9
       -0.001195128 0.0014172058 -0.0014517474 -0.00040360945
0001b0 66 69 13 ba 7c 1b 54 3a 33 65 32 ba 84 02 0e ba
       -0.00056233106 0.00080912537 -0.0006805241 -0.0005417245
0001c0 a7 43 33 bb 82 b6 c1 b9 f0 8a 75 ba 2f 76 0a ba
       -0.0027353556 -0.00036947808 -0.00093667116 -0.0005281893
0001d0 3c 50 8f 3a 53 11 83 3a a5 8b 3a ba 5e 3b 87 3a
       0.0010933946 0.000999967 -0.00071161456 0.0010317375
0001e0 16 ab 0a bb b8 73 2c 39 60 5c b1 3a f3 21 4b 3a
       -0.0021159104 0.00016446307 0.0013531558 0.0007748894
0001f0 44 21 81 ba e6 01 56 3b b0 14 3d 3a 6a bc d8 ba
       -0.0009851833 0.003265494 0.00072128605 -0.0016535644
000200 94 0c 98 b8 9c 55 02 ba 96 5d 16 3a c2 f6 bf ba
       -7.250268e-05 -0.0004971863 0.0005735991 -0.0014645683
000210 ad 33 93 ba 59 98 24 3a 97 f7 c1 ba eb b4 0f bb
       -0.001123061 0.0006278805 -0.0014798519 -0.0021927904
000220 89 09 9e ba 35 6d 3a ba c0 c8 3e ba 33 c2 5d 38
       -0.0012057285 -0.000711161 -0.0007277839 5.2871368e-05
000230 5b 11 56 b9 72 12 45 ba bb 76 b7 ba 0f 76 3e 3a
       -0.00020415096 -0.0007517702 -0.0013997176 0.0007265517
000240 15 ff 3d 3a 24 3d e1 b8 04 51 8f ba b4 f0 8f b9
       0.0007247788 -0.000107402244 -0.0010934179 -0.00027454423
000250 fb 21 07 3b e7 4c 9d ba 05 78 9b 39 25 7a 07 3a
       0.002061962 -0.0012001068 0.00029653325 0.0005168042
000260 a7 1f da ba a2 b8 4e ba 99 1a ab ba 47 0d c6 b8
       -0.0016641513 -0.0007885789 -0.0013054191 -9.443849e-05
000270 67 b1 6b bb 4b 49 5b 3a 64 7e d4 ba 2a 2a 98 3a
       -0.0035963894 0.00083651085 -0.0016211984 0.0011609246
000280 6a 42 ac 3a 57 aa a7 b9 25 a6 55 3a d5 8a fe ba
       0.0013142352 -0.00031979635 0.00081500626 -0.0019420037
000290 d5 6e 40 ba 58 fc 43 3a ad 06 ca ba 94 6d 8c b9
       -0.0007340734 0.0007476262 -0.0015413366 -0.00026784523
0002a0 ce 86 5d 3a a1 c9 33 3b be cd 2f bb eb b2 e8 39
       0.00084505684 0.0027433413 -0.0026825513 0.00044383793
0002b0 b0 d7 7a 3a d2 c7 ca ba ab ac 60 3a 67 98 bf b9
       0.0009568883 -0.0015470928 0.00085706514 -0.00036543907
0002c0 29 ec 93 ba fe a0 42 ba 41 28 f4 b9 d7 b5 11 bb
       -0.0011285591 -0.00074245024 -0.00046569298 -0.002223363
0002d0 77 f0 9b ba a7 fb 4e b9 a9 59 60 ba 4d ce 93 ba
       -0.0011897226 -0.00019739439 -0.0008558282 -0.0011276692
0002e0 dd 61 75 3a f8 06 b2 38 aa ea 31 3b 09 eb af b9
       0.0009360591 8.4889994e-05 0.0027147927 -0.00033553716
0002f0 a9 de 84 ba dc 3b e3 38 35 5a 1f 3a 37 64 d4 3a
       -0.0010137159 0.00010835353 0.00060788105 0.0016204183

a_fc3.bias f4 [3]
000000 00 00 00 00 00 00 00 00 00 00 00 00
       0.0 0.0 0.0

c_fc1.weight f4 [64, 11]
000000 62 a7 0c 3e 42 9c b4 be 57 69 80 be a7 50 85 be
       0.13735726 -0.35275465 -0.25080368 -0.26038095
000010 af 51 24 3e 79 af 23 3e 83 4b 21 3e 4c fa 1c 3d
       0.16046785 0.15984906 0.15751462 0.03832464
000020 7b 20 55 be f9 06 aa bd 73 42 31 3e b5 a5 4b 3e
       -0.20813172 -0.08302111 0.17310505 0.19887431
000030 27 9f b4 bc 44 86 21 be 23 4d 2f be 54 e7 5a be
       -0.022048546 -0.15773875 -0.17119269 -0.21377307
000040 85 12 1d bd b6 75 32 be 60 41 8a bd ff 86 43 bc
       -0.03834774 -0.17427716 -0.067507505 -0.011934041
000050 68 4a 03 3e a1 1a 9a bd 0a c3 b3 be 8b 34 25 3e
       0.12821352 -0.0752461 -0.3510974 0.16133325
000060 5c 5e 98 3e 5d 77 6b 3d 69 fb b7 3d 6c 47 76 bc
       0.2975949 0.05748688 0.089834996 -0.015031677
000070 af 1c e9 3d 43 56 29 be b3 79 a8 3c 0b 78 4e 3e
       0.11382424 -0.16536812 0.020565843 0.2016298
000080 5d 2c 12 be 8c 67 c8 3d bc 16 5c be a4 14 93 be
       -0.14274736 0.09785375 -0.21493047 -0.28726685
000090 31 c2 6d bd 48 9e 83 be 3f c7 91 3e 21 8b de bc
       -0.058046523 -0.25706697 0.28472325 -0.027165951
0000a0 9f 42 30 be 3d a7 01 be be 0c 3f be 69 32 3b 3d
       -0.17212914 -0.12661453 -0.18657205 0.04570237
0000b0 d9 70 1a be 11 5d d5 bd 97 96 94 3e d0 50 b2 3d
       -0.1508211 -0.10418142 0.2902114 0.0870682
0000c0 74 ef 62 3d 7b cd 28 3d 49 3b ed 3d bd df 04 3e
       0.05540414 0.041211586 0.11583573 0.12975974
0000d0 b4 21 2b 3e 5b 7c f4 3d 0f 15 e8 3b 90 27 a2 3d
       0.16712075 0.119377814 0.0070825885 0.07917702
0000e0 70 8c 27 be b7 3b 8f bd 53 bc 89 bd ce a1 c6 bd
       -0.16362166 -0.069938116 -0.06725373 -0.096988305
0000f0 82 21 2a bc aa 20 5f be e3 93 f0 bd 24 66 15 be
       -0.010383965 -0.21789804 -0.11746957 -0.14589745
000100 05 79 3c be 3e f0 c9 3d ff 15 84 be 29 4e 3d 3e
       -0.1840554 0.09860276 -0.25798032 0.18486847
000110 a4 6b 16 bd 34 3d 6d 3d a6 5c 0c 3e a5 e3 3c 3d
       -0.036723748 0.057919696 0.13707218 0.046115536
000120 e1 83 b3 bd a5 88 11 3e 4c c4 0c 3e 14 0b 48 3e
       -0.08765388 0.14212282 0.13746756 0.19535476
000130 19 30 1b be 02 01 13 3e 67 c2 4e be 77 4e b8 bd
       -0.15155067 0.14355853 -0.20191346 -0.08999341
000140 38 67 88 3b fb 83 03 be c6 2b a5 bb ae 80 8e be
       0.0041626953 -0.12843315 -0.0050406186 -0.2783255
000150 2c 37 3c be a4 a1 87 be f9 03 ca bd 9b 0c dc 3d
       -0.18380421 -0.2649051 -0.09864039 0.10744592
000160 fa da b7 bd a9 8d 59 bd 9e ab 92 3e 2c 56 c0 3e
       -0.08977313 -0.053113613 0.2864656 0.37565744
000170 36 d3 8f 3e 9a ec 2e bd 4d 5e 96 3e 34 0a b3 bd
       0.2809083 -0.04270611 0.2936882 -0.087421805
000180 cf 03 91 3e 54 70 db 3d ea 9c 62 3d a2 05 b0 be
       0.28323218 0.10714784 0.055325426 -0.34379297
000190 d9 23 a8 bd 3b 33 8b 3e f3 9a 2c be 15 89 2f 3e
       -0.082099624 0.27187523 -0.16855983 0.17142136
0001a0 2c 7a 10 be 5c 80 c9 3d 71 1d 5f bd 2d 35 16 3d
       -0.14109105 0.09838936 -0.054471437 0.036671806
0001b0 f4 ac bb 3d 61 b5 9f 39 56 a5 39 be d6 18 40 3e
       0.091638476 0.0003046198 -0.18129477 0.18759474
0001c0 4a 79 92 3d 8e 2b 0a 3e b0 6e 9a 3d b6 2d 05 3d
       0.0715204 0.13493177 0.07540643 0.032514296
0001d0 71 14 b0 3d e3 9b 6e bd 46 10 27 3e 39 f2 ef bc
       0.08597649 -0.058254134 0.16314802 -0.029290305
0001e0 3e 53 03 be 5c b1 7e be 83 c5 95 3e 8f cc 92 bd
       -0.12824723 -0.24872345 0.29252252 -0.07167923
0001f0 fa 61 4a 3e 63 a2 a1 3d 93 43 85 be 72 dc 35 3e
       0.19763938 0.07892301 -0.26028118 0.17759874
000200 0f c6 12 3e 66 2c fc 3c 4d d9 b8 3d 6c 3f b0 bd
       0.14333366 0.03078289 0.09025822 -0.08605847
000210 91 1c ce 3d 5d 84 49 be 5c ca 62 be 3c 44 51 3d
       0.10064042 -0.19679399 -0.22147506 0.051090464
000220 a6 14 a3 3b ec 60 f0 3d 88 e1 6a be 89 7a 82 be
       0.0049768267 0.117372364 -0.22937596 -0.25484112
000230 31 b5 60 be c2 6f c1 bd 6d 90 3a be d2 35 24 3e
       -0.21944119 -0.09445144 -0.18219157 0.16036156
000240 99 30 85 3b 7f be 33 be 5f ae cc bd a4 21 a8 bd
       0.004064631 -0.17553137 -0.09994196 -0.082095414
000250 92 63 ba 3d 82 25 81 bb 9b a7 aa bd 52 ce d6 be
       0.09101023 -0.003941239 -0.083327495 -0.41954285
000260 43 e7 2d be fd 62 ec 3b be 39 63 be e2 db a5 3d
       -0.1698275 0.0072139488 -0.22189996 0.0809858
000270 85 26 a1 3d 7a b7 9a 3e 93 1c 7f 3d bf c9 17 be
       0.07868675 0.30218107 0.06228311 -0.14823054
000280 0c 54 bd 3d fd c2 4e 3e 07 27 91 3e 1f d8 88 3c
       0.09244546 0.2019157 0.28350088 0.016704617
000290 e5 44 52 be 25 ac 84 3e d1 68 84 bd 31 db ae be
       -0.20534094 0.25912586 -0.06465305 -0.34151605
0002a0 0f a6 a3 be 95 4d a8 3d 7b 68 cd b9 c8 37 60 be
       -0.3196263 0.082179226 -0.0003917849 -0.21896279
0002b0 21 97 54 bd 20 82 1c be 27 c6 86 bd f3 d9 5c 3e
       -0.05190194 -0.15284014 -0.06580763 0.21567516
0002c0 4a d0 48 3e 2b 31 c9 be 89 5a 9c bc 9f 35 c5 bd
       0.19610706 -0.39295325 -0.01908614 -0.09629368
0002d0 bb 7e 44 be 47 e1 8d bc 10 1a 66 be 41 07 a1 bd
       -0.19188969 -0.017319335 -0.2247088 -0.07862712
0002e0 f5 4b a5 bd ea 6a 0b bd b8 dd e5 3c 19 db a0 3e
       -0.08071128 -0.034037508 0.028059825 0.31417158
0002f0 69 58 69 bd e2 14 e9 bc 80 10 63 bd 1e d5 54 be
       -0.05696908 -0.02845234 -0.055435658 -0.20784423
000300 bf d4 a0 3e 76 10 47 be 3f 8f 96 bc a8 e6 90 be
       0.31412312 -0.19439873 -0.018378852 -0.28300977
000310 a4 c5 39 3e 92 10 d8 3b 91 5e a9 3e 20 71 47 be
       0.181418 0.006593772 0.3307996 -0.19476748
000320 aa d3 3b be 03 37 12 be f8 b6 50 bd 2b 5f 21 3d
       -0.18342462 -0.14278798 -0.050955743 0.0393974
000330 d6 82 a0 be 69 c2 2e be 75 73 a0 be 86 bd 4e be
       -0.3134982 -0.17066349 -0.31338087 -0.20189485
000340 34 21 04 3c 2a af bc bd ca f6 3b 3e 5a d7 eb 3d
       0.008064557 -0.092130974 0.18355861 0.115156844
000350 a6 5c 0a 3d 12 d7 92 3c 63 31 83 be c8 be 95 3e
       0.033779763 0.01792482 -0.25623617 0.29247117
000360 03 27 38 3e 32 ab 46 3e 2f 85 e6 3d 8c a5 ef 3d
       0.17983632 0.19401243 0.112558715 0.117014974
000370 05 49 03 3e 20 c4 a1 be 67 14 7e be 9e 35 75 be
       0.12820823 -0.31594944 -0.2481247 -0.23946235
000380 77 17 b6 bd 51 90 f5 3d 72 a9 53 be 95 d2 53 be
       -0.08891194 0.11990417 -0.20670107 -0.206858
000390 10 6c 90 bd 74 ed 03 bd b2 59 95 3e 78 3b 52 3e
       -0.07051861 -0.032208875 0.29169995 0.20530498
0003a0 12 e4 ea bd fd e0 11 bd c3 dd 81 be 92 9b 2a 3c
       -0.11469282 -0.035614956 -0.25364503 0.010413067
0003b0 8f 5f 81 3e a8 2c 5f bd 17 18 2f bd 8b 73 21 bd
       0.25268218 -0.054485947 -0.042747583 -0.03941683
0003c0 d0 8f 07 be a7 3e 5e bc 88 a1 1b 3e 29 82 97 be
       -0.13238454 -0.013564742 0.15198338 -0.29591492
0003d0 af 1d 6c be 8f 65 3f be ce 57 47 be 69 5d 59 3e
       -0.23058198 -0.18691085 -0.19467089 0.2122704
0003e0 a5 6c 30 bd 5c c4 99 be 39 0e 54 3d bd 52 c8 bd
       -0.04307236 -0.30032623 0.051771376 -0.09781406
0003f0 57 d2 4a bd a3 b9 68 be c0 20 8d 3e 2e 05 a5 38
       -0.049517002 -0.22727065 0.2756405 7.868778e-05

c_fc1.bias f4 [64]
000000 4f 4f ea 3d 14 ac df 3d 80 15 d7 bd b9 20 0d 3e
       0.11440908 0.10921493 -0.10502148 0.13782014
000010 5a 28 e5 bd f0 98 a9 3d c4 ab c7 bd 2c c2 0c 3e
       -0.11189337 0.08281124 -0.097495586 0.13745946
000020 f1 be f5 bd a4 3e b7 bd 94 66 0c be 48 dc ba bd
       -0.1199931 -0.089474946 -0.13711005 -0.091240466
000030 55 dd c0 3d c2 f4 38 3e 5d 2e e9 bd ec d5 cd 3d
       0.09417216 0.18062118 -0.11385796 0.10050568
000040 12 27 1f 3e 21 77 b6 3d 29 e8 de 3d 4c db ee bd
       0.15542248 0.08909441 0.10884125 -0.11662921
000050 17 f4 01 3e c2 fc e5 3d 11 bb c9 3d 8b da 0a be
       0.12690769 0.1122985 0.09850133 -0.1355993
000060 f0 dd 00 3e 62 a7 b4 3d 5b 2c fc 3d 18 28 02 3e
       0.12584662 0.08820988 0.12313148 0.12710607
000070 35 22 dc 3d 2a 9f ba 3b 25 1c f5 bd 63 49 e3 3d
       0.10748712 0.0056952434 -0.11968259 0.11097982
000080 c3 35 51 be 13 fa ec bd 5f 42 a9 bd 92 a1 01 be
       -0.20430665 -0.11571135 -0.082646124 -0.1265929
000090 81 66 d3 3d 86 02 d6 3d 66 ad cc bd 8c 67 fb 3d
       0.103222854 0.104497 -0.099940106 0.122756094
0000a0 51 cf f0 3d e0 ba e6 3d d3 97 f6 bd fa df 0b be
       0.117582925 0.11266112 -0.12040677 -0.13659659
0000b0 7c d6 f6 bd 68 bc f7 bd 43 b3 fe bd 86 6f f0 3d
       -0.120526284 -0.120964825 -0.12436535 0.117400214
0000c0 7a f5 0f 3d f7 a9 a9 bd b8 5e 04 3e 60 2d b2 3d
       0.035146214 -0.08284371 0.12926757 0.08700061
0000d0 68 4a 78 bd 5d 1b 1e bd bc 44 f6 bd 27 3c 6e 3d
       -0.060617834 -0.038600314 -0.12024829 0.058162834
0000e0 d9 81 f5 3d ce 9d 10 3e 62 db d6 bd 86 90 d5 bd
       0.11987657 0.14122698 -0.10491063 -0.10427956
0000f0 77 3e f4 3d 4e 88 c6 3c ef f3 00 bd b9 3d ec bd
       0.11925977 0.024234917 -0.031482633 -0.1153521

c_fc2.weight f4 [64, 64]
000000 e1 77 59 be 4a 38 90 be 37 d1 4b 3e f1 e7 98 bd
       -0.21237136 -0.28167945 0.19904028 -0.07466114
000010 d2 d6 b2 3d bc a6 ce bd 9b 93 87 3c a6 8b 9f be
       0.0873238 -0.10090396 0.016549876 -0.3116123
000020 90 76 b5 bd 18 77 29 3e de 6d c3 3e 0e 26 17 3d
       -0.088605046 0.16549337 0.3816976 0.036901526
000030 09 32 85 be 21 cf b1 bd 04 79 0e 3e 39 e7 d8 bc
       -0.26014736 -0.08682085 0.13913351 -0.026477443
000040 09 88 48 be 4c 73 67 3d fb f9 a2 3d ec 8a 71 3e
       -0.19583143 0.05650644 0.07957836 0.2358815
000050 06 e2 5d be bf e1 04 be 3c be 07 be 63 7d 7c 3d
       -0.21668252 -0.1297674 -0.13256162 0.061643016
000060 8b 52 71 bc c0 dd 22 be ca d6 17 be 37 d1 5d be
       -0.014729152 -0.15904903 -0.1482803 -0.2166184
000070 a5 cd de 3d 04 c0 2d 3c cd 7c 12 3e 29 f4 1d bd
       0.10879067 0.010604862 0.1430542 -0.038562927
000080 f8 b3 92 3e f3 d6 85 3e f4 04 a8 bd 3d 59 06 3e
       0.2865293 0.26140556 -0.0820407 0.13119979
000090 30 10 06 be a8 a1 a8 be 40 4d f4 bc 7b fe 47 be
       -0.13092113 -0.32935834 -0.029821992 -0.1953067
0000a0 0e 6f 8e bd 23 c7 2a be 2e 9d b9 3d 7d 32 58 3d
       -0.06954776 -0.16677527 0.09063183 0.052782524
0000b0 14 46 56 3e 35 f2 16 3e db 4d 86 3e e0 41 8f be
       0.2092517 0.14740832 0.26231274 -0.27979946
0000c0 8e 51 3b 3e c9 03 6a 3e d5 9e b1 be 72 43 a1 bd
       0.1829283 0.22853006 -0.34691492 -0.07874192
0000d0 78 10 04 be ac c2 a5 be 02 c8 2b 3d e6 11 71 be
       -0.12896907 -0.32375085 0.04193879 -0.23541984
0000e0 a8 ac 02 bd 62 1e 3c bc 8f 66 8c 3c 54 32 82 3e
       -0.03190294 -0.011481853 0.017138747 0.25429022
0000f0 05 ea 6d bd e9 9c 28 bd 51 15 86 be 19 82 b6 3d
       -0.058084507 -0.041165266 -0.26188138 0.08911533
000100 06 b2 01 3d 0b 82 53 bc 47 b6 65 3c a5 7e 82 be
       0.031663917 -0.012909423 0.014020509 -0.25487247
000110 77 ce 7d 3e a1 31 89 bd a8 e1 30 3e f3 43 fb bd
       0.24785791 -0.06698919 0.17273581 -0.1226882
000120 bc d6 84 3e 15 94 5d 3d c2 c8 48 3e 32 0c b2 3c
       0.2594508 0.0540963 0.19607833 0.02173433
000130 c3 6a 6d be 4f ca 1f bc 94 10 4b 3e 23 e6 75 be
       -0.23185258 -0.009752824 0.19830543 -0.24013571
000140 68 05 bc bd 66 81 3f be 11 85 8f be 3d f0 c4 3e
       -0.09180719 -0.18701705 -0.2803121 0.38464537
000150 c0 7d 7c be b6 01 ad be db 97 9d bd bf b2 6c 3d
       -0.24657345 -0.33790368 -0.0769498 0.057787653
000160 d8 3a e2 3d 29 32 08 bd ec 41 37 bc 1f d3 81 be
       0.1104638 -0.03325096 -0.011185151 -0.25356385
000170 8f b1 5f 3d 9a 3f b3 bd 68 33 3a 3e b3 ae e5 bc
       0.054612692 -0.087523654 0.18183672 -0.028037405
000180 fb a8 81 3e 8f c7 43 3e e7 9c f8 3d b2 c5 c5 3e
       0.25324234 0.19119094 0.12139302 0.38627392
000190 b8 6d 9f bc 74 91 c1 be c5 63 bb 3d bc 6b bb bb
       -0.019461498 -0.37806284 0.09149889 -0.00571963
0001a0 ea bf 96 be 19 60 f0 bd 91 e9 ae 3e a0 e0 3c 3e
       -0.29443294 -0.11737079 0.34162572 0.18445063
0001b0 f9 4b 80 3d 39 38 2c 3e 92 eb 5f 3d 04 9b 28 be
       0.06264491 0.16818322 0.054668017 -0.16465384
0001c0 b8 3f 77 bd 5d f0 99 3d eb 5b 0b 3b f4 2c a3 bd
       -0.0603635 0.07516549 0.0021264504 -0.079675585
0001d0 45 f6 8b be 1e 41 9d bd c6 b4 24 bc 4b 17 19 be
       -0.27336326 -0.07678436 -0.010052865 -0.14950292
0001e0 3c 72 d3 be 8e 3b 79 be a4 b2 01 3e 46 9b 94 3d
       -0.4129809 -0.24339125 0.12665802 0.072561786
0001f0 39 91 a6 bd 55 9c 47 3d f8 ba 90 3d 6b 73 df 3d
       -0.08133168 0.048733074 0.070669115 0.10910686
000200 eb 18 8f bd e5 64 ef 3d 2f bb 17 be 1c 1e ad bd
       -0.069871746 0.11689166 -0.14817499 -0.084530085
000210 f7 d0 39 be f8 30 b7 3d 53 f8 21 bd 89 f7 85 3e
       -0.1814612 0.08944887 -0.03954346 0.26165417
000220 8a f1 e0 bd ee 6a 10 be 5e 90 98 be 25 a8 d3 bd
       -0.1098357 -0.1410329 -0.29797643 -0.103348054
000230 35 b4 ba 3e db 3e 8e 3e c5 b4 38 be 17 a0 35 3e
       0.36465612 0.2778233 -0.18037708 0.1773685
000240 2f bb 52 3e 15 86 35 3e 0c 6a 18 3c d2 9c 61 bd
       0.20579217 0.1772693 0.009302627 -0.055081196
000250 38 b2 f7 3d c8 d5 05 3e 79 61 b0 3e b1 a1 9c be
       0.120945394 0.13069832 0.34449366 -0.3059211
000260 d7 35 9f 3d 93 b8 7e 3e 95 6f 25 bd 47 5d c4 3d
       0.07773941 0.24875097 -0.040389616 0.09588104
000270 54 1d 84 3e b8 10 ed bd b6 74 05 be 44 6a 05 3e
       0.25803626 -0.115754545 -0.13032803 0.13028818
000280 a8 5c 71 be 68 a5 fe bd d1 8a 5b bd 1a 29 10 3d
       -0.23570502 -0.124338925 -0.053599183 0.035195448
000290 dd 03 07 bb 83 0b 00 3e b0 6a 9b be 7a d8 81 3d
       -0.0020601668 0.12504391 -0.30354834 0.06340118
0002a0 73 51 46 3e c5 95 f3 3d 02 00 5b 3c 92 8e aa be
       0.19367008 0.11893801 0.013366701 -0.33311898
0002b0 17 72 71 be 9e 7f 14 3e 57 e9 3e 3e 42 2c 1e 3e
       -0.23578678 0.14501807 0.186437 0.1544657
0002c0 17 f5 1c 3e 17 7c 5e be f9 7f 71 3e 1c c8 52 3e
       0.1532787 -0.21727024 0.23583974 0.20584148
0002d0 b3 c3 3b be 4a e6 47 3e 6e 60 d9 bd 49 77 01 3d
       -0.18336372 0.19521442 -0.10614096 0.0316079
0002e0 c9 ef b2 3e 0e f0 53 3e fa 45 a3 bd c5 4a 04 3c
       0.34948567 0.20697042 -0.07972331 0.008074467
0002f0 15 bc 13 be 90 af fe bd d1 47 ce bd fb 61 a1 be
       -0.14427216 -0.1243583 -0.10072292 -0.31520066
000300 45 37 44 3e b3 41 3e 3e 13 7f 2d be 28 bf de 3d
       0.19161709 0.1857975 -0.16943006 0.10876304
000310 e1 fc f5 bd cd 6f 4c 3e 63 77 38 3c 38 73 8e 3c
       -0.120111234 0.19964524 0.011258933 0.017388925
000320 48 47 3e be be c1 ff 3a 0c a5 f8 bd 39 09 0f be
       -0.18581879 0.0019512696 -0.12140855 -0.13968362
000330 b8 52 45 3d 4b 32 d2 3e df 55 b8 3d 62 03 36 3e
       0.04817459 0.41053995 0.090007536 0.17774728
000340 78 38 5c 3e 66 f8 5c bd 4f 97 d3 3d d2 f7 02 be
       0.21505916 -0.05394783 0.10331594 -0.12789848
000350 ab 57 cd 3d 25 62 91 3d 26 62 33 3e e7 94 21 be
       0.10026487 0.07098798 0.1751791 -0.15779458
000360 14 d5 81 3d 1f 67 23 3e 0e 75 56 3e 36 ee de 3d
       0.063394696 0.15957306 0.2094309 0.10885279
000370 a3 ec 66 3e e4 58 18 bc db 24 97 be ae dc 4f 3c
       0.22551207 -0.009298537 -0.29520306 0.0126868915
000380 4d e8 61 be 69 f4 24 be f7 de 38 3e f1 c6 16 be
       -0.22061272 -0.1610886 0.18053804 -0.14724328
000390 34 b5 43 3e 4c 43 3e 3e 8d de 14 3d be 62 81 3e
       0.19112092 0.18580359 0.036345053 0.25270647
0003a0 b2 6b 7e 3e b0 8a c8 bc a3 43 5e bd 3f 43 ce be
       0.2484577 -0.024480194 -0.054263722 -0.4028568
0003b0 0c f8 a2 be 6c b1 1a bd a4 86 91 be 87 ae 89 3e
       -0.3182987 -0.03776686 -0.28423035 0.26890966
0003c0 e3 a4 91 bd 3b 09 42 3e d3 e3 04 3e 90 84 28 3d
       -0.07111528 0.18948834 0.12977533 0.041142046
0003d0 b4 aa c7 3d 57 61 2a bc a2 e6 1b 3e 39 c0 bf 3d
       0.09749356 -0.010399184 0.15224698 0.093628354
0003e0 19 b7 34 3e 05 e3 06 3e 75 e7 e3 bd ad 35 e4 bd
       0.17647971 0.13172539 -0.11128131 -0.1114305
0003f0 11 c8 34 be b5 0a dc bd b2 27 82 be e3 8e b5 bd
       -0.17654444 -0.1074423 -0.2542091 -0.08865144

c_fc2.bias f4 [64]
000000 cb 1c 8c bd 93 fa b2 bd 66 01 90 3d 28 bf c0 3d
       -0.06841429 -0.087391995 0.07031517 0.0941146
000010 03 7e cf bd 14 1e 92 3d 0d 5d b2 bd dc 6e 96 bd
       -0.10131457 0.07134643 -0.08709154 -0.073453635
000020 62 fb d4 bd bc 9c a0 bd 12 49 c9 3d ea c4 9e 3d
       -0.1039951 -0.07842395 0.0982839 0.07752402
000030 3e fa bb bd 04 d1 b4 3d ef 61 ce bd 73 bd 94 bd
       -0.09178589 0.08828929 -0.10077273 -0.07262697
000040 62 9b 98 bd b5 75 bd bd 98 d1 9b bd 88 e8 bc bd
       -0.07451512 -0.092509665 -0.07608336 -0.09224039
000050 ca dc bb 3d 93 4e 92 bd 3c fe b2 3d e9 92 85 3d
       0.091729715 -0.07143893 0.087398976 0.065221615
000060 43 f5 cc bd d0 34 87 bd ba 36 ac 3d ca e6 ae bd
       -0.100077175 -0.0660187 0.08408876 -0.08540113
000070 22 97 aa 3d 7e d7 95 3d c0 13 c8 3d 5e 26 8b bd
       0.083296075 0.073164925 0.09769392 -0.06794427
000080 96 f1 a2 bd 38 45 a9 bd 8e 57 aa 3d d5 cc a1 bd
       -0.07956235 -0.082651556 0.08317481 -0.07900397
000090 30 61 c6 3d dc 62 a9 3d 3e 41 c7 bd 7a 88 a2 3d
       0.09686506 0.08270809 -0.09729241 0.07936187
0000a0 f9 6a c6 3d fa 39 cd 3d 28 aa a8 3d ff cb d4 bd
       0.09688372 0.10020824 0.0823558 -0.10390472
0000b0 e8 d3 b5 3d 41 43 c3 3d 30 7c d5 bd 51 69 9f 3d
       0.088783085 0.09534312 -0.104240775 0.077837594
0000c0 ee 18 d1 bd 3c 99 bd 3d 8b 4e c5 3d b3 7d c3 3d
       -0.10209833 0.09257743 0.096341215 0.095454596
0000d0 eb c1 9f bd e4 92 b4 3d c4 06 b2 3d 3b 50 cf 3d
       -0.07800659 0.0881708 0.08692697 0.101227246
0000e0 3b ea 97 3d b7 bb 97 bd f1 4a 82 bd 3f c0 6f bd
       0.07417723 -0.07408851 -0.0636195 -0.05853295
0000f0 35 29 b3 bd a8 4f 9d 3d 35 c3 a4 bd 34 5f b2 3d
       -0.08748094 0.07681209 -0.08045045 0.08709565

c_fc3.weight f4 [1, 64]
000000 e7 e0 b7 bf 07 7e ab bf 8a 53 af 3f 64 82 bf 3f
       -1.436551 -1.3397835 1.3697369 1.4961667
000010 6b a6 b0 bf d5 c3 b2 3f 9e 42 b5 bf ed 09 bf bf
       -1.3800787 1.3966013 -1.4160955 -1.4924904
000020 db 36 b3 bf 55 ab bd bf cd 10 ae 3f 41 56 b6 3f
       -1.4001116 -1.4817911 1.3598877 1.4245073
000030 a5 80 b4 bf 7a a0 ae 3f 23 71 af bf 74 1a b9 bf
       -1.4101759 1.3642724 -1.3706402 -1.4461198
000040 6a 5d b8 bf 65 22 ae bf e4 a1 b2 bf 53 37 b5 bf
       -1.4403508 -1.3604246 -1.3955655 -1.4157509
000050 98 5b b4 3f a1 7f bb bf 9e 0b ac 3f 04 35 b1 3f
       1.4090452 -1.4648324 1.3441045 1.3844304
000060 8e a9 ae bf ef 64 c1 bf 6c f1 c1 3f 23 74 c1 bf
       -1.3645494 -1.5108927 1.5151801 -1.5113567
000070 b7 83 ae 3f 11 55 cd 3f e6 2a b3 3f 11 ae b7 bf
       1.3633946 1.6041585 1.3997467 -1.4349996
000080 df f2 ba bf 53 ab c1 bf 6d 08 af 3f d9 be c4 bf
       -1.4605368 -1.5130409 1.3674446 -1.5370742
000090 a6 f5 b1 3f 9d 38 c0 3f 41 ca b9 bf d2 24 c1 3f
       1.3903091 1.5017277 -1.4514848 1.5089362
0000a0 dd 4c ac 3f f2 bc ae 3f 28 52 ad 3f ab dd ae bf
       1.3460957 1.3651412 1.3540697 -1.3661398
0000b0 21 ff b5 3f bd a0 b5 3f 5d b1 b3 bf 66 d4 b6 3f
       1.4218484 1.4189678 -1.4038502 1.4283569
0000c0 a1 45 af bf 9f b7 b3 3f 77 0d af 3f 90 9d b0 3f
       -1.3693124 1.4040412 1.3675984 1.3798084
0000d0 67 e5 c8 bf 28 73 b9 3f 8a 72 ba 3f a7 e0 af 3f
       -1.5695008 1.4488268 1.4566205 1.3740433
0000e0 72 9d c4 3f a8 bd b2 bf 59 f4 c5 bf 74 ae d3 bf
       1.5360548 -1.3964128 -1.5465194 -1.6537614
0000f0 fa 94 cb bf c5 16 c5 3f 38 8b c2 bf 43 e2 ac 3f
       -1.5904839 1.5397574 -1.5198736 1.350655
