PPO/model/ppo_199.pth (torch_old, 42209 bytes, 12 tensors)

a_logstd f4 [1, 3]
0.0 0.0 0.0
00000000: 0000 0000 0000 0000 0000 0000

a_fc1.weight f4 [64, 11]
-0.044557214 -0.12915242 0.25772578 0.15429038 -0.14449725 0.026867473 -0.024687627 0.26928434
-0.09998021 0.056490224 -0.15168762 -0.11818993 -0.054907553 -0.14250346 0.0248381 -0.08629739
-0.041109186 -0.036699165 0.22285421 -0.017402869 -0.1338567 0.24013732 -0.1438489 0.099191345
0.07015318 -0.019468442 -0.19771601 -0.010816518 -0.045158055 -0.16292386 -0.17640416 0.19344912
0.096478395 0.1427713 -0.048977215 -0.014210732 0.017453916 -0.14082845 -0.10171064 0.0022036952
0.026402967 0.3247382 -0.024119066 -0.087185 0.17494881 -0.106518246 0.01727852 0.011434368
-0.23252338 0.023241607 -0.06250646 0.23777379 0.07451775 0.21829769 -0.022437682 0.126879
0.033576682 -0.17202654 0.093006216 -0.16057909 -0.22727832 -0.026690545 0.03495162 -0.0399194
-0.11384617 -0.2526285 0.19126986 -0.030402793 0.0060651316 -0.09419637 -0.014797757 -0.14444436
-0.3373876 0.050671987 -0.085688025 0.07482179 -0.1328208 -0.025599303 -0.061285023 0.04675239
-0.07020706 0.034447927 0.08189146 -0.16787486 -0.036079433 0.10550111 -0.007149855 -0.15408394
-0.086632535 -0.2597836 -0.21030393 0.22251768 -0.13269311 -0.15385719 0.19690576 -0.081886336
-0.011029252 -0.037882745 0.035979036 0.029134598 0.18585004 -0.09276345 0.16637369 0.043353654
0.057253707 -0.13858293 -0.26362953 0.14174041 -0.038567286 -0.04017285 0.12645914 -0.1877501
-0.1182593 -0.042202402 0.11656611 0.17620622 0.042052805 -0.16632323 0.015539118 -0.010088162
-0.07024647 0.14937508 -0.023743132 -0.15965493 -0.11031435 0.17318194 -0.079085484 0.2640671
-0.10630934 0.14584826 0.09103069 -0.03864177 -0.19079775 -0.14950988 0.008553986 -0.123509005
-0.15481766 0.02328896 0.19568187 -0.08125605 -0.07420594 -0.0034640774 0.015033173 -0.03681776
0.17305115 0.05206555 0.08074913 -0.358081 0.20393573 0.032524984 0.027152203 0.09117012
-0.058800884 0.006009192 -0.1582525 0.24146159 -0.05509923 -0.08759746 -0.13057227 0.15944082
-0.050101865 -0.038323097 -0.20021562 0.1715345 0.072258614 0.19718572 0.08138252 0.0011879836
-0.038077157 -0.11354109 0.20948677 0.15552643 0.053427726 -0.071454845 -0.1447172 -0.21078163
-0.09755855 -0.06785532 -0.17198312 0.1914613 0.014057066 0.13284712 -0.09820816 0.2522405
-0.019464144 -0.060705137 -0.13441059 -0.11146273 0.010517177 -0.01951306 0.024602028 0.02911475
-0.12985337 0.037241887 -0.10254107 0.24431983 -0.2292056 0.035473883 -0.079556495 -0.16455287
0.18485977 -0.19501424 -0.082505114 -0.04855381 0.0012146555 0.09674013 0.023551883 -0.0708168
0.0114104515 -0.087312266 -0.111739054 0.17033885 0.00082244957 -0.108511455 0.021756724 -0.016788106
-0.049565997 -0.043619514 0.026700178 -0.029806986 -0.020770958 -0.15340653 0.13109498 -0.035262857
0.044170428 0.029118465 -0.10466918 0.05415022 -0.1370835 -0.020957874 -0.11858742 -0.034622993
0.032707933 0.017899223 -0.060031794 -0.10429172 0.15658449 -0.00214083 0.047504902 -0.045715995
-0.050618947 -0.0059922566 0.10122451 0.09609633 0.12223553 -0.31295925 0.17252015 -0.21929196
0.09350396 0.14941655 -0.063135475 0.04321937 0.061982956 -0.15022106 -0.13108179 -0.12987854
00000000: a081 36bd 8840 04be a2f4 833e 4cfe 1d3e
00000010: 16f7 13be 2d19 dc3c b53d cabc a3df 893e
00000020: 6dc2 ccbd 4b62 673d 0054 1bbe 900d f2bd
00000030: bee6 60bd 6dec 11be 4579 cb3c b0bc b0bd
00000040: 1b62 28bd dd51 16bd e533 643e 7690 8ebc
00000050: bb11 09be 8fe6 753e 204d 13be d524 cb3d
00000060: 78ac 8f3d 487c 9fbc 1176 4abe c437 31bc
00000070: a7f7 38bd 83d5 26be 4ba3 34be 8717 463e
00000080: 7796 c53d a432 123e 559c 48bd 21d4 68bc
00000090: 84fb 8e3c 5535 10be ab4d d0bd df6b 103b
000000a0: 094b d83c 1644 a63e 5995 c5bc 0d8e b2bd
000000b0: c825 333e 3d26 dabd af8b 8d3c 3757 3b3c
000000c0: 9c1a 6ebe 2f65 be3c 6303 80bd f97a 733e
000000d0: c39c 983d 6e89 5f3e 3bcf b7bc 92ec 013e
000000e0: b487 093d ba27 30be 0b7a be3d d86e 24be
000000f0: a6bb 68be 21a6 dabc 6e29 0f3d 8682 23bd
00000100: 2e28 e9bd 8658 81be 3fdc 433e 470f f9bc
00000110: 03be c63b 07ea c0bd 4b72 72bc 39e9 13be
00000120: 11be acbe 6e8d 4f3d 347d afbd 2b3c 993d
00000130: 2d02 08be a1b5 d1bc 0106 7bbd 6f7f 3f3d
00000140: b8c8 8fbd 4519 0d3d b6b6 a73d 63e7 2bbe
00000150: 07c8 13bd f710 d83d 5549 eabb 2ec8 1dbe
00000160: 666c b1bd 5b02 85be ea59 57be addb 633e
00000170: b4e0 07be bd8c 1dbe aaa1 493e 06b4 a7bd
00000180: 09b4 34bc f02a 1bbd c15e 133d aeab ee3c
00000190: 794f 3e3e c4fa bdbd dd5d 2a3e 9a93 313d
000001a0: dd82 6a3d afe8 0dbe 73fa 86be 6624 113e
000001b0: bbf8 1dbd 498c 24bd 817e 013e 9041 40be
000001c0: ef31 f2bd 6ddc 2cbd 36ba ee3d 676f 343e
000001d0: 903f 2c3d a350 2abe c997 7e3c d148 25bc
000001e0: 62dd 8fbd c8f5 183e f580 c2bc 957c 23be
000001f0: 7dec e1bd 9b56 313e 92f7 a1bd ce33 873e
00000200: b6b8 d9bd 3f59 153e 4c6e ba3d d546 1ebd
00000210: 7c60 43be 1e19 19be 0526 0c3c 4af2 fcbd
00000220: 8588 1ebe 7dc8 be3c d460 483e 9269 a6bd
00000230: 49f9 97bd 9305 63bb b34d 763c 38ce 16bd
00000240: 5234 313e b042 553d cd5f a53d 6556 b7be
00000250: 87d4 503e eb38 053d 4c6e de3c 66b7 ba3d
00000260: 32d9 70bd c2e8 c43b f20c 22be b541 773e
00000270: bbaf 61bd 4c66 b3bd bdb4 05be 7444 233e
00000280: 9d37 4dbd aef8 1cbd 5305 4dbe bda6 2f3e
00000290: 53fc 933d 0eeb 493e e1ab a63d 1db6 9b3a
000002a0: cbf6 1bbd 3b88 e8bd b383 563e 5242 1f3e
000002b0: 08d7 5a3d eb56 92bd bf30 14be 24d7 57be
000002c0: c7cc c7bd bbf7 8abd 581c 30be 6e0e 443e
000002d0: 9c4f 663c 1309 083e 5c21 c9bd ab25 813e
000002e0: 4573 9fbc f3a5 78bd eea2 09be 9246 e4bd
000002f0: 3d50 2c3c dad9 9fbc 318a c93c 0e82 ee3c
00000300: 48f8 04be f38a 183d 0d01 d2bd fa2e 7a3e
00000310: dfb4 6abe 104d 113d 84ee a2bd 8c80 28be
00000320: e14b 3d3e d0b1 47be 71f8 a8bd 5ce0 46bd
00000330: 1335 9f3a b01f c63d e1ef c03c 6608 91bd
00000340: e7f2 3a3c c6d0 b2bd 72d7 e4bd 4f6d 2e3e
00000350: a899 573a 413b debd 283b b23c 3687 89bc
00000360: b705 4bbd 60aa 32bd 55ba da3c c82d f4bc
00000370: db27 aabc 9a16 1dbe c33d 063e c96f 10bd
00000380: 0dec 343d d989 ee3c cc5c d6bd 9fcc 5d3d
00000390: 9e5f 0cbe d9af abbc f6dd f2bd d7d0 0dbd
000003a0: c1f8 053d 64a1 923c e6e3 75bd e696 d5bd
000003b0: af57 203e 2b4d 0cbb 8094 423d b240 3bbd
000003c0: d055 4fbd b15a c4bb cc4e cf3d 27ce c43d
000003d0: 9f56 fa3d 323c a0be 1fa9 303e 128e 60be
000003e0: 017f bf3d a700 193e 2c4d 81bd cb06 313d
000003f0: d7e1 7d3d 8dd3 19be 4e3a 06be e1fe 04be

a_fc1.bias f4 [64]
0.0 0.0 0.0 0.0 0.0 0.0 0.0 0.0
0.0 0.0 0.0 0.0 0.0 0.0 0.0 0.0
0.0 0.0 0.0 0.0 0.0 0.0 0.0 0.0
0.0 0.0 0.0 0.0 0.0 0.0 0.0 0.0
0.0 0.0 0.0 0.0 0.0 0.0 0.0 0.0
0.0 0.0 0.0 0.0 0.0 0.0 0.0 0.0
0.0 0.0 0.0 0.0 0.0 0.0 0.0 0.0
0.0 0.0 0.0 0.0 0.0 0.0 0.0 0.0
00000000: 0000 0000 0000 0000 0000 0000 0000 0000
00000010: 0000 0000 0000 0000 0000 0000 0000 0000
00000020: 0000 0000 0000 0000 0000 0000 0000 0000
00000030: 0000 0000 0000 0000 0000 0000 0000 0000
00000040: 0000 0000 0000 0000 0000 0000 0000 0000
00000050: 0000 0000 0000 0000 0000 0000 0000 0000
00000060: 0000 0000 0000 0000 0000 0000 0000 0000
00000070: 0000 0000 0000 0000 0000 0000 0000 0000
00000080: 0000 0000 0000 0000 0000 0000 0000 0000
00000090: 0000 0000 0000 0000 0000 0000 0000 0000
000000a0: 0000 0000 0000 0000 0000 0000 0000 0000
000000b0: 0000 0000 0000 0000 0000 0000 0000 0000
000000c0: 0000 0000 0000 0000 0000 0000 0000 0000
000000d0: 0000 0000 0000 0000 0000 0000 0000 0000
000000e0: 0000 0000 0000 0000 0000 0000 0000 0000
000000f0: 0000 0000 0000 0000 0000 0000 0000 0000

a_fc2.weight f4 [64, 64]
0.053539515 0.12339412 -0.06638384 -0.006535396 0.008003756 0.3179998 0.08988164 0.23182252
-0.2844211 -0.10515788 0.047452286 0.1297944 0.2336422 -0.18410699 -0.05649575 0.031265415
0.14508718 0.009227813 0.1376851 -0.05950992 -0.019259444 0.052860588 0.16497628 0.07808669
0.26681024 0.021427155 0.15118212 -0.09761761 -0.053549483 0.02366877 0.06524466 -0.08838146
0.021540405 -0.16273391 0.04324784 -0.18263653 -0.08569911 0.2615655 -0.18200314 0.008811144
-0.042098604 0.077279754 -0.047842298 0.116997525 -0.11580124 -0.0883057 0.020663425 0.012908297
-0.16075562 0.18373968 -0.06928451 0.086967595 -0.025457468 -0.090189524 0.20091267 -0.123412326
-0.08051517 -0.048119858 -0.02500787 0.0036155512 0.12291798 0.06716146 -0.16525671 -0.04161282
-0.15947624 -0.15549839 -0.18117005 0.04388895 0.35625824 0.07350317 0.09116104 -0.14283937
-0.13508996 -0.20087819 -0.14933507 0.13824464 -0.04845179 -0.11655826 -0.18195568 -0.02836389
-0.020289076 -0.07074153 -0.076658815 0.15466496 -0.0059394585 -0.021496823 0.10813151 -0.002489089
0.23035637 -0.10394174 -0.26786464 0.034164216 -0.1423508 0.056481477 0.03151261 0.10078589
0.027322631 -0.03642158 0.012925802 0.096791886 0.053278677 -0.124941505 0.13028753 -0.26555496
-0.052768394 0.03979439 0.029703462 -0.11105399 -0.062071897 -0.05339542 0.16186419 -0.010815042
0.10828587 -0.09346007 0.07940178 -0.20492251 -0.033032183 0.18692467 0.107234046 -0.1725981
-0.057873655 -0.10848995 -0.1290564 -0.12716179 0.09103285 0.06909487 0.10030547 -0.025258755
-0.15758637 0.15971194 0.27954137 0.19757865 0.10055922 -0.03525146 0.075751804 -0.04208451
0.018266775 -0.090610646 -0.03950673 0.19519317 0.06711145 -0.044327196 -0.11393373 -0.010156746
-0.17965792 0.035015434 0.105170965 -0.14809297 0.011191672 -0.060943034 0.023515929 -0.14171243
-0.1360203 0.13948189 0.063154906 0.16480748 0.2580999 -0.04426428 0.03126093 0.08961834
0.3033562 -0.057800412 0.014294492 0.10443733 -0.05217244 -0.1608062 0.097012185 0.10093357
-0.15489954 -0.050858617 -0.20159377 0.0017336239 0.05877287 0.022163058 -0.0031591356 -0.096170336
0.058379725 0.105883546 -0.10746551 0.008261554 -0.030750342 -0.12351291 0.23937854 -0.012983188
0.26776165 -0.23246124 -0.13182369 -0.035004888 0.08164999 -0.104746886 -0.085148215 -0.063055664
-0.1131955 -0.1295203 0.03985076 -0.006509185 0.17435482 0.023138704 0.07588542 -0.19147015
-0.08805184 -0.15314183 0.060669724 -0.10712891 0.09908029 0.039621398 -0.015092714 -0.16911407
0.013300212 -0.24144597 -0.10679807 -0.018495455 0.01128596 0.046614733 -0.012407118 0.027938396
-0.24484542 -0.1937655 -0.054505132 0.16324694 -0.15511182 0.08545097 -0.101467185 -0.02887025
-0.111478195 -0.0045816535 -0.1512796 -0.024498882 0.025580976 0.04888091 -0.10318658 0.05806247
-0.111090705 0.019367415 -0.1625775 0.17633602 0.16963276 0.08590789 0.07435448 0.15241122
-0.033671595 0.42662054 -0.02986621 0.21755297 -0.1434186 -0.090773374 -0.17050573 -0.1151197
-0.022734694 0.040010914 0.09855769 -0.0074301325 0.07911012 -0.18500976 0.12647335 -0.082303844
00000000: 404c 5b3d 0eb6 fc3d 40f4 87bd e026 d6bb
00000010: 3022 033c dfd0 a23e de13 b83d e262 6d3e
00000020: a49f 91be 045d d7bd 545d 423d d3e8 043e
00000030: e73f 6f3e 8b86 3cbe 1668 67bd 2a10 003d
00000040: bc91 143e 4130 173c 53fd 0c3e adc0 73bd
00000050: fbc5 9dbc 5884 583d 8bef 283e eaeb 9f3d
00000060: 5a9b 883e 0088 af3c 7ccf 1a3e beeb c7bd
00000070: b456 5bbd 02e5 c13c fe9e 853d 5701 b5bd
00000080: 8175 b03c b8a3 26be a624 313d 1205 3bbe
00000090: 0483 afbd eaeb 853e 085f 3abe 9e5c 103c
000000a0: 966f 2cbd d944 9e3d 49f6 43bd 669c ef3d
000000b0: 3329 edbd 9ed9 b4bd 5846 a93c 527d 533c
000000c0: 1f9d 24be 4126 3c3e 0ae5 8dbd 111c b23d
000000d0: 2e8c d0bc 49b5 b8bd 0dbc 4d3e 9abf fcbd
000000e0: 23e5 a4bd 5419 45bd 4edd ccbc e2f2 6c3b
000000f0: 6cbc fb3d f38b 893d 0e39 29be 3472 2abd
00000100: bd4d 23be f83a 1fbe a484 39be e6c4 333d
00000110: 7b67 b63e d488 963d a4b2 ba3d 7c44 12be
00000120: 0655 0abe 03b3 4dbe 4beb 18be 0190 0d3e
00000130: 6275 46bd 19b6 eebd 9752 3abe 635b e8bc
00000140: 4735 a6bc efe0 90bd 4cff 9cbd 7e60 1e3e
00000150: ca9f c2bb 1b1a b0bc 0e74 dd3d fc1f 23bb
00000160: 8ae2 6b3e 68df d4bd 8e25 89be c7ef 0b3d
00000170: 68c4 11be 1f59 673d 5e13 013d d568 ce3d
00000180: b6d3 df3c cb2e 15bd bec6 533c d33a c63d
00000190: be3a 5a3d 55e1 ffbd 186a 053e d2f6 87be
000001a0: ac23 58bd 71ff 223d ad54 f33c 4670 e3bd
000001b0: 1a3f 7ebd 28b5 5abd babf 253e 9331 31bc
000001c0: fbc4 dd3d fe67 bfbd 679d a23d 35d7 51be
000001d0: c14c 07bd 2e69 3f3e 869d db3d 8ebd 30be
000001e0: ed0c 6dbd fb2f debd 5c27 04be b336 02be
000001f0: 6e6f ba3d 9c81 8d3d f46c cd3d 73eb cebc
00000200: 525e 21be 878b 233e 0c20 8f3e 0f52 4a3e
00000210: fef1 cd3d d663 10bd c323 9b3d cf60 2cbd
00000220: 34a4 953c 1392 b9bd cfd1 21bd b8e0 473e
00000230: ba71 893d 6f90 35bd 1656 e9bd 7b68 26bc
00000240: 3ff8 37be 586c 0f3d e063 d73d afa5 17be
00000250: 465d 373c 679f 79bd 7aa4 c03c 101d 11be
00000260: e848 0bbe 57d4 0e3e 5c57 813d 4bc3 283e
00000270: ac25 843e 764e 35bd 760b 003d d289 b73d
00000280: 8151 9b3e 20c0 6cbd 7233 6a3c 3de3 d53d
00000290: c5b2 55bd 61aa 24be 53ae c63d 42b6 ce3d
000002a0: fc9d 1ebe 2051 50bd 996e 4ebe c43a e33a
000002b0: d2bb 703d 4d8f b53c 8009 4fbb f4f4 c4bd
000002c0: 941f 6f3d 79d9 d83d e116 dcbd 785b 073c
000002d0: 24e8 fbbc 56f4 fcbd a61f 753e 70b7 54bc
000002e0: 0e18 893e 520a 6ebe cafc 06be 4961 0fbd
000002f0: 1c38 a73d 8985 d6bd 3062 aebd 5423 81bd
00000300: 0bd3 e7bd f8a0 04be 8d3a 233d 004b d5bb
00000310: 128a 323e 618d bd3c d169 9b3d c010 44be
00000320: 8654 b4bd 36d1 1cbe d180 783d 6766 dbbd
00000330: 9bea ca3d 0c4a 223d 6e47 77bc 3d2c 2dbe
00000340: 22e9 593c 9d3d 77be f2b8 dabd c883 97bc
00000350: bfe8 383c 17ef 3e3d 3a47 4bbc 10df e43c
00000360: c2b8 7abe 776a 46be c640 5fbd 352a 273e
00000370: a2d5 1ebe eb00 af3d 07ce cfbd 4d81 ecbc
00000380: ae4e e4bd b221 96bb 0ae9 1abe e1b1 c8bc
00000390: 328f d13c 5937 483d 7c53 d3bd ead2 6d3d
000003a0: 8683 e3bd 6aa8 9e3c b77a 26be 6e91 343e
000003b0: 36b4 2d3e 7af0 af3d 2947 983d b011 1c3e
000003c0: 3aeb 09bd 026e da3e fba9 f4bc 35c6 5e3e
000003d0: 53dc 12be 64e7 b9bd 0e99 2ebe e1c3 ebbd
000003e0: 1c3e babc 7ce2 233d 9dd8 c93d 7878 f3bb
000003f0: 7d04 a23d 3373 3dbe 3b82 013e eb8e a8bd

a_fc2.bias f4 [64]
0.0 0.0 0.0 0.0 0.0 0.0 0.0 0.0
0.0 0.0 0.0 0.0 0.0 0.0 0.0 0.0
0.0 0.0 0.0 0.0 0.0 0.0 0.0 0.0
0.0 0.0 0.0 0.0 0.0 0.0 0.0 0.0
0.0 0.0 0.0 0.0 0.0 0.0 0.0 0.0
0.0 0.0 0.0 0.0 0.0 0.0 0.0 0.0
0.0 0.0 0.0 0.0 0.0 0.0 0.0 0.0
0.0 0.0 0.0 0.0 0.0 0.0 0.0 0.0
00000000: 0000 0000 0000 0000 0000 0000 0000 0000
00000010: 0000 0000 0000 0000 0000 0000 0000 0000
00000020: 0000 0000 0000 0000 0000 0000 0000 0000
00000030: 0000 0000 0000 0000 0000 0000 0000 0000
00000040: 0000 0000 0000 0000 0000 0000 0000 0000
00000050: 0000 0000 0000 0000 0000 0000 0000 0000
00000060: 0000 0000 0000 0000 0000 0000 0000 0000
00000070: 0000 0000 0000 0000 0000 0000 0000 0000
00000080: 0000 0000 0000 0000 0000 0000 0000 0000
00000090: 0000 0000 0000 0000 0000 0000 0000 0000
000000a0: 0000 0000 0000 0000 0000 0000 0000 0000
000000b0: 0000 0000 0000 0000 0000 0000 0000 0000
000000c0: 0000 0000 0000 0000 0000 0000 0000 0000
000000d0: 0000 0000 0000 0000 0000 0000 0000 0000
000000e0: 0000 0000 0000 0000 0000 0000 0000 0000
000000f0: 0000 0000 0000 0000 0000 0000 0000 0000

a_fc3.weight f4 [3, 64]
-7.264614e-06 0.0010599717 -0.0008933343 0.0011079652 -0.0010390069 0.00047611675 0.00092457567 -0.0007761901
0.00028360053 0.0014489092 8.658829e-05 0.0009803063 -0.0006093629 5.957729e-05 0.002361051 0.000752899
-0.002029932 0.0011248869 -0.00052371435 -0.000610964 0.00028672253 -2.038335e-06 0.00061396894 0.0010567891
0.00072357786 -0.00076728594 -0.0005035168 0.002267057 -0.0010515589 -0.0016155466 0.0032136042 0.0011735345
0.00066158944 0.0016881622 0.0015209937 0.00063710456 -0.0014174102 0.0002392822 6.96348e-05 0.00054475234
0.002815899 0.000539376 0.0012751551 0.00049359194 0.00092274696 4.3733253e-06 0.00089836976 -0.00042011973
-0.000104679064 0.0014781527 0.002752404 0.00048494383 0.0006829804 -0.0014013323 -0.0014069075 -0.00052543357
0.0008478974 -1.0388521e-05 0.0022856072 0.0029908137 -0.0008639004 -0.001243546 -0.0013292246 -0.0009735489
-0.0010021619 0.0004679053 -0.00039032503 -0.0002512222 -0.0003865683 0.0019860936 8.8260145e-05 -0.00046018258
0.002766223 0.0007054745 0.0014640316 0.0002807223 0.0007835906 0.0026009372 0.00017976908 0.00074531324
0.0003388214 -0.00022792029 0.0014922854 -0.00016931091 -0.0029704229 -0.0022180541 0.0017713602 0.00012821947
0.0007020467 -0.00048827534 -0.0024852701 0.0007301971 0.00088980194 0.0011395824 0.00049458415 -0.0008223481
0.00018597362 0.00062132353 0.0006514902 -0.00070396904 0.0001307885 -0.0005523363 -0.0006721524 0.0014907368
-0.001195128 0.0014172058 -0.0014517474 -0.00040360945 -0.00056233106 0.00080912537 -0.0006805241 -0.0005417245
-0.0027353556 -0.00036947808 -0.00093667116 -0.0005281893 0.0010933946 0.000999967 -0.00071161456 0.0010317375
-0.0021159104 0.00016446307 0.0013531558 0.0007748894 -0.0009851833 0.003265494 0.00072128605 -0.0016535644
-7.250268e-05 -0.0004971863 0.0005735991 -0.0014645683 -0.001123061 0.0006278805 -0.0014798519 -0.0021927904
-0.0012057285 -0.000711161 -0.0007277839 5.2871368e-05 -0.00020415096 -0.0007517702 -0.0013997176 0.0007265517
0.0007247788 -0.000107402244 -0.0010934179 -0.00027454423 0.002061962 -0.0012001068 0.00029653325 0.0005168042
-0.0016641513 -0.0007885789 -0.0013054191 -9.443849e-05 -0.0035963894 0.00083651085 -0.0016211984 0.0011609246
0.0013142352 -0.00031979635 0.00081500626 -0.0019420037 -0.0007340734 0.0007476262 -0.0015413366 -0.00026784523
0.00084505684 0.0027433413 -0.0026825513 0.00044383793 0.0009568883 -0.0015470928 0.00085706514 -0.00036543907
-0.0011285591 -0.00074245024 -0.00046569298 -0.002223363 -0.0011897226 -0.00019739439 -0.0008558282 -0.0011276692
0.0009360591 8.4889994e-05 0.0027147927 -0.00033553716 -0.0010137159 0.00010835353 0.00060788105 0.0016204183
00000000: 8fc2 f3b6 c0ee 8a3a a62e 6aba 2539 913a
00000010: 492f 88ba 4f9f f939 395f 723a 3c79 4bba
00000020: 38b0 9439 53e9 bd3a bc96 b538 9f7d 803a
00000030: a7bd 1fba a1e2 7938 ddbb 1a3b 325e 453a
00000040: 9c08 05bb f170 933a e049 09ba 1a29 20ba
00000050: 3f53 9639 54ca 08b6 c2f2 203a f583 8a3a
00000060: 7dae 3d3a b023 49ba 71fe 03ba e892 143b
00000070: 76d4 89ba c0c0 d3ba 559b 523b 49d1 993a
00000080: 846e 2d3a 5345 dd3a 145c c73a 5d03 273a
00000090: 65c8 b9ba d4e7 7a39 e608 9238 b6cd 0e3a
000000a0: f28a 383b e964 0d3a 1b23 a73a 6564 013a
000000b0: 80e4 713a 94be 9236 9380 6b3a 8443 dcb9
000000c0: 2587 dbb8 93be c13a ad61 343b 0f40 fe39
000000d0: 0a0a 333a e9ac b7ba fb67 b8ba 40bd 09ba
000000e0: 6e45 5e3a 5c4a 2eb7 20ca 153b 8701 443b
000000f0: 6077 62ba 7bfe a2ba 6039 aeba c335 7fba
00000100: f95a 83ba 3051 f539 8aa4 ccb9 79b6 83b9
00000110: 52ac cab9 1f29 023b 4e18 b938 a944 f1b9
00000120: 8549 353b 98ef 383a c0e4 bf3a e92d 9339
00000130: e069 4d3a 7c74 2a3b 6580 3c39 2061 433a
00000140: d7a3 b139 e3fd 6eb9 ca98 c33a 0d89 31b9
00000150: 6dab 42bb c65c 11bb fc2c e83a a772 0639
00000160: 8e09 383a 35ff ffb9 eadf 22bb b36a 3f3a
00000170: 9941 693a 0a5e 953a fba6 013a d992 57ba
00000180: ea01 4339 51e0 223a c4c8 2a3a 908a 38ba
00000190: 4524 0939 a9ca 10ba 6233 30ba d464 c33a
000001a0: d7a5 9cba 89c1 b93a 8f48 beba 8b9b d3b9
000001b0: 6669 13ba 7c1b 543a 3365 32ba 8402 0eba
000001c0: a743 33bb 82b6 c1b9 f08a 75ba 2f76 0aba
000001d0: 3c50 8f3a 5311 833a a58b 3aba 5e3b 873a
000001e0: 16ab 0abb b873 2c39 605c b13a f321 4b3a
000001f0: 4421 81ba e601 563b b014 3d3a 6abc d8ba
00000200: 940c 98b8 9c55 02ba 965d 163a c2f6 bfba
00000210: ad33 93ba 5998 243a 97f7 c1ba ebb4 0fbb
00000220: 8909 9eba 356d 3aba c0c8 3eba 33c2 5d38
00000230: 5b11 56b9 7212 45ba bb76 b7ba 0f76 3e3a
00000240: 15ff 3d3a 243d e1b8 0451 8fba b4f0 8fb9
00000250: fb21 073b e74c 9dba 0578 9b39 257a 073a
00000260: a71f daba a2b8 4eba 991a abba 470d c6b8
00000270: 67b1 6bbb 4b49 5b3a 647e d4ba 2a2a 983a
00000280: 6a42 ac3a 57aa a7b9 25a6 553a d58a feba
00000290: d56e 40ba 58fc 433a ad06 caba 946d 8cb9
000002a0: ce86 5d3a a1c9 333b becd 2fbb ebb2 e839
000002b0: b0d7 7a3a d2c7 caba abac 603a 6798 bfb9
000002c0: 29ec 93ba fea0 42ba 4128 f4b9 d7b5 11bb
000002d0: 77f0 9bba a7fb 4eb9 a959 60ba 4dce 93ba
000002e0: dd61 753a f806 b238 aaea 313b 09eb afb9
000002f0: a9de 84ba dc3b e338 355a 1f3a 3764 d43a

a_fc3.bias f4 [3]
0.0 0.0 0.0
00000000: 0000 0000 0000 0000 0000 0000

c_fc1.weight f4 [64, 11]
0.13878359 -0.35405925 -0.25223455 -0.26176107 0.15937106 0.16151884 0.15562025 0.03760787
-0.2095062 -0.083998725 0.17193332 0.20009728 -0.023252783 -0.15922762 -0.17251988 -0.21388565
-0.0361456 -0.17610255 -0.066927254 -0.013377385 0.12739918 -0.07462941 -0.35211378 0.16231035
0.29887632 0.05860453 0.08979554 -0.017084828 0.11540716 -0.1662758 0.021783099 0.202036
-0.14259686 0.10026093 -0.21715392 -0.2897514 -0.060405225 -0.2586563 0.28739727 -0.030235857
-0.17282972 -0.12900999 -0.18805367 0.044866826 -0.15425967 -0.10090122 0.2941937 0.09064332
0.056634407 0.03538233 0.12086754 0.12913199 0.17095019 0.1214006 0.0068781003 0.08236472
-0.1666122 -0.07346231 -0.07052024 -0.098529465 -0.0055136452 -0.22225526 -0.117508344 -0.14927855
-0.18592016 0.0979349 -0.25888056 0.18575725 -0.035433263 0.058978256 0.13646856 0.043887846
-0.08599042 0.13993107 0.13869207 0.19566935 -0.15175633 0.14699863 -0.20517923 -0.093916886
0.00065639644 -0.12978783 0.00040629072 -0.28301978 -0.18304417 -0.26868093 -0.10046594 0.10642789
-0.09206185 -0.05093593 0.288714 0.3779195 0.28298014 -0.043826364 0.29626644 -0.08558666
0.28542903 0.10911403 0.056560747 -0.3444901 -0.08143458 0.27269885 -0.16781272 0.1715085
-0.1422601 0.0994189 -0.054872576 0.037461374 0.0920246 0.00015717503 -0.18344887 0.18960577
0.07385947 0.13709675 0.076419026 0.029550461 0.088844076 -0.058258645 0.16540223 -0.028002333
-0.12809223 -0.24953648 0.29329482 -0.07070498 0.19850552 0.07909039 -0.2617471 0.17881046
0.14287607 0.03170923 0.09064136 -0.08594205 0.10147096 -0.19757433 -0.22233592 0.05026029
0.004413276 0.118354045 -0.23041531 -0.25513777 -0.22027567 -0.09505491 -0.18205021 0.16517034
-0.00031895464 -0.1804896 -0.104614995 -0.08498424 0.09664246 -0.010305068 -0.083929054 -0.424297
-0.17269807 0.006242404 -0.22389811 0.082968764 0.081299 0.30436674 0.06301432 -0.15563606
0.09543746 0.20145711 0.28600115 0.017754288 -0.20203596 0.26000786 -0.06550344 -0.34256902
-0.32057264 0.08170479 0.0025071783 -0.22026148 -0.05202893 -0.15384153 -0.06634856 0.21446669
0.20155871 -0.39820227 -0.025806872 -0.102123074 -0.1917265 -0.0076442133 -0.2330831 -0.07371503
-0.087150395 -0.0367224 0.028698018 0.31490773 -0.05765175 -0.029174197 -0.05615882 -0.20844528
0.3147938 -0.19526128 -0.018823238 -0.28370914 0.18084073 0.006595346 0.3319178 -0.19583994
-0.18486597 -0.14400975 -0.050698146 0.04154695 -0.31527513 -0.1686137 -0.31474724 -0.2022295
0.007847256 -0.09372941 0.18502165 0.11661102 0.035270482 0.019426884 -0.2570274 0.2941347
0.18112074 0.19543491 0.11376454 0.11722028 0.1298364 -0.31751686 -0.25004515 -0.24118398
-0.08981872 0.12455137 -0.2090271 -0.20713596 -0.07235208 -0.033197675 0.288988 0.20810288
-0.117427565 -0.038886882 -0.25661016 0.00879904 0.2580707 -0.05847275 -0.043503825 -0.042563412
-0.13435386 -0.013848318 0.15290494 -0.29680428 -0.23175128 -0.18792318 -0.19467896 0.21419185
-0.044568893 -0.29950136 0.05065781 -0.098273315 -0.04936393 -0.22902758 0.27732787 0.0022506646
00000000: 491d 0e3e 4147 b5be e324 81be 8c05 86be
00000010: 2b32 233e 3265 253e ea5a 1f3e b60a 1a3d
00000020: cb88 56be 8607 acbd 4a0f 303e 4de6 4c3e
00000030: 9f7c bebc 910c 23be 0da9 30be d704 5bbe
00000040: 690d 14bd 3a54 34be 2811 89bd d22c 5bbc
00000050: ee74 023e 4ed7 98bd 4248 b4be af34 263e
00000060: 5106 993e 4e0b 703d b9e6 b73d 7bf5 8bbc
00000070: 975a ec3d 3444 2abe 7872 b23c 86e2 4e3e
00000080: e904 12be 9a55 cd3d 995d 5ebe 4c5a 94be
00000090: 786b 77bd 996e 84be bc25 933e 30b1 f7bc
000000a0: 46fa 30be 321b 04be 2491 40be 47c6 373d
000000b0: 3ff6 1dbe 4da5 cebd 8fa0 963e 34a3 b93d
000000c0: 7bf9 673d 10ed 103d 6789 f73d 2d3b 043e
000000d0: 910d 2f3e e1a0 f83d b061 e13b d6ae a83d
000000e0: 639c 2abe 6873 96bd ea6c 90bd d1c9 c9bd
000000f0: cfab b4bb e296 63be 37a8 f0bd 7adc 18be
00000100: db61 3ebe 1892 c83d fe8b 84be 2637 3e3e
00000110: 7822 11bd 2f93 713d 6abe 0b3e bec3 333d
00000120: bf1b b0bd 174a 0f3e 4b05 0e3e 8c5d 483e
00000130: 0366 1bbe cf86 163e 811a 52be 7f57 c0bd
00000140: 0512 2c3a 1ae7 04be 6b03 d539 f8e7 90be
00000150: ee6f 3bbe 8c90 89be 16c1 cdbd def6 d93d
00000160: ec8a bcbd 32a2 50bd 52d2 933e aa7e c13e
00000170: c6e2 903e 4683 33bd 3cb0 973e 0f48 afbd
00000180: c123 923e 2d77 df3d 3eac 673d 0261 b0be
00000190: 2cc7 a6bd 2f9f 8b3e 19d7 2bbe ed9f 2f3e
000001a0: a2ac 11be 239c cb3d 11c2 60bd 1971 193d
000001b0: 6577 bc3d 5acf 2439 05da 3bbe 0428 423e
000001c0: a243 973d 1763 0c3e 9481 9c3d cf13 f23c
000001d0: e2f3 b53d 9ea0 6ebd 345f 293e 2665 e5bc
000001e0: 9c2a 03be 7e86 7fbe bd2a 963e c6cd 90bd
000001f0: 0845 4b3e 24fa a13d b703 86be 171a 373e
00000200: 1b4e 123e 8ae1 013d 2da2 b93d 6302 b0bd
00000210: 02d0 cf3d ed50 4abe 07ac 63be bcdd 4d3d
00000220: 3e9d 903b 9b63 f23d fef1 6bbe 6ba1 82be
00000230: f28f 61be 26ac c2bd 5f6b 3abe 6a22 293e
00000240: 5e39 a7b9 44d2 38be 6340 d6bd 380c aebd
00000250: 7bec c53d 97d6 28bc ffe2 abbd 753d d9be
00000260: c3d7 30be 158d cc3b 8c45 65be 87eb a93d
00000270: 1780 a63d f5d5 9b3e a70d 813d 0f5f 1fbe
00000280: b774 c33d c64a 4e3e be6e 923e 7171 913c
00000290: 84e2 4ebe c01f 853e ab26 86bd 3565 afbe
000002a0: 1922 a4be d754 a73d 794f 243b 3a8c 61be
000002b0: 4a1c 55bd a288 1dbe c1e1 87bd 289d 5b3e
000002c0: 6865 4e3e 2be1 cbbe ef68 d3bc e725 d1bd
000002d0: f453 44be 4f7c fabb 56ad 6ebe e8f7 96bd
000002e0: e87b b2bd 3a6a 16bd 1b18 eb3c 963b a13e
000002f0: 3e24 6cbd bafe eebc ca06 66bd ae72 55be
00000300: a72c a13e 93f2 47be 3133 9abc 5342 91be
00000310: 502e 393e c61d d83b 21f1 a93e 448a 48be
00000320: 814d 3dbe 4b77 13be dca8 4fbd 222d 2a3d
00000330: be6b a1be 12a9 2cbe 8d26 a1be 4015 4fbe
00000340: c791 003c 34f5 bfbd 5176 3d3e c2d1 ee3d
00000350: c877 103d 2125 9f3c 1899 83be d398 963e
00000360: b777 393e 1720 483e 62fd e83d 3011 f03d
00000370: d5f3 043e 9291 a2be eb05 80be eff8 76be
00000380: e1f2 b7bd ca14 ff3d 330b 56be 731b 54be
00000390: 542d 94bd 49fa 07bd 3cf6 933e ec18 553e
000003a0: dd7d f0bd da47 1fbd 6862 83be d929 103c
000003b0: d821 843e 1f81 6fbd 1131 32bd f956 2ebd
000003c0: 0f94 09be 0ee4 62bc 1d93 1c3e bbf6 97be
000003d0: 3550 6dbe ef6e 40be ec59 47be 1c55 5b3e
000003e0: df8d 36bd 3e58 99be 907e 4f3d 8543 c9bd
000003f0: d531 4abd 3586 6abe ebfd 8d3e e37f 133b

c_fc1.bias f4 [64]
0.115925476 0.110629894 -0.10621585 0.1404036 -0.11578522 0.086336754 -0.09864292 0.1413065
-0.12235579 -0.090274386 -0.13947983 -0.092175186 0.09506356 0.18582477 -0.116167925 0.10149537
0.1618472 0.08986519 0.110179424 -0.11825559 0.12872732 0.11540406 0.09959495 -0.1376275
0.12762785 0.09030659 0.12509836 0.12935482 0.10945102 0.004187966 -0.1213885 0.112442724
-0.2134073 -0.11719809 -0.0856505 -0.12875582 0.10444538 0.10553331 -0.10225096 0.124353535
0.119243935 0.11424507 -0.12227302 -0.14034072 -0.12200555 -0.12302766 -0.12618347 0.119069435
0.038091853 -0.08529121 0.13365637 0.089171305 -0.06136326 -0.038062137 -0.12221924 0.0601895
0.12248937 0.14357804 -0.10617781 -0.10551671 0.12102299 0.02331654 -0.031049153 -0.11687385
00000000: 566a ed3d ed91 e23d b287 d9bd f6c5 0f3e
00000010: cd20 edbd 53d1 b03d 4d05 cabd a7b2 103e
00000020: ac95 fabd c7e1 b8bd cdd3 0ebe 58c6 bcbd
00000030: afb0 c23d d948 3e3e 73e9 edbd cedc cf3d
00000040: 46bb 253e 3e0b b83d c0a5 e13d fd2f f2bd
00000050: 18d1 033e f758 ec3d 70f8 cb3d 39ee 0cbe
00000060: e0b0 023e a9f2 b83d c919 003e 9775 043e
00000070: db27 e03d 353b 893b 899a f8bd 5f48 e63d
00000080: 7187 5abe 8d05 f0bd 8869 afbd 91d8 03be
00000090: 76e7 d53d d921 d83d f468 d1bd 11ad fe3d
000000a0: 2a36 f43d 52f9 e93d 476a fabd 7ab5 0fbe
000000b0: 0cde f9bd edf5 fbbd 3d36 01be adda f33d
000000c0: 3406 1c3d 28ad aebd 37dd 083e 729f b63d
000000d0: 0b58 7bbd 0be7 1bbd 154e fabd 4489 763d
000000e0: b5db fa3d 1f06 133e c073 d9bd 2519 d8bd
000000f0: e7da f73d 5402 bf3c cb5a febc 8f5b efbd

c_fc2.weight f4 [64, 64]
-0.21385652 -0.28364366 0.19976254 -0.07798735 0.09137459 -0.1033777 0.017471317 -0.31538
-0.08645263 0.16625935 0.3852145 0.037711304 -0.2614388 -0.09440533 0.14020602 -0.027201375
-0.20692196 0.055792768 0.07893478 0.23805803 -0.21806833 -0.1322373 -0.13376391 0.06294773
-0.016340328 -0.16162632 -0.15130904 -0.22040957 0.10766031 0.011204084 0.14424545 -0.04087183
0.2983247 0.26337466 -0.08061557 0.1344785 -0.13243514 -0.33006233 -0.028669233 -0.196096
-0.07188175 -0.1678196 0.09186482 0.059363168 0.21000469 0.14920561 0.26532018 -0.28323752
0.18095143 0.2297174 -0.35213348 -0.07949807 -0.12820889 -0.32407966 0.043010045 -0.23626444
-0.035953484 -0.012963834 0.018046614 0.25514352 -0.058995117 -0.04076518 -0.2619127 0.09146506
0.030072035 -0.015352498 0.01494578 -0.25768384 0.255513 -0.070904985 0.17368732 -0.1279367
0.26184133 0.055078976 0.19949181 0.022725075 -0.23340487 -0.01756004 0.19970241 -0.24106361
-0.10012139 -0.1879574 -0.28115764 0.38684058 -0.2480623 -0.3412687 -0.07831746 0.059289128
0.10864554 -0.03727982 -0.013826942 -0.25745568 0.05316327 -0.086588606 0.18325658 -0.03050401
0.27066585 0.19331372 0.123715974 0.38939577 -0.02113714 -0.3789701 0.09295982 -0.006719887
-0.29651758 -0.11860839 0.34318003 0.19333012 0.06361806 0.17016707 0.057217434 -0.1677554
-0.06215335 0.076725215 -0.0045399484 -0.0806924 -0.27107158 -0.077162765 -0.00875292 -0.15075529
-0.41704825 -0.2449771 0.12776875 0.073612764 -0.08247476 0.049242623 0.07018312 0.111445144
-0.06794115 0.11900964 -0.14958578 -0.08203198 -0.18586746 0.09383787 -0.040798843 0.26523757
-0.1123161 -0.14247935 -0.3005146 -0.10479458 0.36650124 0.28279126 -0.18220429 0.17879757
0.21317677 0.17871737 0.010650905 -0.057358436 0.12280253 0.13367957 0.3461027 -0.30773637
0.07980868 0.25205332 -0.038102303 0.0985093 0.259821 -0.11783627 -0.13194278 0.13247511
-0.24626443 -0.12649557 -0.056630675 0.0329376 -6.9150716e-05 0.12642838 -0.30538473 0.064906254
0.19581653 0.12057502 0.011551862 -0.33666936 -0.23724099 0.14290991 0.18403469 0.15695764
0.15864971 -0.21940495 0.24040315 0.20739399 -0.1859965 0.19604795 -0.10789762 0.033518758
0.35245144 0.20867586 -0.08129445 0.0065828627 -0.14273565 -0.12550157 -0.09981022 -0.31745544
0.19321376 0.18763854 -0.17032087 0.111505106 -0.1255311 0.20369041 0.010240944 0.021737102
-0.18823785 0.0010232371 -0.12417508 -0.14064951 0.04956213 0.4171997 0.08865174 0.17864494
0.22587895 -0.053057894 0.10412982 -0.12994736 0.10176602 0.07402662 0.17646104 -0.1592166
0.06507501 0.16345009 0.21191196 0.11173618 0.22688153 -0.010270015 -0.29647806 0.014760896
-0.23682891 -0.1629708 0.1784485 -0.14979912 0.19269082 0.18667234 0.034869146 0.25367695
0.25057244 -0.023295768 -0.055651274 -0.40783086 -0.3192272 -0.039604276 -0.28674236 0.27162856
-0.06782328 0.18784638 0.13648933 0.04213329 0.09606197 -0.009932762 0.1509382 0.094795525
0.18031494 0.13322836 -0.112349294 -0.11243749 -0.17548805 -0.10803307 -0.2540373 -0.090785414
00000000: 34fd 5abe be39 91be 8d8e 4c3e d5b7 9fbd
00000010: 9a22 bb3d b0b7 d3bd 0220 8f3c 7d79 a1be
00000020: 140e b1bd e43f 2a3e d63a c53e 2b77 1a3d
00000030: 4edb 85be 9557 c1bd 2b92 0f3e 6bd5 debc
00000040: 5ae3 53be f586 643d 8fa8 a13d 7cc5 733e
00000050: 4e4d 5fbe 3769 07be 68f9 08be bdea 803d
00000060: 27dc 85bc 5f81 25be c2f0 1abe 0cb3 61be
00000070: 027d dc3d 5691 373c 14b5 133e 3869 27bd
00000080: 04be 983e 0bd9 863e c719 a5bd bbb4 093e
00000090: 149d 07be eefd a8be bddb eabc 64cd 48be
000000a0: bd36 93bd e7d8 2bbe 9f23 bc3d cb26 733d
000000b0: 780b 573e 5bc9 183e 0cd8 873e 8204 91be
000000c0: 554b 393e 0a3b 6b3e d74a b4be e2cf a2bd
000000d0: 3149 03be c5ed a5be 4d2b 303d 4eef 71be
000000e0: f643 13bd 4366 54bc 7ed6 933c 2ca2 823e
000000f0: dda4 71bd 64f9 26bd 6c19 86be 0952 bb3d
00000100: a159 f63c 0b89 7bbc 25df 743c 23ef 83be
00000110: 9ad2 823e a236 91bd 17db 313e d701 03be
00000120: 1110 863e 7e9a 613d 9547 4c3e f029 ba3c
00000130: b001 6fbe 13da 8fbc ca7e 4c3e 61d9 76be
00000140: 710c cdbd e877 40be e5f3 8fbe f80f c63e
00000150: 0b04 7ebe c5ba aebe e864 a0bd 28d9 723d
00000160: 8e81 de3d b9b2 18bd 668a 62bc 3bd1 83be
00000170: bbc1 593d 5e55 b1bd 9da7 3b3e 8ce3 f9bc
00000180: b794 8a3e 08f4 453e cd5e fd3d e25e c73e
00000190: cc27 adbc 5e08 c2be b861 be3d 7f32 dcbb
000001a0: 27d1 97be f5e8 f2bd 4bb5 af3e 55f8 453e
000001b0: 2f4a 823d 4740 2e3e d45c 6a3d 12c8 2bbe
000001c0: 8394 7ebd 1c22 9d3d d9c3 94bb 0f42 a5bd
000001d0: e5c9 8abe 8307 9ebd 6868 0fbc 985f 1abe
000001e0: 5987 d5be 47db 7abe d0d5 023e 4ac2 963d
000001f0: 87e8 a8bd a2b2 493d 2bbc 8f3d 5a3d e43d
00000200: bb24 8bbd 53bb f33d 042d 19be 6200 a8bd
00000210: 0a54 3ebe 122e c03d b01c 27bd 38cd 873e
00000220: fc05 e6bd 1be6 11be 0ddd 99be 8a9e d6bd
00000230: 0da6 bb3e 04ca 903e c393 3abe b616 373e
00000240: 034b 5a3e b001 373e 2281 2e3c aef0 6abd
00000250: e57f fb3d 4ce3 083e 6034 b13e 9f8f 9dbe
00000260: bc72 a33d 220d 813e 2911 1cbd 3ebf c93d
00000270: 4207 853e 2454 f1bd 021c 07be 8ea7 073e
00000280: be2c 7cbe 0e88 01be 91f5 67bd 94e9 063d
00000290: 0205 91b8 7176 013e 635b 9cbe 92ed 843d
000002a0: 2184 483e 09f0 f63d 0544 3d3c ed5f acbe
000002b0: 4def 72be fa56 123e 9773 3c3e 81b9 203e
000002c0: 1275 223e b1ab 60be 3e2c 763e 175f 543e
000002d0: de75 3ebe cbc0 483e 6df9 dcbd f74a 093d
000002e0: 8474 b43e 20af 553e b47d a6bd 0eb5 d73b
000002f0: 4b29 12be 7c83 00be 4d69 ccbd 8589 a2be
00000300: d4d9 453e 5124 403e 9868 2ebe ca5c e43d
00000310: 3a8b 00be 3894 503e a2c9 273c 0212 b23c
00000320: 6cc1 40be 241e 863a 814f febd 6d06 10be
00000330: a901 4b3d 339b d53e 0b8f b53d b3ee 363e
00000340: d04c 673e 3c53 59bd 0442 d53d ec10 05be
00000350: b46a d03d 459b 973d 34b2 343e ad09 23be
00000360: 0c46 853d 765f 273e 73ff 583e f0d5 e43d
00000370: a253 683e 9143 28bc f9cb 97be afd7 713c
00000380: 4783 72be d1e1 26be 34bb 363e f164 19be
00000390: be50 453e 0927 3f3e f3d2 0e3d f2e1 813e
000003a0: 084b 803e c4d6 bebc 97f2 63bd 35cf d0be
000003b0: bf71 a3be 1838 22bd e5cf 92be e612 8b3e
000003c0: efe6 8abd cd5a 403e dcc3 0b3e f593 2c3d
000003d0: 23bc c43d 06bd 22bc 8b8f 1a3e 2824 c23d
000003e0: 7ba4 383e 046d 083e 6317 e6bd a045 e6bd
000003f0: 24b3 33be 7140 ddbd 2d11 82be b4ed b9bd

c_fc2.bias f4 [64]
-0.068962716 -0.08814446 0.07158646 0.094833985 -0.10211101 0.071921356 -0.08776668 -0.07398431
-0.10478976 -0.07901641 0.09905369 0.078135245 -0.09250167 0.08895508 -0.101597205 -0.07324568
-0.075118154 -0.09322628 -0.07669087 -0.09295545 0.09242771 -0.07206295 0.087980926 0.06575266
-0.10078295 -0.06659148 0.08473275 -0.08603127 0.08393358 0.073784806 0.09844116 -0.06849167
-0.08023948 -0.08325149 0.08404404 -0.07960383 0.09763983 0.083319396 -0.09804481 0.07999093
0.097617194 0.100906804 0.08303228 -0.10468264 0.089562304 0.09603717 -0.10508362 0.07846008
-0.10290874 0.0943086 0.09706135 0.09620912 -0.07860544 0.08884405 0.08756633 0.10196544
0.074773476 -0.07467982 -0.06414799 -0.059023153 -0.088173434 0.07737445 -0.0810793 0.08772767
00000000: 533c 8dbd 1585 b4bd ec9b 923d 5238 c23d
00000010: 941f d1bd 814b 933d 04bf b3bd 1685 97bd
00000020: 049c d6bd 5bd3 a1bd a9dc ca3d 5f05 a03d
00000030: 8471 bdbd 152e b63d 3212 d0bd d501 96bd
00000040: 8cd7 99bd 6bed bebd 1a10 9dbd 6d5f bebd
00000050: bd4a bd3d bd95 93bd 582f b43d 55a9 863d
00000060: 4b67 cebd 1d61 88bd 5d88 ad3d 2a31 b0bd
00000070: 5ee5 ab3d 7d1c 973d 859b c93d 5c45 8cbd
00000080: 9954 a4bd c27f aabd 481f ac3d 5507 a3bd
00000090: 64f7 c73d 5ca3 aa3d b8cb c8bd 49d2 a33d
000000a0: 86eb c73d 3aa8 ce3d d40c aa3d da63 d6bd
000000b0: 716c b73d 23af c43d 1536 d7bd aeaf a03d
000000c0: d1c1 d2bd de24 c13d 1ac8 c63d 4909 c53d
000000d0: e4fb a0bd dff3 b53d fa55 b33d 42d3 d03d
000000e0: d622 993d bcf1 98bd 0560 83bd 43c2 71bd
000000f0: 4694 b4bd 7f76 9e3d e70c a6bd 91aa b33d

c_fc3.weight f4 [1, 64]
-1.6239696 -1.5275369 1.5631988 1.6873521 -1.5700227 1.5842038 -1.6062553 -1.6818243
-1.5920819 -1.6712886 1.5492445 1.6131871 -1.6002446 1.5527277 -1.561671 -1.6339253
-1.6289562 -1.5509818 -1.583331 -1.606534 1.5996542 -1.65291 1.5325729 1.5708252
-1.5542711 -1.698052 1.7056607 -1.7021459 1.5517173 1.7928066 1.5906954 -1.6233119
-1.6493586 -1.7032676 1.5581921 -1.7262594 1.5814915 1.6914374 -1.6429323 1.6981062
1.535015 1.554844 1.5418228 -1.5557543 1.610872 1.6106651 -1.5950131 1.6168107
-1.5613048 1.6032428 1.5571134 1.569217 -1.7591765 1.6387875 1.6474445 1.5638041
1.7246714 -1.584052 -1.7329541 -1.8406817 -1.7805531 1.7298151 -1.7090946 1.5389922
00000000: 3cde cfbf 5486 c3bf e616 c83f 27fb d73f
00000010: 81f6 c8bf 31c7 ca3f c699 cdbf 0546 d7bf
00000020: 57c9 cbbf c9ec d5bf a54d c63f ea7c ce3f
00000030: d1d4 ccbf c8bf c63f d6e4 c7bf 7724 d1bf
00000040: a381 d0bf 9286 c6bf 97aa cabf e8a2 cdbf
00000050: 78c1 cc3f 8e92 d3bf 592b c43f cd10 c93f
00000060: 5bf2 c6bf c559 d9bf 1753 da3f ebdf d9bf
00000070: ac9e c63f b07a e53f e89b cb3f afc8 cfbf
00000080: 2f1e d3bf ac04 dabf d772 c73f 11f6 dcbf
00000090: 506e ca3f 0581 d83f 9b4b d2bf 8b5b d93f
000000a0: 5f7b c43f 2105 c73f 735a c53f f522 c7bf
000000b0: 0e31 ce3f 462a ce3f 6429 ccbf a7f3 ce3f
000000c0: d6d8 c7bf 0f37 cd3f 7e4f c73f 1adc c83f
000000d0: b22c e1bf cac3 d13f 76df d23f bc2a c83f
000000e0: 08c2 dc3f 37c2 cabf 71d1 ddbf 759b ebbf
000000f0: 2ae9 e3bf 956a dd3f 9dc3 dabf b2fd c43f
