PPO/model/ppo_299.pth (torch_old, 42209 bytes, 12 tensors)

a_logstd f4 [1, 3]
0	0xbf16b1e4	-0.5886519
1	0xbf16aea8	-0.58860254
2	0xbf15650f	-0.5835733

a_fc1.weight f4 [64, 11]
0	0x3e179108	0.14801419
1	0x3e3952ae	0.18097946
2	0x3e06ca23	0.13163047
3	0xbd5b1a31	-0.053491775
4	0x3e6e5d01	0.23277666
5	0xbd2a9691	-0.041647498
6	0x3cb84558	0.022494003
7	0x3c95064f	0.018191485
8	0x3dce4a39	0.100727506
9	0x3d320da5	0.043470044
10	0xbc7a032a	-0.015259543
11	0x3c23c050	0.009994581
12	0xbd5f8903	-0.054574024
13	0x3df4d4d0	0.11954653
14	0xbdc9c46c	-0.098519176
15	0xbdc0e857	-0.09419315
16	0x3e0aca38	0.13553703
17	0xbdf6be2a	-0.1204799
18	0xbdac8b0f	-0.08424961
19	0x3dcb56f7	0.099286966
20	0xbe1197b5	-0.14218028
21	0xbe3e3fb0	-0.18578982
22	0xbe2d76bf	-0.1693983
23	0xbe8fb139	-0.28064898
24	0xbd7c0094	-0.06152399
25	0x3e745ed5	0.238643
26	0xbe52bacf	-0.20579074
27	0x3d4f92ad	0.05067699
28	0xbd6eddb3	-0.058316898
29	0xbe209fee	-0.15686008
30	0xbe0e04b8	-0.13868988
31	0x3c894aad	0.016759241
32	0x3d58d517	0.052937593
33	0x3eaaa43f	0.33328435
34	0xbdef3dfd	-0.11681745
35	0x3d285d26	0.04110446
36	0xbdfa13c4	-0.12210801
37	0xbdb79c34	-0.0896534
38	0xbe1ea57e	-0.15492818
39	0xbd9bb352	-0.07602562
40	0x3dd788a0	0.10524106
41	0x3e06af52	0.13152817
42	0xbcc9f2a1	-0.024651827
43	0xbd6552db	-0.05598722
44	0xbe45a64e	-0.19301721
45	0x3d821faf	0.063536994
46	0xbd5f4d34	-0.054516986
47	0x3e73f58e	0.2382414
48	0xbd83cfec	-0.06436142
49	0xbd94d2d9	-0.072667785
50	0xbd85e502	-0.065378204
51	0x3e784a25	0.24247034
52	0xbe482cc4	-0.19548327
53	0xbd5f815f	-0.054566737
54	0x3db16627	0.08662062
55	0x3e1bab5e	0.1520209
56	0xbcb80cd6	-0.022467058
57	0xbc047b2d	-0.008086008
58	0xbdd7a334	-0.105291754
59	0xbcee2b46	-0.029073369
60	0xbe96354d	-0.2933754
61	0xbe1cfedb	-0.15331595
62	0x3ec46e4c	0.383654
63	0xbb9a0a19	-0.0047009108
64	0xbd25d2b7	-0.040484156
65	0xbcf6f5dc	-0.030146532
66	0x3d776f03	0.060408603
67	0x3d4b7234	0.04966946
68	0xbe2a3607	-0.16622172
69	0x3e1cd840	0.15316868
70	0x3e64cead	0.22344466
71	0xbd6f7dc8	-0.058469564
72	0x3e9361bf	0.28785512
73	0xbed7c534	-0.42142642
74	0xbe05f776	-0.1308268
75	0x3d8024c7	0.06257015
76	0x3cb57e10	0.022154838
77	0xbe8db9fe	-0.27680963
78	0x3db256e5	0.0870798
79	0xbe0fd107	-0.14044581
80	0x3d0b2c30	0.033977687
81	0x3e8bb89c	0.27289283
82	0x3e21858e	0.15773603
83	0xbdea8230	-0.114506125
84	0x3e4141dc	0.1887278
85	0x3d05c372	0.032657094
86	0xbdab6cae	-0.083703384
87	0xbcf33efe	-0.029693123
88	0xbc2d4638	-0.0105758235
89	0xbd203da2	-0.039121278
90	0xbd842d6c	-0.06453976
91	0xbc23ad30	-0.009990022
92	0xbe37e269	-0.17957462
93	0x3d5fae9d	0.054609884
94	0x3c6ce84c	0.014459681
95	0xbda3fc25	-0.08007077
96	0x3cea06aa	0.02856763
97	0x3db36ca1	0.08760954
98	0x3da23f99	0.079222865
99	0xbe7b53d8	-0.24543703
100	0x3e82ceb2	0.2554832
101	0xbdfdc49e	-0.123910174
102	0x3d3890dd	0.045060027
103	0xbdcf5e07	-0.10125356
104	0x3e299948	0.16562378
105	0xbc9e4230	-0.01931867
106	0x3e53753b	0.20650189
107	0xbd5cda34	-0.053919032
108	0x3d8800de	0.066407904
109	0x3e0d1c92	0.1378043
110	0xbdf464e9	-0.119333096
111	0xbeade41a	-0.3396309
112	0x3e2a26f8	0.16616428
113	0x3de5dc32	0.112236395
114	0x3daf8d09	0.08571822
115	0xbe0cdadd	-0.13755365
116	0x3daaa585	0.083323516
117	0xbeda29a4	-0.42609894
118	0xbe8e7922	-0.27826792
119	0x3d249459	0.040180538
120	0xbca5fcd8	-0.020262167
121	0xbd1e0bd4	-0.0385855
122	0x3b1bfc12	0.0023801369
123	0xbde0eec9	-0.10983045
124	0x3c59e568	0.013299324
125	0x3e245591	0.16048266
126	0xbd8f4fe5	-0.069976605
127	0x3e68b028	0.22723448
128	0xbe2f7cac	-0.17137402
129	0xb9a1b9e4	-0.00030846812
130	0x3e1fe111	0.156132
131	0x3e2daec1	0.16961195
132	0x3e8510ef	0.25989482
133	0x3e47f7fc	0.19528192
134	0x3ec84ff3	0.39123496
135	0x3e2483d0	0.16065907
136	0x3e5fdf63	0.21862559
137	0xbdb410f6	-0.087922975
138	0xbde8c06d	-0.11364827
139	0x3e139cc8	0.14415276
140	0x3e40acfd	0.1881599
141	0xbe4dc7c4	-0.20095736
142	0xbd6b2111	-0.05740458
143	0xbdad2447	-0.08454185
144	0x3e0031c5	0.12518986
145	0xbe2b366c	-0.16719979
146	0xbeab4f03	-0.3345872
147	0xbe7ba801	-0.24575807
148	0x3da5be5d	0.080929495
149	0xbe72fd28	-0.23729384
150	0x3e88a3b5	0.266874
151	0x3cacc1ff	0.021088598
152	0xbe0feb16	-0.14054522
153	0xbdf9442b	-0.12171205
154	0xbe0b9531	-0.13631131
155	0x3e1faf2a	0.15594164
156	0x3da50a90	0.08058655
157	0x3e919655	0.28435007
158	0x3e0ea162	0.1392875
159	0x3e7347ca	0.23757854
160	0x3e895dca	0.26829368
161	0xbd89cfc3	-0.067290805
162	0xbe4df557	-0.20113121
163	0x3ccfcfd5	0.025367657
164	0x3df4e4ed	0.11957727
165	0x3e05ddc0	0.13072872
166	0xbe25fcda	-0.16209736
167	0xbdeac8ce	-0.11464082
168	0xbbc11790	-0.0058927014
169	0x3df4669d	0.119336344
170	0xbddbd134	-0.10733262
171	0xbad21a25	-0.001602952
172	0xbe03fced	-0.12889452
173	0x3e0704b3	0.13185386
174	0x3dc64a4f	0.09682142
175	0xbd84db22	-0.06487109
176	0xbe568f64	-0.20953137
177	0x3e228f82	0.15875056
178	0xbdb9e93b	-0.09077688
179	0xbd122ecd	-0.035689164
180	0xbdd21be0	-0.10259223
181	0xbe20fa43	-0.15720467
182	0xbd9d6680	-0.07685566
183	0x3ec67ed4	0.38768637
184	0xbe84594a	-0.25849372
185	0xbe184c51	-0.14872862
186	0xbc03c1e3	-0.008041832
187	0x3d93227d	0.071843125
188	0xbaaffc60	-0.0013426654
189	0xbe263613	-0.16231565
190	0xbc871996	-0.016491693
191	0xbe2bce46	-0.16777906
192	0xbe21760f	-0.15767692
193	0xbc805593	-0.015665805
194	0x3e4158c8	0.18881524
195	0xbc0ecbda	-0.008715594
196	0xbda46b26	-0.080282494
197	0xbd33ef65	-0.043929476
198	0xbd43a0c4	-0.04776074
199	0xbcfb8b14	-0.030705966
200	0x3ce19261	0.02753562
201	0xbdf25f63	-0.118346
202	0x3ddd6b1b	0.10811444
203	0x3bcd93d9	0.0062737283
204	0xbcadf8d6	-0.021236818
205	0xbdc4b0f3	-0.09604063
206	0x3ca6055b	0.020266226
207	0xbd69bf66	-0.057067297
208	0xbdac0c6b	-0.08400806
209	0x3e3e8195	0.18604119
210	0x3dca494e	0.09877263
211	0x3c811194	0.015755452
212	0xbd5afb29	-0.05346218
213	0x3d8cc717	0.06873911
214	0x3d2fdd3f	0.042935606
215	0xbc83e5a4	-0.016100712
216	0x3d529488	0.05141118
217	0x3ebb4430	0.3657546
218	0xbe28f9b7	-0.16501509
219	0xbddd92b6	-0.108189985
220	0x3e36ec17	0.17863499
221	0xbe0dc91d	-0.1384625
222	0x3e2b2c68	0.16716158
223	0xbe064a2c	-0.13114232
224	0xbdbe3a65	-0.092884816
225	0xbdf5ee26	-0.12008314
226	0x3d0d8cfb	0.034558278
227	0x3e9dbc7b	0.30807862
228	0x3e5fb269	0.21845402
229	0xbdeed3fa	-0.11661525
230	0xbbce177d	-0.006289421
231	0xbe0c626b	-0.13709418
232	0x3d2a127c	0.041521534
233	0xbe22ab86	-0.15885743
234	0x3d95e06d	0.073181964
235	0xbc27557c	-0.010213252
236	0xbcfda410	-0.03096202
237	0x3d796e24	0.060896054
238	0xbdbe71c5	-0.092990436
239	0xbe262389	-0.16224493
240	0x3dc5328a	0.0962878
241	0x3d66b0f4	0.0563211
242	0xbe0d8756	-0.13821158
243	0x3dd9a140	0.10626459
244	0xbdff5d48	-0.12468964
245	0x3e2e0988	0.16995823
246	0xbe213d27	-0.15745984
247	0x3c785287	0.015156395
248	0xbe1b5716	-0.1516994
249	0x3dcaa560	0.09894824
250	0xbe0acc68	-0.13554537
251	0x3ded4146	0.115847155
252	0x3df867b9	0.121291585
253	0xbcdf2e91	-0.027243884
254	0x3e08fa18	0.13376653
255	0x3d692e57	0.05692896

a_fc1.bias f4 [64]
0	0x3d880523	0.06641605
1	0x3dceb89d	0.10093806
2	0xbda8bdcd	-0.082393266
3	0xbd790f70	-0.060805738
4	0xbd603b64	-0.05474414
5	0xbcc1aa33	-0.023640728
6	0xbd291a58	-0.04128489
7	0x3c7a4e60	0.015277475
8	0xbd25de17	-0.040495005
9	0xbcb51455	-0.022104422
10	0xbd0b57de	-0.034019344
11	0xbc84dd12	-0.016218696
12	0x3d3ecb54	0.046580628
13	0xbd7f364d	-0.062307645
14	0xbd1699c1	-0.036767725
15	0x3d948813	0.072525166
16	0xbd392e37	-0.04521009
17	0xbcd35ce6	-0.025801133
18	0x3d3018b7	0.04299232
19	0x3d8d60d5	0.06903235
20	0x3c5b5658	0.013387285
21	0xbc93cdfa	-0.018042553
22	0xbddb61ed	-0.10712037
23	0xbbe4c34c	-0.006981289
24	0xbe24bb8d	-0.1608717
25	0x3d30715f	0.04307687
26	0x3cfb658e	0.030688073
27	0x3d882a03	0.06648638
28	0xbdb3b537	-0.08774798
29	0x3d91b01b	0.071136676
30	0x3df2477c	0.11830041
31	0xbcb62d08	-0.02223827
32	0xbdbeeefb	-0.09322926
33	0x3cea3aa3	0.028592413
34	0x3d1d9460	0.03847158
35	0xbde51d53	-0.11187234
36	0xbd2ba864	-0.041908637
37	0xbc0035a2	-0.007825287
38	0xbd26480a	-0.040596046
39	0x3ce73938	0.028225526
40	0x3c81375a	0.015773464
41	0x3df03bcc	0.11730155
42	0x3b14ba42	0.0022694026
43	0x3d85161a	0.06498356
44	0x3d6a3007	0.05717471
45	0xbcdb8afb	-0.02679967
46	0xbe19a0fe	-0.1500282
47	0x3d1250a8	0.03572145
48	0x3db20f1d	0.08694289
49	0x3d2b9411	0.041889254
50	0xbd0a24b4	-0.03372641
51	0x3db69432	0.08914985
52	0xbdf1ea13	-0.11812224
53	0x3ca531d9	0.02016537
54	0x3cda62f8	0.02665852
55	0xbcd10c33	-0.025518512
56	0xbc76d6cd	-0.015065861
57	0xbd0d7eb6	-0.03454467
58	0xbcce7a7d	-0.025204891
59	0x3d09cde9	0.033643637
60	0xbd9201c2	-0.071292415
61	0xbd5c2376	-0.053744756
62	0x3dbf2f35	0.09335176
63	0x3c2994ca	0.0103504155

a_fc2.weight f4 [64, 64]
0	0x3e2a2368	0.16615069
1	0x3ddbb403	0.10727694
2	0xbc2184bc	-0.0098583065
3	0xbd9f0a2d	-0.07765613
4	0x3e102594	0.14076835
5	0x3daad553	0.083414696
6	0x3dee77af	0.116439216
7	0x3cd85202	0.026406292
8	0x3df4c4ef	0.119516246
9	0xbd60249a	-0.054722406
10	0xbe049079	-0.12945737
11	0x3e134850	0.14383054
12	0xbc2730d7	-0.010204515
13	0xbd5e3eca	-0.0542591
14	0xbd424355	-0.047427494
15	0x3d7be131	0.061494056
16	0x3e5522d4	0.20814067
17	0xbe544f54	-0.20733386
18	0x3e6e46c9	0.2326919
19	0x3e8c2cc0	0.27377892
20	0xbe310d3e	-0.17290208
21	0x3dd19214	0.1023294
22	0x3d9709d4	0.073749214
23	0x3e43d54e	0.19124338
24	0x3e1c8d9d	0.15288396
25	0xbdee9ce5	-0.11651019
26	0x3e10bac4	0.14133745
27	0x3dd6418e	0.10461722
28	0x3d591db2	0.053006835
29	0x3d9c0476	0.07618038
30	0xbd938f8b	-0.07205113
31	0xbc2def46	-0.010616129
32	0x3ddbe07d	0.10736177
33	0xbdba1501	-0.090860374
34	0x3d328d8f	0.043592032
35	0x3b0f6955	0.002188285
36	0xbd48a407	-0.048984554
37	0x3df7ea23	0.12105205
38	0xbe1ef1bd	-0.15521903
39	0x3bc87663	0.0061176284
40	0xbd9294c1	-0.07157279
41	0xbe0bc155	-0.13647969
42	0x3d8dacd2	0.069177285
43	0xbddc6420	-0.10761285
44	0xbc3eeb7c	-0.011652824
45	0xbcf3f900	-0.029781818
46	0x3d2b9823	0.041893136
47	0xbc4ce549	-0.012505838
48	0x3e1b23eb	0.1515042
49	0xbd404a60	-0.04694593
50	0xbe26a9df	-0.16275738
51	0xbbf21c18	-0.007388603
52	0x3cb45c6a	0.022016723
53	0xbdcd36c2	-0.1002021
54	0xbd766142	-0.060151346
55	0xbd9f71a7	-0.07785349
56	0x3e17429e	0.14771506
57	0xbe2613df	-0.16218518
58	0x3d798c20	0.06092465
59	0xbd9f2271	-0.07770241
60	0xbd073b1b	-0.03301535
61	0x3e66a799	0.22524871
62	0x3e226d59	0.15862025
63	0xbb96bec4	-0.0046003778
64	0x3bfb21dd	0.007663949
65	0xbd2b3029	-0.041793976
66	0xbdeb5c25	-0.114921845
67	0x3d887fd5	0.06665007
68	0xbc92f3fd	-0.017938608
69	0xbdc46098	-0.09588736
70	0xbe75f79c	-0.24020237
71	0x3bd77446	0.00657514
72	0x3d2953a3	0.041339528
73	0xbba59f6f	-0.0050544064
74	0x3d5f7b12	0.05456073
75	0xbc09b999	-0.008406066
76	0xbd9251b5	-0.07144491
77	0xbb9b5333	-0.0047401427
78	0xbc966c5b	-0.018362215
79	0xbc88c0ae	-0.01669344
80	0xbdf62fad	-0.12020812
81	0x3df3232c	0.11871943
82	0x3e806c13	0.25082454
83	0xbd8f65de	-0.070018515
84	0xbce4cc79	-0.027929531
85	0x3dde76a5	0.108624734
86	0xbda259fe	-0.07927321
87	0xbd4ca06d	-0.04995768
88	0x3e66c22f	0.22535013
89	0xbdb960e7	-0.09051686
90	0x3d6952ee	0.056963854
91	0x3dfe7105	0.124239005
92	0xbe0e6232	-0.13904646
93	0xbdbf04d7	-0.09327095
94	0xbdd9c1c2	-0.106326595
95	0x3ccb41ea	0.024811704
96	0xbdd70668	-0.10499269
97	0xbdcc9d68	-0.0999096
98	0x3edf96bb	0.43669686
99	0x3db4b433	0.08823433
100	0xbd01c952	-0.031686135
101	0xbdcd9548	-0.10038239
102	0xbdb7625e	-0.08954309
103	0xbe2ca4bf	-0.1685972
104	0xbe46b784	-0.19405943
105	0x3e1d0a2b	0.1533591
106	0x3d559ac3	0.052149545
107	0xbcd60918	-0.026127383
108	0x3cf65784	0.030071028
109	0xbc2c42bc	-0.010513958
110	0xbdf2f4e6	-0.11863117
111	0x3db03434	0.08603707
112	0xbb38ff9a	-0.0028228522
113	0x3c9d3584	0.019190557
114	0xbe4a8581	-0.1977749
115	0xbda79e13	-0.08184447
116	0xbdd4ff20	-0.10400224
117	0x3e1b3870	0.15158248
118	0xbdf5a4f2	-0.119943514
119	0x3d2e09bf	0.042489763
120	0x3d4efba4	0.050532952
121	0x3c072b56	0.008250078
122	0xbdf879dc	-0.12132618
123	0x3e368329	0.17823471
124	0xbd8b2391	-0.06793893
125	0x3c0b1160	0.008488029
126	0xbe97e664	-0.29667962
127	0xbded6307	-0.115911536
128	0xbd1fe084	-0.039032474
129	0x3d1bc913	0.038033556
130	0xbb217349	-0.0024635366
131	0x3c955124	0.018227167
132	0x3e5e83f3	0.21730022
133	0x3df105de	0.11768697
134	0x3df40ee6	0.11916904
135	0x3b25d3a6	0.0025303154
136	0x3e625b73	0.22105198
137	0x3dc62bfc	0.09676358
138	0x3dc09032	0.09402503
139	0xbd05965f	-0.03261411
140	0xbbfe6cb4	-0.0077644233
141	0x3df9b75e	0.12193178
142	0xbdd116e2	-0.10209443
143	0xbd8a2d4f	-0.06746923
144	0xbdd268e9	-0.10273916
145	0xbe00e40f	-0.12586997
146	0xbe19833f	-0.14991473
147	0x3e42067f	0.1894779
148	0x3e318b38	0.17338264
149	0xbd461253	-0.04835732
150	0x3dd77edc	0.105222434
151	0xbd59d2ea	-0.05317966
152	0x3d663a44	0.05620791
153	0xbdd56ceb	-0.10421165
154	0x3dc50970	0.09620941
155	0x3c9a9467	0.018869592
156	0x3e0cf802	0.13766482
157	0xbe6debb6	-0.23234448
158	0x3b349496	0.0027554384
159	0x3e1935cb	0.14961927
160	0xbe3fb7d1	-0.18722464
161	0xbe16ae4b	-0.14714925
162	0x3da8a29d	0.08234141
163	0x3d731910	0.059350073
164	0xbe7caf36	-0.24676213
165	0x3d696385	0.056979675
166	0x3dd2704b	0.102753244
167	0x3d6a2a69	0.05716935
168	0xbcadae04	-0.021201141
169	0x3cce47ce	0.025180724
170	0xbc021e1e	-0.007941751
171	0x3c3d8854	0.011568148
172	0x3e38fad9	0.18064441
173	0xbc9a5049	-0.018837111
174	0xbe11ab89	-0.14225592
175	0xbe390391	-0.18067767
176	0x3dfae6b3	0.12251034
177	0x3d2b52d1	0.041827027
178	0xbbc26d2c	-0.0059334245
179	0xbe0f7767	-0.14010392
180	0xbc500433	-0.012696314
181	0xbdaf5922	-0.085619226
182	0x3e44d992	0.19223621
183	0xbd2ab5a5	-0.041677136
184	0x3e1c8117	0.15283619
185	0x3e00604b	0.12536733
186	0x3b87773c	0.004134087
187	0x3e2ec738	0.17068183
188	0xbe1b0d8b	-0.15141885
189	0xbe732cdb	-0.2374758
190	0x3cdc28fc	0.026875012
191	0xbc1e8d7c	-0.009677287
192	0x3c33a7d6	0.010965308
193	0x3ccbdbc9	0.024885075
194	0xbdfe3d3d	-0.12414024
195	0x3e1d2fe1	0.15350296
196	0xbd9f9a7f	-0.0779314
197	0x3dba31c1	0.09091521
198	0x3db01fc4	0.08599809
199	0x3e31617e	0.17322347
200	0xbc8ec162	-0.017426196
201	0xbd45e816	-0.048317038
202	0x3d917452	0.071022645
203	0x3e633f06	0.2219201
204	0xbeb17822	-0.34661967
205	0x3d258abc	0.04041551
206	0x3d6cbe5c	0.05779873
207	0x3e15dca1	0.14634944
208	0x3d036aee	0.032084398
209	0xbd3b6b52	-0.045756646
210	0xbe369cb9	-0.17833222
211	0xbd6cf677	-0.057852235
212	0x3dd3ffff	0.10351562
213	0x3ccf8ce3	0.025335735
214	0xbd144931	-0.036202613
215	0xbd7a13aa	-0.06105391
216	0xbbff70d2	-0.0077954317
217	0x3dde9d6b	0.10869869
218	0xbe1272ee	-0.14301655
219	0x3e1b505b	0.15167372
220	0xbe4fb2e6	-0.20283088
221	0xbdb9fcb7	-0.09081405
222	0xbe495629	-0.19661774
223	0xbe5de431	-0.2166908
224	0x3e799a5d	0.24375291
225	0x3c5496e3	0.012975427
226	0x3dfec524	0.12439945
227	0xbdab6ad5	-0.08369986
228	0xbd34e97d	-0.044167984
229	0x3dedad78	0.11605352
230	0xbb781677	-0.0037855187
231	0xbd661fe9	-0.056182776
232	0xbdc62696	-0.096753284
233	0xbc1aed40	-0.009455979
234	0xbe02dc93	-0.12779455
235	0x3db86557	0.09003704
236	0xbdf57b6e	-0.11986433
237	0xbde23b8f	-0.11046516
238	0x3dcaf858	0.09910649
239	0x3bca1034	0.0061664823
240	0x3d1e1eb0	0.038603485
241	0x3d0990da	0.033585407
242	0xbd684b68	-0.056712538
243	0x3e451a59	0.19248332
244	0xbdb490f3	-0.08816709
245	0xbd49ad33	-0.04923744
246	0x3dc8ea90	0.09810364
247	0xbe25655f	-0.16151951
248	0x3cb23fd9	0.02175896
249	0xbda8bdf3	-0.08239355
250	0x3e038753	0.12844591
251	0x3e3cd043	0.1843882
252	0x3c305504	0.010762457
253	0x3c731bac	0.01483814
254	0x3d0dfcb3	0.03466482
255	0x3c07cba4	0.008288298

a_fc2.bias f4 [64]
0	0x3bc58971	0.006028347
1	0xbd02df03	-0.03195096
2	0x3d15136d	0.03639548
3	0xbcb4cc18	-0.022069976
4	0x3d7cbb0e	0.061701827
5	0x3da3f25a	0.08005209
6	0x3d9cc3d6	0.0765454
7	0x3cd0633a	0.02543794
8	0x3c23ae16	0.009990236
9	0xbdb8b8b9	-0.09019608
10	0xbd89c221	-0.0672648
11	0x3db2520d	0.08707056
12	0xbc47e6bf	-0.01220101
13	0x3ce3726b	0.02776452
14	0xbb97d504	-0.0046335477
15	0xbe098747	-0.1343051
16	0xbd0904af	-0.033451732
17	0xb6abb8c0	-5.117705e-06
18	0xbc440500	-0.011964083
19	0xbc40adf6	-0.0117602255
20	0xbcd1e14a	-0.025620122
21	0xbd589006	-0.052871726
22	0x3dc358df	0.09538435
23	0x3d17b558	0.037038177
24	0x3c09c695	0.008409162
25	0xbd6c446c	-0.05768244
26	0x3b399a17	0.0028320604
27	0xbd63acf7	-0.055584874
28	0xbbdd6d78	-0.0067574345
29	0x3d44b1ef	0.048021253
30	0xbce8b43d	-0.028406257
31	0xbdc4614a	-0.09588869
32	0x3d929331	0.07156981
33	0x3cba7ba7	0.02276404
34	0xbcf7c64b	-0.03024592
35	0xbd9ad218	-0.075596035
36	0x3dcd0992	0.10011591
37	0xbd74ba1f	-0.05974781
38	0x3d1421d9	0.036165092
39	0x3d8fe0d0	0.070253015
40	0x3d09a287	0.033602264
41	0xbc9e74e2	-0.019342843
42	0x3cecd090	0.028908044
43	0xbdd7f318	-0.10544413
44	0x3d38aa17	0.045084085
45	0x3ad6a33a	0.001637555
46	0x3d8cdc95	0.0687801
47	0x3b58a77c	0.0033058813
48	0xbd881445	-0.06644491
49	0x3dc53225	0.09628705
50	0x3a851ed1	0.0010156279
51	0x3c0bd7ce	0.008535339
52	0x3d03962a	0.03212563
53	0x3c6930a2	0.014232786
54	0x3d82d8e8	0.06389028
55	0xbd110ae8	-0.03541079
56	0xbc9ffb88	-0.01952912
57	0xbbf546e6	-0.0074852584
58	0x3c2e8016	0.010650655
59	0xbcd304e0	-0.02575916
60	0x3d3b48e8	0.045723826
61	0x3d22f057	0.039779987
62	0xbc80ec66	-0.015737724
63	0x3c940946	0.018070828

a_fc3.weight f4 [3, 64]
0	0x3b7c2a3c	0.0038477322
1	0x3b80a670	0.003926091
2	0x3bab8c04	0.005235197
3	0xbb230c25	-0.0024879065
4	0x3beba10d	0.0071908296
5	0x3b907d7e	0.004409491
6	0xbe11fc87	-0.14256488
7	0xbb450bf4	-0.003006694
8	0xba97e683	-0.0011589084
9	0x3e17bd5b	0.14818327
10	0x3c9181f9	0.017762171
11	0xbe01e5e0	-0.12685347
12	0x3bfc92b0	0.007707916
13	0xbdb98baf	-0.09059846
14	0x3b73378f	0.0037111973
15	0xbd8b50ed	-0.06802545
16	0x3c47aabe	0.012186704
17	0xbbd1f72c	-0.006407639
18	0x3c8b8f29	0.017036038
19	0x3c5bfd94	0.013427157
20	0xbcc329ec	-0.0238237
21	0x3b3af5d0	0.0028527863
22	0x3d8d348c	0.06894788
23	0xbb6428f5	-0.0034814451
24	0xbd467e04	-0.04846002
25	0xbd32d2e8	-0.043658167
26	0xbb835dbe	-0.0040089777
27	0x3bf1e035	0.007381464
28	0xbc4860d2	-0.012230115
29	0xbdd48548	-0.10376984
30	0xbb36839b	-0.002784944
31	0x3e0080ff	0.12549208
32	0xbdb8888c	-0.09010419
33	0xbc214b44	-0.009844605
34	0x3bde13d8	0.006777268
35	0x3c8520ae	0.016250934
36	0x3cf97941	0.030453326
37	0x3d7deb43	0.06199194
38	0x3c499091	0.012302534
39	0x3aa2ab5c	0.0012410688
40	0xbbadf5ef	-0.0053088586
41	0x3af6804e	0.0018806548
42	0xbd344ed8	-0.044020504
43	0x3d5cbcd8	0.053891033
44	0xbc8c7c4d	-0.017149115
45	0x3b9c2d98	0.0047661774
46	0x3c115c50	0.008872107
47	0x3a497bea	0.0007686006
48	0x3bf6bad5	0.0075295963
49	0x3d207d1f	0.039181825
50	0xbbec2527	-0.0072065773
51	0x3b01d96f	0.0019813438
52	0xbd60f4e4	-0.054921046
53	0xbba7e217	-0.0051233876
54	0xbb460da4	-0.0030220533
55	0x3e095359	0.13410701
56	0x3b97cd80	0.004632652
57	0xbbc68b30	-0.006059073
58	0xbb70b291	-0.0036727528
59	0x3b8cd7a3	0.004298167
60	0x3be4ade0	0.0069787353
61	0x3b498ab2	0.0030752835
62	0xbb07dede	-0.0020732204
63	0xbbb4db70	-0.005519323
64	0xba6b73ee	-0.00089818134
65	0xbb884538	-0.004158642
66	0xbb1ebfe0	-0.0024223253
67	0x3b1fcd0f	0.00243837
68	0x3d9d5a00	0.07683182
69	0xbb957d64	-0.004562067
70	0xbc82bc6a	-0.015958983
71	0xbb2f251a	-0.0026724995
72	0x3bc7ef83	0.00610155
73	0xbca5de51	-0.02024761
74	0xbd6ec081	-0.058289055
75	0x3cccee8a	0.025016088
76	0x3a6af571	0.0008962965
77	0xbddbf557	-0.10740154
78	0x3af0d1f3	0.0018373117
79	0xbdee4858	-0.11634892
80	0x3aaf5901	0.0013377966
81	0x3c631eab	0.013862292
82	0x3d1a0333	0.037600707
83	0xba12670e	-0.00055848144
84	0xbd03e291	-0.032198492
85	0x3c318325	0.01083449
86	0x3dae267f	0.08503436
87	0xbbb3d01d	-0.0054874555
88	0xbd46e3f5	-0.04855724
89	0xbdb70c6e	-0.08937918
90	0x3ac67a55	0.0015142659
91	0xbbd3572c	-0.0064496007
92	0xbcdbd381	-0.026834251
93	0xbdd0dc59	-0.10198278
94	0x3b270647	0.002548592
95	0xbd61fb03	-0.055171024
96	0xbcfa10c6	-0.030525576
97	0x398fded4	0.00027441105
98	0x3b76ef52	0.0037679267
99	0x39bc5781	0.0003592335
100	0x3d9ac39b	0.0755684
101	0x3c949677	0.018138153
102	0xbc59135a	-0.013249243
103	0x3da8bab9	0.082387395
104	0xbc433d85	-0.011916523
105	0xbab7b00b	-0.0014014257
106	0xbdc88823	-0.09791591
107	0xbd07db84	-0.03316833
108	0x3c9599ff	0.018261908
109	0x3b3ce331	0.002882194
110	0x3d20cb38	0.039256305
111	0x3b303aac	0.002689044
112	0x3b590d8a	0.0033119642
113	0x3dcc85ed	0.09986482
114	0xb95fa299	-0.0002132751
115	0xbb05a561	-0.0020392763
116	0x3da7a936	0.08186571
117	0xbafde57c	-0.001937076
118	0x3b850df2	0.0040605003
119	0x3d005d35	0.03133889
120	0xbc0a1ce0	-0.008429736
121	0x3b3d1701	0.0028852823
122	0xbc05ff2c	-0.0081785135
123	0xba05e185	-0.00051071524
124	0x3bddd2a6	0.006769496
125	0x3ba1f0fe	0.0049420586
126	0xbb07ec92	-0.0020740372
127	0x3b12fd41	0.0022428783
128	0xbb03ed50	-0.0020130463
129	0x3d397ccf	0.045285042
130	0xbbc3fa09	-0.0059807342
131	0x3b744651	0.0037273357
132	0x3e0b72b4	0.13617975
133	0x3bda3e49	0.006660257
134	0xbc283166	-0.010265684
135	0xbb76637f	-0.0037595925
136	0xbb121b3e	-0.002229407
137	0xbda838a1	-0.08213926
138	0xbb383f49	-0.0028113893
139	0xbca616b8	-0.020274505
140	0x3b047f20	0.0020217374
141	0x3d38d59b	0.045125585
142	0x3a0a03ac	0.00052648294
143	0xbde8eb09	-0.113729544
144	0xbd8b21a6	-0.06793527
145	0x3b8056da	0.0039166035
146	0xbd51f9c1	-0.051263575
147	0xbc7696f1	-0.015050636
148	0xbdf4a45c	-0.119454116
149	0xbbb6f1d6	-0.0055830283
150	0x3de78f06	0.113065764
151	0xbc0d4e49	-0.008624622
152	0x3df8c1aa	0.121463135
153	0xbc8cd161	-0.017189683
154	0xbc5a36ee	-0.01331876
155	0x3c06aad7	0.008219442
156	0xbcdac1a7	-0.026703669
157	0x3d81eb60	0.06343722
158	0xbad1c339	-0.0016003615
159	0xbbafc8fa	-0.0053645344
160	0x3d6ad5a2	0.057332642
161	0x3c9372a6	0.017999005
162	0xbc2f00ad	-0.010681313
163	0xbc3f8d95	-0.011691471
164	0x3e2177fa	0.15768424
165	0x3cd30bd7	0.025762482
166	0x3d1523af	0.036410984
167	0x3de833a5	0.113379754
168	0xbcd8d0f0	-0.026466817
169	0xbb8db594	-0.0043246243
170	0x3e00e202	0.12586215
171	0x3d4264a6	0.047459267
172	0x3d9b4488	0.07581431
173	0x3be3483e	0.006936102
174	0x3db7c8d0	0.08973849
175	0x3bb91e37	0.005649354
176	0xbbde8a51	-0.006791391
177	0x3dfe1d3b	0.12407919
178	0x3c0478e4	0.008085463
179	0xbc5c5e72	-0.013450252
180	0x3d4be370	0.04977745
181	0xbd4bd4a1	-0.049763326
182	0xbc8c7b65	-0.017148683
183	0xbd0a6180	-0.03378439
184	0xbb158027	-0.002281198
185	0x3b692d12	0.0035579843
186	0xbb947a0a	-0.0045311498
187	0xbc8d61f6	-0.017258625
188	0x3df4f1e1	0.11960197
189	0x3beeb549	0.0072847945
190	0x3bdc029f	0.0067141796
191	0x3c67e905	0.014154677

a_fc3.bias f4 [3]
0	0xbd31f068	-0.04344216
1	0x3e1dbfa9	0.15405144
2	0x3d4a933c	0.04945682

c_fc1.weight f4 [64, 11]
0	0xbe8f7ac4	-0.2802335
1	0x3e1acc11	0.15116908
2	0x3e91e811	0.28497365
3	0x3e342836	0.17593464
4	0xbd1b41f8	-0.03790471
5	0xbd3c2e1d	-0.045942415
6	0x3e506871	0.20352341
7	0x3dceeced	0.10103784
8	0x3d436088	0.04769948
9	0x3d0e3a7a	0.034723736
10	0xbd9f86fc	-0.07789418
11	0x3ec9bad2	0.39400345
12	0xbeb0d9ee	-0.34541267
13	0xbe7c20c2	-0.24621871
14	0x3d548bb9	0.051891062
15	0x3d90e62e	0.07075153
16	0x3d73a936	0.059487544
17	0xbdc1d455	-0.09464327
18	0xbd049510	-0.03236872
19	0xbe3e9c42	-0.18614295
20	0xbd974d5b	-0.07387801
21	0x3cf325f2	0.02968118
22	0xbdeebb3e	-0.11656807
23	0x3ec2fdf9	0.3808439
24	0x3e4ce492	0.20009068
25	0x3eac3c6d	0.3363985
26	0xbdef6efc	-0.116910905
27	0xbe365879	-0.17807187
28	0x3e6a9bf1	0.2291105
29	0xbd4f4580	-0.05060339
30	0x3e9b6322	0.3034907
31	0x3dc95a13	0.098316334
32	0x3b16a5d7	0.0022987032
33	0x3eba270a	0.3635791
34	0xbdb23208	-0.08700949
35	0xbbccbfc5	-0.0062484466
36	0xbed062e2	-0.40700442
37	0x3bb48c20	0.0055098683
38	0x3d28656f	0.04111236
39	0xbec8e7e2	-0.39239413
40	0xbd90d3d8	-0.07071656
41	0xbdbcfcf3	-0.09227934
42	0xbc3ec051	-0.0116425315
43	0xbd2106ba	-0.039313056
44	0x3e70e6aa	0.23525491
45	0xbda05c37	-0.078300886
46	0xbedb384c	-0.4281639
47	0xbe807117	-0.2508628
48	0x3e019168	0.12653124
49	0x3cf289e7	0.029606773
50	0xbec9bdf0	-0.39402723
51	0xbdcd6cfb	-0.10030552
52	0xbeaa2598	-0.33231807
53	0xbe48687c	-0.19571108
54	0xbd9b2285	-0.075749435
55	0xbeb2b8b0	-0.3490653
56	0x3e30a864	0.17251736
57	0x3e9c058c	0.30472982
58	0x3dc6c11a	0.097048
59	0x3c80d4cd	0.015726471
60	0xbe937cc5	-0.2880613
61	0x3eb757f6	0.35809296
62	0x3dbfd329	0.093664475
63	0x3e579f29	0.21056809
64	0x3e332090	0.1749289
65	0x3d74d34b	0.059771817
66	0x3e837d08	0.2568133
67	0xbe671ae5	-0.22568853
68	0xbe803975	-0.25043836
69	0xbd5d0952	-0.053963967
70	0x3e678b43	0.22611718
71	0x3e6ed0ad	0.23321791
72	0xbedbb54e	-0.42911762
73	0xbcc378a9	-0.023861246
74	0xbe120a2a	-0.1426169
75	0xbdabba3d	-0.083851315
76	0xbd09fb8d	-0.033687163
77	0xbe4795bf	-0.19490717
78	0xbc793dd0	-0.015212491
79	0x3ea39a7d	0.31953803
80	0x3e3eaf32	0.18621519
81	0xbbeedba5	-0.0072893673
82	0xbe502cea	-0.20329633
83	0x3dede2bb	0.11615511
84	0xbd7e8583	-0.062139045
85	0x3eaabe8a	0.33348495
86	0xbdc3647a	-0.09540649
87	0xbdf192eb	-0.117956005
88	0xbe3d393f	-0.18478869
89	0x3dde8fa0	0.10867238
90	0x3e89d0b2	0.26917034
91	0x3ea075f6	0.31339997
92	0xbe06dead	-0.13170882
93	0xbd966e08	-0.073452055
94	0x3e4583f6	0.1928862
95	0xbe1e4fa9	-0.15460075
96	0x3ee5eec7	0.44908735
97	0x3e83ba09	0.2572787
98	0x3d471354	0.048602417
99	0xbeb24dee	-0.3482508
100	0x3e7f887d	0.2495441
101	0x3e83a3f1	0.25711015
102	0x3e90d7b0	0.28289557
103	0xbced1580	-0.028940916
104	0xbe5d4ed4	-0.21612102
105	0x3eb705d5	0.35746637
106	0x3e8c3e11	0.27391103
107	0x3e22cce6	0.15898475
108	0x3e5f2f6f	0.21795438
109	0x3e0b2389	0.13587774
110	0x3e726813	0.23672514
111	0xbea64cd1	-0.3248048
112	0xbe76f08f	-0.24115203
113	0xbe28459b	-0.16432802
114	0xbdd27881	-0.102768905
115	0x3e424fba	0.18975726
116	0xbeae2e7f	-0.3401985
117	0xbe17a165	-0.14807661
118	0xbdf40191	-0.11914361
119	0xbe21d1b6	-0.15802655
120	0xbe05cf74	-0.13067418
121	0x3e1a239d	0.15052648
122	0xbe5859de	-0.21128032
123	0xbe7ca559	-0.2467245
124	0xbe7ae0bd	-0.24499793
125	0xbe133a36	-0.14377674
126	0x3e70268f	0.23452209
127	0xbd0b9d16	-0.034085356
128	0x3da1d0d2	0.079011574
129	0xbdfe318a	-0.124117926
130	0xbd456294	-0.048189715
131	0xbc4fefe1	-0.012691469
132	0xbea4bcef	-0.32175395
133	0x3eb81780	0.3595543
134	0x3ec679ca	0.38764793
135	0x3eba02ab	0.3633016
136	0xbe520633	-0.20510177
137	0xbeeeeb21	-0.46663764
138	0x3eaff089	0.343632
139	0xbe16c03e	-0.14721772
140	0x3e7ae257	0.24500404
141	0x3e4d3245	0.20038708
142	0x3cbdd40a	0.023172397
143	0xbe3e17cf	-0.1856377
144	0x3eb60f6b	0.35558638
145	0x3f041569	0.5159517
146	0x3ea80002	0.32812506
147	0xbe0782a3	-0.13233428
148	0xbe5a24c6	-0.2130309
149	0x3e615645	0.22005565
150	0x3e744ddb	0.23857825
151	0x3e577e49	0.21044268
152	0x3e142a5e	0.14469287
153	0x3da9c243	0.082890056
154	0x3ef7bef8	0.48387885
155	0x3cd51fa4	0.026016064
156	0xbebabd5a	-0.3647259
157	0xbe3ea865	-0.18618925
158	0x3d82d4c8	0.06388241
159	0x3e9ab9b8	0.30219817
160	0xbe809175	-0.25110975
161	0x3d4e7d87	0.05041268
162	0xbe48d006	-0.19610605
163	0xbe0722ea	-0.13196912
164	0xbd09e8a6	-0.033669136
165	0x3e09513e	0.13409898
166	0xbe8b8183	-0.27247247
167	0x3d2657d6	0.04061111
168	0xbe4a6ff7	-0.19769274
169	0xbe382ba8	-0.17985404
170	0x3dcfc0bd	0.10144184
171	0x3db74c29	0.08950073
172	0xbd2f5927	-0.04280963
173	0xbe23eccc	-0.160083
174	0x3d1a52ef	0.037676748
175	0x3caa4384	0.020784147
176	0x3e4c0d67	0.19926988
177	0x3c506461	0.012719245
178	0x3e2cb2e2	0.16865113
179	0xbd552196	-0.052033983
180	0x3d78921f	0.060686227
181	0xbc02756e	-0.007962568
182	0x3e127f76	0.14306435
183	0xbde67b3b	-0.11253973
184	0x3d34435d	0.044009555
185	0xbb671cc6	-0.0035264953
186	0xbdd025ee	-0.101634845
187	0xbe9c777e	-0.30559915
188	0x3e8a2b92	0.26986367
189	0x3eaa7ee3	0.33299932
190	0x3e35f2b3	0.17768364
191	0x3d410da8	0.047132164
192	0xbe0fc878	-0.14041317
193	0x3ea0790c	0.3134235
194	0x3db43cd4	0.088006645
195	0x3e8f21b2	0.27955395
196	0x3e1c8f43	0.15289025
197	0x3d7d0a41	0.061777357
198	0x3e735e0f	0.2376635
199	0x3b909327	0.004412073
200	0xbe702966	-0.23453292
201	0xbefc27a5	-0.49248996
202	0x3e14bc06	0.1452485
203	0x3dddb848	0.108261645
204	0xbe9bb7b5	-0.30413595
205	0xbca4b3df	-0.0201053
206	0xbe14cb83	-0.14530759
207	0xbe25ce03	-0.16191868
208	0xbdaa9871	-0.08329857
209	0x3e3277d1	0.17428519
210	0xbca51548	-0.02015175
211	0xbead6974	-0.33869517
212	0xbe3f751c	-0.18697017
213	0x3d15f0ca	0.036606587
214	0x3e536ed7	0.20647751
215	0xbd6b9ad3	-0.0575207
216	0xbd9d0b5b	-0.076681815
217	0xbe3a1bbb	-0.18174641
218	0xbe3c59e4	-0.18393666
219	0xbd8b22cf	-0.067937486
220	0xbed65ed6	-0.4186923
221	0x3ec0ab9b	0.37630925
222	0x3e44f4f5	0.19234069
223	0x3cb676f9	0.022273527
224	0xbc115bdc	-0.008871999
225	0xbe02e313	-0.12781934
226	0x3d34b7f1	0.044120733
227	0xbe2a7822	-0.1664739
228	0x3e9dac5f	0.3079557
229	0x3eb16c0c	0.34652746
230	0x3de157b5	0.11003057
231	0xbe9597b5	-0.29217306
232	0x3ede1060	0.43371868
233	0x3e664de3	0.22490649
234	0x3ef2339b	0.47304997
235	0xbd91eb2e	-0.07124935
236	0xbe66af06	-0.22527704
237	0x3e82c1bf	0.25538442
238	0x3dd14a9f	0.10219311
239	0x3e17bfdf	0.14819287
240	0x3d4e4daf	0.050367054
241	0x3ca6e30a	0.020371933
242	0x3daf6d0e	0.085657224
243	0xbdd332ff	-0.10312461
244	0xbae54396	-0.0017491456
245	0xbe646c4d	-0.22306938
246	0xbe8bdd7d	-0.2731742
247	0x3d82bc57	0.06383579
248	0xbea244f5	-0.31693235
249	0xbe861e9c	-0.26195228
250	0xbe439cb9	-0.19102754
251	0xbe602a50	-0.21891141
252	0xbe2c8309	-0.16846861
253	0x3d822307	0.06354337
254	0xbe36c9ff	-0.17850493
255	0xbe032682	-0.12807658

c_fc1.bias f4 [64]
0	0xbe2f74dc	-0.17134422
1	0x3e8da1f7	0.27662632
2	0xbe862ee6	-0.26207656
3	0x3e522dd8	0.205253
4	0x3ec74b19	0.38924482
5	0xbea9dc7a	-0.33176023
6	0x3e8b6729	0.27227142
7	0xbe524d71	-0.20537354
8	0xbea4eb77	-0.32210895
9	0xbe95de9b	-0.29271397
10	0x3e4e1931	0.20126797
11	0x3e3e9f92	0.18615559
12	0xbef85196	-0.48499745
13	0xbeb2d10e	-0.3492512
14	0x3e93f17a	0.2889517
15	0x3d36ff35	0.04467698
16	0x3c5de954	0.013544399
17	0xbe845476	-0.2584569
18	0x3e9471af	0.28992984
19	0x3e0fbe43	0.14037423
20	0xbe7faecc	-0.24969023
21	0xbeb3068d	-0.34965935
22	0x3e26acb8	0.16276824
23	0x3dda247b	0.10651489
24	0xbef8f3de	-0.48623556
25	0xbea2d81d	-0.31805506
26	0xbe2df59a	-0.16988221
27	0xbdde11d0	-0.10843241
28	0xbecffb6b	-0.40621504
29	0xbe011009	-0.12603773
30	0xbe85b20c	-0.261124
31	0x3ca7756a	0.02044173
32	0x3ea4bd92	0.3217588
33	0xbe4c7868	-0.19967806
34	0xbeadbaa6	-0.33931464
35	0x3ea597e8	0.32342458
36	0x3e925e8e	0.28587765
37	0xbe66c28a	-0.22535148
38	0x3eb7ebdb	0.3592213
39	0xbeafa80e	-0.34307903
40	0xbc90a0aa	-0.017654736
41	0x3ea3c2e8	0.3198464
42	0xbe57122a	-0.21003023
43	0xbcf1e1a9	-0.029526548
44	0x3e81bbb8	0.2533853
45	0x3ed02c0d	0.40658608
46	0x3e8a81e1	0.27052215
47	0x3e710cfd	0.23540111
48	0xbe31b45c	-0.17353958
49	0xbe89e8a1	-0.26935294
50	0xbe391536	-0.18074498
51	0xbe89550a	-0.26822692
52	0xbecac3df	-0.39602563
53	0x3e93993e	0.28827852
54	0x3e3aacdc	0.18230003
55	0xbe5fad0e	-0.21843359
56	0xbe9c0143	-0.30469713
57	0x3e521897	0.20517193
58	0x3e3df539	0.18550576
59	0xbe7f1492	-0.2491019
60	0xbedc264f	-0.42997977
61	0x3eb6a7a6	0.3567478
62	0xbe8eb99a	-0.27875978
63	0xbe650f76	-0.22369179

c_fc2.weight f4 [64, 64]
0	0x3e4cb50f	0.19990943
1	0xbd9059ea	-0.070484
2	0x3e467a3a	0.19382563
3	0x3e05eb8f	0.1307814
4	0xbaf086e8	-0.0018350752
5	0x3e87f1a7	0.26551554
6	0xbd8f961a	-0.070110515
7	0x3e45f5f3	0.19332103
8	0xbdb0d6ea	-0.086347416
9	0x3e584cad	0.21123
10	0xbdb82833	-0.089920424
11	0xbed797af	-0.42107913
12	0x3eb42a43	0.35188493
13	0x3ec6db4f	0.38839194
14	0xbe812e33	-0.2523056
15	0xbd085e43	-0.03329302
16	0xbe32141a	-0.1739048
17	0x3dced788	0.10099703
18	0xbe157915	-0.1459697
19	0xbcfcd586	-0.030863535
20	0x3c32f11d	0.010921744
21	0x3e309022	0.17242482
22	0xbde59a89	-0.11211116
23	0xbd975d5b	-0.07390853
24	0x3e5751b1	0.21027257
25	0x3ec7aa7c	0.38997257
26	0x3ea5cb40	0.3238163
27	0x3ec1e1fe	0.3786773
28	0x3eedd6f5	0.46453062
29	0x3e4ae1df	0.19812725
30	0x3cd3f5cf	0.025874047
31	0x3d84f3ca	0.064918116
32	0xbe85c7da	-0.26129037
33	0x3cef41ea	0.029206235
34	0x3ea03e0d	0.3129734
35	0xbeabf929	-0.33588532
36	0xbea21460	-0.3165617
37	0x3e92dbab	0.28683218
38	0xbe8bca42	-0.27302748
39	0x3d8e1a48	0.069386065
40	0x3e683e6d	0.22680064
41	0xbe3ff7f0	-0.18746924
42	0x3e8f8a1c	0.28035057
43	0xbcbbe206	-0.022934925
44	0xbebc86e8	-0.36821675
45	0xbd2d53f6	-0.0423164
46	0xbea7a308	-0.3274157
47	0xbdb995d3	-0.0906178
48	0xbd7855a2	-0.06062854
49	0x3eaf26fd	0.34209433
50	0x3d9e6c76	0.07735531
51	0x3e5138ca	0.2043182
52	0x3e836cf4	0.25669062
53	0xbe4b7642	-0.1986933
54	0xbe4bcc04	-0.19902045
55	0x3e8213c1	0.25405696
56	0x3e84d07c	0.2594031
57	0xbdf4a1c5	-0.119449176
58	0xbed64cd8	-0.41855502
59	0x3ead9e26	0.3390972
60	0x3e274a9a	0.16337052
61	0xbe861a75	-0.2619206
62	0x3e9dba76	0.3080632
63	0x3e2658ec	0.16244859
64	0x3d9b7289	0.07590205
65	0xbdc6675b	-0.09687682
66	0x3ed28e81	0.41124347
67	0xbdfb8182	-0.12280561
68	0xbe526c7a	-0.20549193
69	0x3db4de58	0.08831471
70	0xbe380f3e	-0.17974564
71	0xbe51587d	-0.20443912
72	0x3dc4d02a	0.09610017
73	0x3e7fe2c8	0.24988854
74	0xbd74ac37	-0.05973455
75	0xbe814efb	-0.2525557
76	0x3ed114b8	0.4083612
77	0x3e8831b9	0.26600435
78	0x3e174adf	0.14774655
79	0x3a3a2155	0.0007100304
80	0xbd8e3f15	-0.06945626
81	0x3d834bd8	0.064109504
82	0xbdf388a3	-0.11891296
83	0xbd872071	-0.065979846
84	0x3e9b67da	0.3035267
85	0x3e8dda3f	0.2770557
86	0x3d1eb78f	0.038749274
87	0xbe00cc70	-0.12577987
88	0x3e1c77d3	0.15280084
89	0x3dc0b5ca	0.094096735
90	0x3e85d0ab	0.26135764
91	0x3dcd7af8	0.1003322
92	0x3ea4c9c8	0.32185197
93	0x3c921d88	0.017836347
94	0x3e7cc2de	0.24683711
95	0x3d8f0e50	0.06985152
96	0xbeafd184	-0.34339535
97	0x3e420571	0.18947388
98	0x3e55751d	0.20845456
99	0xbef00eeb	-0.46886382
100	0xbdec29dc	-0.115314215
101	0xbe111f86	-0.14172181
102	0xbeb12778	-0.34600425
103	0x3ddd77d4	0.10813871
104	0x3dc8d669	0.098065205
105	0xbebf97c7	-0.37420484
106	0x3edb3fc0	0.42822075
107	0xbdfad945	-0.12248472
108	0xbe402bf3	-0.18766765
109	0xbec91573	-0.39274177
110	0xbd8b8c8c	-0.068139166
111	0xbe9beeb1	-0.30455545
112	0x3e95bca0	0.29245472
113	0x3e836485	0.25662628
114	0x3e0ad75c	0.13558716
115	0x3e62b4d8	0.22139299
116	0x3ea5313a	0.3226412
117	0xbe7349c6	-0.23758611
118	0x3cd6bf87	0.026214374
119	0x3d39f435	0.04539891
120	0x3e20c8ad	0.15701552
121	0xbe2682bf	-0.16260813
122	0xbe51e379	-0.2049693
123	0x3e99b1d5	0.30018488
124	0x3dc1b79d	0.094588496
125	0x3d868f8b	0.065703474
126	0x3ea30354	0.31838477
127	0x3db472ba	0.08810945
128	0xbce14f10	-0.02750352
129	0xbe147dd6	-0.14501128
130	0x3d279043	0.040909063
131	0xbd26651e	-0.040623777
132	0xbef2a2a6	-0.47389716
133	0x3e77001f	0.2412114
134	0xbe1e64ae	-0.15468094
135	0x3d50bb52	0.050959893
136	0x3ecc1999	0.3986328
137	0x3a33d3ce	0.00068598695
138	0xbe274de2	-0.16338304
139	0xbeed6753	-0.46367893
140	0x3f32125a	0.6955925
141	0x3e6548b3	0.22391014
142	0xbec6b03e	-0.38806337
143	0xbda05863	-0.078293584
144	0xbd19d492	-0.03755624
145	0x3e03c04d	0.12866326
146	0xbde22e58	-0.110439956
147	0xbea4d040	-0.32190132
148	0x3dfd6b98	0.123740375
149	0xbcef488f	-0.029209403
150	0xbb75c83e	-0.0037503387
151	0xbe70bcd1	-0.23509528
152	0x3ea40b7d	0.32040015
153	0x3e90b1a0	0.28260517
154	0x3e5ddbd0	0.21665883
155	0x3d3c50eb	0.045975607
156	0x3e5b5334	0.21418458
157	0xbdf253bf	-0.118323795
158	0x3d16ae65	0.03678741
159	0xbdb143b7	-0.08655494
160	0xbcdfee28	-0.027335241
161	0x3dd7e805	0.10542301
162	0x3e46b5da	0.19405308
163	0xbe4c89a5	-0.19974382
164	0xbe14aaa8	-0.14518225
165	0x3e820084	0.25391018
166	0xbeeb9108	-0.46009088
167	0xbcf1e0ed	-0.029526198
168	0x3e384c02	0.17997745
169	0xbe9ec7c4	-0.31011784
170	0x3eb642a9	0.35597733
171	0xbd739077	-0.059463944
172	0xbe743386	-0.2384778
173	0xbef12c85	-0.47104278
174	0xbdba730c	-0.09103975
175	0xbdee4d4e	-0.116358384
176	0x3e503cd8	0.2033571
177	0x3e898a68	0.26863408
178	0x3e92bc24	0.28659165
179	0x3e5b9717	0.21444355
180	0x3d884304	0.06653407
181	0xbe8d807d	-0.2763709
182	0xbcbc5732	-0.022990797
183	0x3e2a3a53	0.16623811
184	0x3e529a35	0.20566638
185	0xbe3eb33c	-0.1862306
186	0xbdbeb1ec	-0.0931128
187	0x3d9db71e	0.077009425
188	0x3e551309	0.20808043
189	0xbe57e4ac	-0.21083325
190	0x3ea9178e	0.33025783
191	0x3e687bfa	0.22703543
192	0xbcae29b8	-0.021260127
193	0x3e81acb6	0.2532708
194	0xbe4e0fb6	-0.20123181
195	0x3e791546	0.24324521
196	0x3dfcdf69	0.123472996
197	0x3d5588b2	0.052132316
198	0x3de38bcb	0.11110648
199	0xbdbef843	-0.09324696
200	0xbebe61a2	-0.37183863
201	0xbe5fa33a	-0.2183961
202	0x3e7f53c5	0.249343
203	0x3ea6f3e8	0.3260796
204	0xbe8d995d	-0.2765607
205	0xbe931c08	-0.28732324
206	0x3e295682	0.16536906
207	0x3e269776	0.16268715
208	0x3d87ed75	0.06637088
209	0xbe521de4	-0.20519215
210	0x3e790d99	0.24321593
211	0x3d7b476c	0.06134741
212	0xbe657296	-0.22406992
213	0xbc403a20	-0.011732608
214	0x3e121279	0.1426486
215	0x3e26a739	0.16274728
216	0xbe720433	-0.23634414
217	0xbedbcf23	-0.4293147
218	0xbd4b4d99	-0.04963455
219	0xbea1c504	-0.31595623
220	0xbe7ba43d	-0.2457437
221	0x3cff7234	0.031182386
222	0xbd204aa9	-0.0391337
223	0x3d8bdd7d	0.06829355
224	0x3e45d6b2	0.19320181
225	0xbdf668a3	-0.120316766
226	0xbebb3bcd	-0.36569062
227	0x3ebf2338	0.37331557
228	0xbd92538e	-0.07144843
229	0x3dc672d5	0.09689871
230	0x3ecb30c9	0.39685658
231	0xbe6b02d2	-0.22950295
232	0xbe1bbe0d	-0.15209217
233	0x3ea995c5	0.33122078
234	0xbe06bd0a	-0.1315805
235	0xbe3d57b4	-0.18490487
236	0x3e34d184	0.17658049
237	0x3e6921bf	0.2276678
238	0x3de5e7fa	0.11225887
239	0x3e577627	0.21041165
240	0xbe81f398	-0.2538116
241	0x3e0a6bc4	0.13517672
242	0xbc9c5b74	-0.019086577
243	0x3bc87de5	0.0061185234
244	0xbec3427e	-0.38136667
245	0x3e3c1b61	0.18369819
246	0xbdabcd3d	-0.083887555
247	0xbe538ad8	-0.20658433
248	0xbe74a074	-0.23889333
249	0x3c5c8d9d	0.013461498
250	0x3ea41887	0.32049963
251	0xbe98e011	-0.2985845
252	0xbeb93688	-0.36174417
253	0x3efbef89	0.49206188
254	0xbe909947	-0.2824194
255	0xbd602460	-0.05472219

c_fc2.bias f4 [64]
0	0xbe0a8d3e	-0.13530442
1	0xbdec16cc	-0.11527786
2	0xbdbdc955	-0.09266917
3	0x3de79f53	0.113096856
4	0x3dd8c8bf	0.10585164
5	0x3dc06652	0.09394516
6	0x3dea9a92	0.11455263
7	0x3dcb22e4	0.09918764
8	0x3e178f0b	0.1480066
9	0xbdbb829a	-0.0915577
10	0xbda6afe3	-0.081390165
11	0x3dda16f1	0.10648907
12	0xbdb34d25	-0.087549485
13	0x3db46c22	0.08809687
14	0x3df46ea2	0.11935164
15	0xbdbb4bde	-0.0914533
16	0xbe0ff4e4	-0.14058262
17	0xbdc36664	-0.09541014
18	0xbdc2dd6f	-0.09514891
19	0xbdd36018	-0.10321063
20	0x3ddaa072	0.10675134
21	0x3e06849a	0.13136521
22	0xbdb2619d	-0.087100245
23	0xbdf32f60	-0.118742704
24	0x3db1dd2f	0.086847655
25	0x3dc6fb2b	0.09715875
26	0x3df0ea3c	0.11763427
27	0x3e1689ba	0.14700976
28	0xbde7e2b3	-0.11322536
29	0x3dde3f84	0.108519584
30	0x3dcb62cb	0.09930953
31	0xbde53883	-0.111924194
32	0xbdce202e	-0.100647315
33	0xbdc9b810	-0.0984956
34	0xbdec29b5	-0.115313925
35	0x3db5c1d6	0.08874862
36	0xbdeaed4f	-0.11471044
37	0x3df5f59f	0.12009739
38	0x3dd84992	0.105609074
39	0x3e2b98fe	0.1675758
40	0xbe142588	-0.14467442
41	0x3dac2af2	0.08406629
42	0xbdd7a1c4	-0.10528901
43	0x3dd2a46c	0.10285267
44	0x3dc12710	0.09431279
45	0xbdd23954	-0.10264841
46	0x3df44d3f	0.11928796
47	0xbdebb11e	-0.11508392
48	0x3da1cf9e	0.07900928
49	0x3dc2567b	0.09489151
50	0x3dcc3c13	0.09972396
51	0x3df2fa62	0.11864163
52	0x3df0a47c	0.11750123
53	0x3dc8f254	0.098118454
54	0x3de3e46c	0.111275524
55	0x3da95a3d	0.08269165
56	0xbdb94e7b	-0.09048172
57	0xbe38339c	-0.17988437
58	0x3dfa2088	0.12213236
59	0x3deb2175	0.11480991
60	0x3dd95dd7	0.10613602
61	0xbdac8e8c	-0.08425626
62	0xbdf1615b	-0.11786147
63	0x3dd8de95	0.10589329

c_fc3.weight f4 [1, 64]
0	0xc0afc883	-5.4932265
1	0xc0b2c063	-5.5859847
2	0xc0afb374	-5.490656
3	0x40b18ea0	5.5486603
4	0x40af8db7	5.486049
5	0x40b487b6	5.6415663
6	0x40b011ee	5.5021887
7	0x40b3258e	5.5983343
8	0x40af1624	5.4714527
9	0xc0b70695	-5.7195535
10	0xc0b484b9	-5.6412015
11	0x40b19378	5.5492516
12	0xc0b2d476	-5.588435
13	0x40b8baa6	5.772784
14	0x40b167b0	5.543907
15	0xc0b3b828	-5.61623
16	0xc0b035f6	-5.506587
17	0xc0b32bb9	-5.599087
18	0xc0b36ecb	-5.6072745
19	0xc0b9a474	-5.801325
20	0x40b153be	5.5414724
21	0x40af9892	5.4873743
22	0xc0b36ceb	-5.6070457
23	0xc0b083de	-5.516097
24	0x40b2ed97	5.5915027
25	0x40b27d6e	5.5778112
26	0x40af81c3	5.48459
27	0x40afd5d1	5.4948506
28	0xc0b285b2	-5.57882
29	0x40b301da	5.593976
30	0x40af7fd3	5.4843535
31	0xc0b072d6	-5.514018
32	0xc0b83257	-5.756145
33	0xc0b2fcb8	-5.5933495
34	0xc0b1b633	-5.553491
35	0x40b34398	5.602001
36	0xc0b03ef5	-5.507685
37	0x40b0df44	5.527254
38	0x40b2377e	5.569274
39	0x40afc12e	5.4923315
40	0xc0b03d25	-5.507464
41	0x40b147ac	5.539999
42	0xc0afa64e	-5.489051
43	0x40b10fec	5.5331936
44	0x40b299d3	5.5812774
45	0xc0b25b9f	-5.573684
46	0x40b08ea5	5.5174127
47	0xc0b04511	-5.508431
48	0x40b1d62d	5.5573945
49	0x40b39cf3	5.612909
50	0x40b60664	5.68828
51	0x40b10c34	5.5327396
52	0x40af9f86	5.488223
53	0x40b2555f	5.5729213
54	0x40b553f2	5.666497
55	0x40b4f6d6	5.6551313
56	0xc0b008b5	-5.501063
57	0xc0afed5f	-5.497726
58	0x40b108d8	5.5323296
59	0x40b2529d	5.5725846
60	0x40b4ca35	5.6496835
61	0xc0b86b5f	-5.763107
62	0xc0b08174	-5.5158024
63	0x40b35f2a	5.6053667
