PPO/model/ppo_499.pth (torch_old, 42209 bytes, 12 tensors)

a_logstd f4 [1, 3]
000000 00 ed c8 bd fb 9d bc bd c2 f7 e5 bd
       -0.09810829 -0.0920982 -0.11228897

a_fc1.weight f4 [64, 11]
000000 a8 88 52 3e 7e d0 8d 3d 0e 68 45 bd a0 46 93 be
       0.20559943 0.06924532 -0.048194937 -0.2876482
000010 f1 3a 70 3d 93 30 83 be 5b 64 0f be f7 2b ac bc
       0.05864996 -0.25622997 -0.14003126 -0.021017058
000020 dc 84 30 be fb e9 b0 bd 96 9c a7 bd 6c fc 3b 3e
       -0.17238182 -0.08638378 -0.08184163 0.1835801
000030 72 c9 fc bd 58 31 66 be 04 64 3f 3c 11 d1 1e 3d
       -0.1234311 -0.2247976 0.01168156 0.0387736
000040 23 e5 20 be 79 02 92 bd a0 5c a8 be bd 49 b9 bc
       -0.15712409 -0.07129378 -0.32883167 -0.022618169
000050 0d 53 40 be bf 9a 2b bd 91 f2 6a be cc bd 5f 3e
       -0.18781681 -0.041895624 -0.22944094 0.21849746
000060 ee c2 0a 3d f0 89 51 3d 37 ff 6b 3e a8 a8 55 bc
       0.033877306 0.051156938 0.23046575 -0.013040699
000070 0e 37 30 3e 0c f7 8d 3e 03 a8 c2 bc d8 4a 7e bd
       0.17208502 0.27727544 -0.023761755 -0.062083095
000080 cd 3c 56 be 4c 0e d6 3d b5 e7 59 3e 26 af 78 3e
       -0.20921631 0.10451946 0.21279795 0.24285564
000090 c2 8d 38 be ec 10 b2 3e 83 99 b4 3d 7a 22 34 3e
       -0.18022826 0.34778535 0.088183425 0.17591277
0000a0 7d 7f 0b 3e e8 0d f1 3d f3 34 be 3d 19 53 81 bd
       0.13622852 0.117702305 0.09287443 -0.06314678
0000b0 e8 27 83 be 9d 82 3a 3e ed 6e dc bd fd 82 41 3e
       -0.25616384 0.18213888 -0.10763345 0.18897624
0000c0 11 bc 19 39 22 65 1f 3e a4 9f 67 be ac 2a 63 3e
       0.00014661277 0.15565923 -0.22619492 0.22184247
0000d0 a3 b1 c2 3b 13 0a 46 bd 46 08 b4 3b d5 87 7d bd
       0.005941586 -0.04834945 0.0054941503 -0.061897118
0000e0 b5 60 ce bd 56 de 6c bd 29 21 1a 3e 32 55 2f be
       -0.10077039 -0.057829224 0.15051712 -0.17122343
0000f0 cf cc c7 bd fc b0 8e 3c 44 15 7a be 02 22 5d bd
       -0.09755861 0.017418377 -0.24422175 -0.05398751
000100 09 f7 d4 bb 49 48 aa 3d 28 0c 92 3d cf 38 57 3e
       -0.0064991754 0.083145685 0.07131225 0.21017765
000110 d4 9a c6 3d 44 4a c3 bd 61 93 8e 3d 3d 05 03 3e
       0.096975 -0.095356494 0.06961704 0.12794967
000120 9c 8f b0 bd 86 20 0d be f9 22 28 3e 7e e8 d3 bd
       -0.08621141 -0.13781938 0.16419591 -0.10347079
000130 8f 0f 73 bd 6f 54 c6 3d ab 4d 84 be ed 00 d1 3d
       -0.05934101 0.09684073 -0.25840506 0.10205255
000140 57 a2 4e 3e b1 7f 7b 3c 0b 54 cc 3d d2 3c 10 3d
       0.20179115 0.015350268 0.099769674 0.035214253
000150 08 33 d4 be a2 d1 f3 3c 07 72 e7 bd 51 da 5a 3d
       -0.41445184 0.029763047 -0.11301046 0.05343086
000160 63 3f b3 3e b2 35 5d be 4d 0b 89 bd 28 f5 fa bd
       0.35009298 -0.21602514 -0.066916086 -0.12253791
000170 77 be 9a be 70 0a 35 3e e0 63 21 be 84 ac bc bd
       -0.30223438 0.17679763 -0.15760756 -0.09212592
000180 e3 5a 1c be 17 dc b5 3d e7 e7 9f 3b aa 49 6d bd
       -0.15269046 0.088798694 0.00487994 -0.05793158
000190 b0 1b 2b be 18 6f 48 be 8c 75 15 3e 90 aa 7f be
       -0.1670978 -0.19573629 0.14595622 -0.24967408
0001a0 22 57 14 bc 26 ae 60 bd 00 42 7a be fc 90 16 bd
       -0.009053977 -0.05485358 -0.2443924 -0.03675936
0001b0 b6 37 51 bc 6c 07 d3 3d c5 10 56 be 95 44 e0 3d
       -0.01276963 0.1030415 -0.20904835 0.10950581
0001c0 b6 80 9d bd a1 8f 1d be c5 62 94 3d 46 ed 33 3e
       -0.07690565 -0.15386821 0.07245401 0.17570981
0001d0 43 6a 27 3c eb 6f 74 bd ec 65 28 3e cb e5 9f bd
       0.010218206 -0.059677046 0.1644513 -0.078075014
0001e0 6c 05 96 bd 56 d2 67 3e 0f 2d 55 be c7 d2 f5 3b
       -0.07325253 0.2263883 -0.2081797 0.0075019333
0001f0 f8 ea e9 bd 6b 64 41 bd 3b 26 b0 3d 8a 89 7b bd
       -0.1142177 -0.047214907 0.08601042 -0.061410464
000200 fb 29 25 be 8b 26 ec bc 73 27 3c 3c 0d 54 5a 3d
       -0.16129296 -0.028826972 0.011484015 0.053302813
000210 a5 20 08 3e d5 4d 42 bc b0 86 96 bd ff 7d 58 bb
       0.13293703 -0.011859377 -0.07349908 -0.0033034084
000220 b9 2a 8f 3e f7 58 67 be 87 25 9d bd f3 77 a0 be
       0.27962282 -0.22592531 -0.076731734 -0.31341514
000230 1b 9b fe 3d 65 22 98 bd a6 8a 83 bd a4 28 73 be
       0.12431928 -0.07428435 -0.064229295 -0.23745972
000240 8a be 0c 3e 61 1a 06 bc ab fa 24 be 73 8c 37 bd
       0.1374456 -0.008185 -0.16111247 -0.044811677
000250 f8 5a 4f 3e cd f1 9e bc d2 f4 a4 3e c6 4b a7 3d
       0.20249546 -0.019402409 0.32218033 0.081687495
000260 5c 10 9b bc 31 cf e2 bd 91 54 17 3e 19 4a 62 be
       -0.0189287 -0.11074675 0.14778353 -0.22098579
000270 a9 3c 07 be a3 fa 12 be 26 92 7a be 34 ab 43 be
       -0.13206734 -0.14353423 -0.24469814 -0.19108278
000280 eb 1f ed bd 00 04 79 be 94 a1 f0 bd 78 be 9d bc
       -0.115783535 -0.24317932 -0.117495686 -0.019255862
000290 13 7a c8 3a 9a c4 77 be 61 62 4f be 50 41 d4 3c
       0.001529517 -0.24196091 -0.20252372 0.02591005
0002a0 d0 76 d8 3c a5 33 ad 3d ae 25 e4 3d fd 0c 5d bd
       0.026423842 0.08457116 0.11139999 -0.053967465
0002b0 cc ce 09 3e fc 3c 91 3d 61 62 50 3e 98 61 4d bd
       0.13457793 0.0709171 0.20350029 -0.0501419
0002c0 ef 8e 95 3e 7d 0a d7 3c ee da 35 3d b1 6e b1 bd
       0.29210612 0.026250118 0.04439824 -0.08663691
0002d0 73 87 02 be 8e 48 d3 bd 8b dd 83 3d e5 c8 3e be
       -0.12746982 -0.10316573 0.0643874 -0.18631323
0002e0 20 ad f2 bd 5d 8d f9 bc 46 7e 7c 3e a0 09 38 be
       -0.11849427 -0.030462915 0.24657544 -0.17972422
0002f0 ec 3c 8e 3d cc b4 1b bc 4c 11 ed bd af a6 7b bb
       0.06945214 -0.009503555 -0.11575565 -0.0038398912
000300 6c 53 89 bd 7c 42 d1 bd a4 d4 dc 3d 63 7e 26 3e
       -0.067053646 -0.10217759 0.107827455 0.1625915
000310 4d ed 4d 3e 93 1e 39 3e 30 1d 3d be 88 f9 41 bb
       0.20110054 0.1807807 -0.18468165 -0.0029598195
000320 e8 81 27 bd 10 9d df bd 60 89 66 be bd fd 32 bc
       -0.040895373 -0.10918629 -0.22513342 -0.010924754
000330 95 1f b9 3c 6b 02 90 3e 2b 0a b6 bd 14 19 28 3d
       0.022598067 0.28126845 -0.08888658 0.04103954
000340 39 43 ea bd 10 f7 07 3e 1e 10 3a 3c 8b 47 41 bd
       -0.11438603 0.1327784 0.011356382 -0.04718737
000350 f3 f8 ea 3d 93 38 a1 bd 65 4a 68 3d 33 f0 7f be
       0.114732645 -0.07872119 0.056711573 -0.24993972
000360 33 11 b2 3e ae fe 33 3d f6 d2 95 3d 9a 09 ff 39
       0.34778747 0.043944053 0.07315628 0.00048644544
000370 fa 76 e2 bd 70 9a 0b 3e 03 79 cb 3c ce d6 30 3e
       -0.11057849 0.13633132 0.024837976 0.17269441
000380 92 a3 12 be e5 10 0b 3e a9 eb 03 be ab c6 51 3e
       -0.1432021 0.13580664 -0.12882866 0.20485942
000390 34 cd 50 bd 6a 90 9b bd 91 b2 6a be bf 6a e8 3d
       -0.050976947 -0.07595904 -0.2291968 0.11348485
0003a0 d8 b7 79 be 69 f5 e8 bd b3 70 9b 3d ab ac a3 bd
       -0.24386537 -0.11374933 0.07589855 -0.07991918
0003b0 29 2c 66 bd 9d 50 42 bd 31 0b 90 be f7 ba 97 bd
       -0.05619446 -0.04744016 -0.28133538 -0.074087076
0003c0 b9 38 ba bc c4 c2 b7 3d e4 fd c8 bd d9 a1 39 3e
       -0.022732126 0.089726955 -0.09814051 0.18128146
0003d0 b3 13 40 be 00 d8 62 3d 1f d7 af bd de c1 86 3d
       -0.18757515 0.055381775 -0.08585953 0.06579946
0003e0 c8 40 c2 3d fb 4c 82 3e 16 78 40 bc 7c 13 e8 3d
       0.09485012 0.25449356 -0.011747381 0.11331841
0003f0 73 7a 81 3d a2 ae bf 3e 68 8d 97 be ac b5 17 be
       0.063221835 0.37437922 -0.29600072 -0.14815396

a_fc1.bias f4 [64]
000000 da 4c 84 3d 38 b3 31 3e 52 6f f3 bd 6c 61 e0 bd
       0.06459971 0.17353523 -0.11886467 -0.10956082
000010 85 cf 47 be 1a a2 da 3b b4 3b 6f 3d fa 73 6f 3d
       -0.19512756 0.006672156 0.058406547 0.058460213
000020 57 21 12 3e cf c7 25 3d 8e 9d 23 be f8 eb 95 3d
       0.1427053 0.040473755 -0.15978071 0.07320398
000030 23 85 62 3e ce eb ba bc fe cc 79 3e 6a 9b 53 be
       0.221211 -0.022817519 0.24394605 -0.20664755
000040 7a 7a e0 3d 19 62 0a be 1d 4a 93 bd 05 06 1c bd
       0.109608606 -0.13513984 -0.0719187 -0.03809168
000050 b1 40 d9 bd 56 25 df 3d d9 af 3f be b5 cf 0a 3e
       -0.10608042 0.10895793 -0.18719424 0.13555796
000060 f3 86 0c bd af c6 81 3d 43 d2 35 3e f0 d9 1d bc
       -0.034308385 0.06336724 0.1775599 -0.00963448
000070 32 d4 2e be 31 d5 37 be 0c 00 18 be d7 a5 32 be
       -0.17073134 -0.1795242 -0.14843768 -0.17446075
000080 57 ab f8 bd 44 9f f5 3d 0c 18 f6 bc 3a ac 0e bd
       -0.121420555 0.11993268 -0.030040763 -0.034832217
000090 a8 e3 dd bd ee c1 b8 3d 1c 04 90 bd fe cb 53 be
       -0.108344376 0.09021364 -0.07032034 -0.20683286
0000a0 0e 89 b8 bd 70 8d 3c be c0 ca 28 3e f8 a8 83 bd
       -0.09010516 -0.18413329 0.16483593 -0.064287126
0000b0 e7 61 91 3d f2 0f f8 3d 87 89 1d 3e a3 05 bd 3d
       0.070987515 0.12112416 0.15384494 0.09229591
0000c0 e2 5f 08 be de b4 08 be 4f e5 ad bd 38 15 90 bd
       -0.13317826 -0.13350245 -0.08491003 -0.07035297
0000d0 5b 80 59 3e 43 db 9d bd ca 11 09 be 12 d4 b9 bd
       0.2124037 -0.077078365 -0.13385692 -0.09073652
0000e0 60 97 95 3d 90 89 c3 3d ee a1 14 be 95 bf 59 be
       0.07304263 0.09547722 -0.14514896 -0.21264489
0000f0 25 33 79 3c 92 4c d3 3c f1 f2 eb bd a4 f1 7d 3d
       0.015209948 0.025793348 -0.11520947 0.061998025

a_fc2.weight f4 [64, 64]
000000 46 70 96 be 14 4c ba bd 6e fe 59 3e fc 04 00 3e
       -0.29382533 -0.09096542 0.21288463 0.12501901
000010 b3 d6 3a 3e 47 23 cb bd 92 87 15 be f0 88 0a be
       0.18245964 -0.09918838 -0.14602497 -0.135288
000020 28 b0 43 be 87 65 8d 3c 56 27 5b 3e 80 40 ac bd
       -0.19110167 0.017260326 0.21401724 -0.0841074
000030 b7 1c 1f be c5 12 bb bd 55 d2 75 be 3d 4b 69 3e
       -0.15538298 -0.091344394 -0.24006017 0.22782607
000040 ee 6a 82 bc 73 a6 e7 bc 35 98 bc 3e f6 88 78 3c
       -0.015920129 -0.028277611 0.36834875 0.015169373
000050 e4 40 ac 3e 78 8e 25 be c7 c2 80 3d f9 d5 1e be
       0.33643258 -0.16167629 0.06287151 -0.15511312
000060 dd 37 36 be 41 22 00 be 0e 2f e9 bd 6e e0 17 3e
       -0.17794748 -0.12513067 -0.11385928 0.14831707
000070 ec e5 34 3d 87 f3 84 3d f4 9f 3f 3e f1 08 2b 3e
       0.044164583 0.06491762 0.18713361 0.1670263
000080 58 61 44 3d e2 a4 88 bd a9 c9 79 3c a7 55 2e 3d
       0.047944397 -0.06672074 0.015245833 0.042562153
000090 17 b4 69 3e 0d d9 c0 bd 67 57 57 3e ca 93 d7 3e
       0.22822605 -0.09416399 0.21029435 0.42104942
0000a0 36 c7 a9 3e 3d 89 e8 3d 9c a5 81 be cf 2d c0 3e
       0.33159798 0.11354301 -0.25321662 0.3753495
0000b0 a6 00 f3 3d 95 be 6c be 3e 36 d1 bd 35 79 a1 bd
       0.11865358 -0.23119576 -0.10215424 -0.078844465
0000c0 fc b4 2c 3d c1 62 70 3e 1c f7 28 bd d1 e3 70 3e
       0.042164788 0.23475172 -0.041251287 0.23524405
0000d0 92 b9 39 bd 31 01 c7 3c 22 29 ad 3d df 34 8d 3e
       -0.04534299 0.02429256 0.08455111 0.275794
0000e0 a4 75 aa bd af e5 74 bd 0a fa 7e 3d 8d 90 4e 3e
       -0.083232194 -0.059789356 0.062250175 0.20172329
0000f0 90 3b 82 3d 6f 01 df bc c0 ab f6 3d b7 dc a4 bd
       0.06359017 -0.027222363 0.120444775 -0.080499105
000100 8f a1 4c be 68 85 5b be ea 10 0c 3e b3 fc 85 bd
       -0.19983505 -0.21437609 0.13678327 -0.06542339
000110 35 5a 8a 3d 0c 9e e4 bd a0 8d a7 3d 75 6b 6c bc
       0.06755487 -0.111629575 0.0818131 -0.014429917
000120 d8 4a b0 bd 74 3a 95 be 2a 27 17 3e c3 f8 05 3e
       -0.08608025 -0.2914616 0.14761034 0.13083176
000130 8f 9d 07 3e 47 d6 1e 3d d2 0b 4f be dd 66 61 bc
       0.13243698 0.03877857 -0.20219353 -0.013757435
000140 2c 22 aa bc b0 89 8c bb 80 81 b6 3c a2 bb ac bc
       -0.020768248 -0.0042888746 0.022278547 -0.021085564
000150 64 a7 9b 3e ac 08 46 be 66 fd 65 bd d7 19 48 be
       0.30401146 -0.19339246 -0.056149863 -0.19541107
000160 43 a6 80 be 27 ba 51 3e d2 7a 59 bd 0c b4 8e 3e
       -0.25126848 0.20481168 -0.053095646 0.2787174
000170 76 6f 38 3e 51 ff 70 3e 8c b2 47 3d 8a b8 03 3e
       0.18011269 0.23534895 0.04875426 0.12863365
000180 df 9c 17 3e 54 ce ac be cb cc 0b 3e 6d 91 38 3c
       0.14805935 -0.33751166 0.13652341 0.011265141
000190 bd 25 9d 3d 15 a8 cc bd 00 a4 05 3c cd 27 e4 3c
       0.07673214 -0.099929966 0.008156776 0.02785101
0001a0 e0 c9 4f be 46 76 91 3e 14 54 b5 bd 74 bb 88 3e
       -0.20291853 0.28410548 -0.08853927 0.26705515
0001b0 76 6c 76 be d1 3d 32 be 86 bb 0a be a3 e3 eb bd
       -0.24064812 -0.17406394 -0.13548097 -0.11518028
0001c0 62 52 82 3d 71 ec da 3d 6e 5f 83 bd f0 b9 1c 3d
       0.063633695 0.10689629 -0.06414686 0.03826326
0001d0 96 cd e5 bd c4 7e cd 3c 1b 4a 3f 3d bf 6a a9 3d
       -0.11220853 0.02508486 0.04670153 0.08272313
0001e0 23 65 3d bd 3e e6 71 3e f8 98 88 3e 17 a1 a0 3d
       -0.04623903 0.23622987 0.26679206 0.078432254
0001f0 d3 40 2e bd 17 c2 14 3e d1 30 01 bd 68 dc 28 3e
       -0.04254229 0.14527164 -0.031540696 0.16490328
000200 ea 46 2f bd 9d 81 96 3d ef f9 2e be 1e a6 88 be
       -0.04279224 0.073489405 -0.1708753 -0.26689237
000210 b5 71 42 3d ec df aa 3d 95 ec 97 be b9 9b 80 3c
       0.04747172 0.08343491 -0.29672685 0.015699254
000220 48 e7 d5 3d 91 2a 4a be db 7b 8c bd 4a 69 92 3d
       0.10444504 -0.197428 -0.06859561 0.071489885
000230 06 22 0c 3e 13 07 8b be 40 9c bb 3c 25 77 0e be
       0.13684854 -0.27153835 0.022901654 -0.13912638
000240 1d ae 6b 3e c0 b5 a4 3b 60 a5 d7 be cd 75 a6 3d
       0.23015638 0.005026549 -0.4211836 0.081279375
000250 3f 7c 88 bc 29 ac 0f 3e 43 6e f4 bd be d3 68 3e
       -0.016660808 0.14030518 -0.11935093 0.22737023
000260 ba dd 98 3d 03 ad c3 bd 4b cd c5 3d 27 05 29 be
       0.07464166 -0.09554484 0.09658297 -0.16505872
000270 42 7d aa 3c d4 57 b1 be 42 2c 3d be 4e 0e d9 bc
       0.02081168 -0.3463732 -0.18473914 -0.026496079
000280 af 81 51 be 5d a0 6c 3e ec 72 54 be d7 33 78 be
       -0.20459627 0.23108049 -0.20746964 -0.24238525
000290 54 66 23 be c4 ba c2 3c ad 39 98 bd 3a ef 0c be
       -0.15957004 0.023770697 -0.07432876 -0.13763133
0002a0 80 7b 5e bc 5f a2 d9 bd b6 89 f4 3c ac be 1e be
       -0.013579249 -0.10626673 0.029850822 -0.15502423
0002b0 58 33 54 3e 86 9a 8f bc d1 1e 12 3e 49 4a 3d 3e
       0.20722711 -0.017529737 0.14269568 0.18485369
0002c0 83 83 04 bd 23 65 5d be 45 c9 2f 3d 8d 69 65 be
       -0.03235198 -0.21620612 0.042916555 -0.22403546
0002d0 70 22 53 3e a0 89 bf be 69 25 22 ba a5 fe 1f be
       0.20618606 -0.37409687 -0.0006185384 -0.15624483
0002e0 fa 4e a5 3d 78 d4 2d 3e 44 7c 6d be f3 24 62 be
       0.08071704 0.16975582 -0.23191935 -0.22084408
0002f0 79 8e dd 3d bc c0 a7 bd e1 ec 4b 3d 6f f6 ad 3d
       0.1081819 -0.08191058 0.049786452 0.08494269
000300 16 cf c4 bc 54 17 d1 bd 0b 38 b3 3e 4f e5 2a 3e
       -0.024024528 -0.102095276 0.35003695 0.16689037
000310 e5 dd 6e 3d 0f 27 d7 be 0e 53 27 3b d6 92 ed bd
       0.058317084 -0.42021987 0.0025531682 -0.11600272
000320 9f 1e a0 bd 23 5a 0c be 81 d9 ee 3d 05 f6 70 be
       -0.078183405 -0.1370626 0.11662579 -0.23531349
000330 b6 56 ec 3c 21 62 71 3e 12 2d a5 bd a7 c3 12 bc
       0.02884994 0.2357259 -0.08065237 -0.00895778
000340 5e 7a 6c 3d 01 ef 50 3e 29 7a bf bd 20 78 03 3e
       0.057733886 0.20403673 -0.09349472 0.12838793
000350 e5 33 92 3e 22 25 3e be 16 7e 9c 3d 14 ef 01 bd
       0.28555217 -0.18568853 0.076412365 -0.031722143
000360 b4 3a a6 be 83 84 5e be 50 f5 2c 3d 29 82 7e 3d
       -0.32466662 -0.21730237 0.042226136 0.06213585
000370 38 72 47 3e 4e 59 38 3e f6 32 4d 3d c7 18 26 3e
       0.19477165 0.18002817 0.05009743 0.1622039
000380 21 20 95 bd 03 3a 9c bd 37 fc a9 3d 6c 90 80 3e
       -0.07281519 -0.07628252 0.08300059 0.25110185
000390 70 be 23 bd df 50 ad be da 75 88 3e 66 48 4c 3e
       -0.039976537 -0.33850762 0.26652414 0.19949493
0003a0 c2 f6 47 3d 92 d1 72 3e 6c ea 24 3d 9c b1 c3 3e
       0.04881931 0.23712757 0.040262625 0.38221443
0003b0 a1 13 f0 be 3c 0a 72 3d 9f d5 e7 bd 57 04 ec ba
       -0.46889976 0.05909179 -0.11320042 -0.0018006664
0003c0 e9 c6 42 3e 42 8d 9a 3d e1 50 90 3d ea dd 58 3e
       0.1902119 0.07546474 0.070466764 0.21178403
0003d0 bd 39 08 3d 5f dd 09 3e 75 8d 8c 3d d1 78 8a 3e
       0.03325819 0.13463353 0.06862918 0.270453
0003e0 9a 6c 11 bd c1 f0 2f be 7c e5 00 3e f6 2a 79 3e
       -0.03550396 -0.17181684 0.12587541 0.24332795
0003f0 e4 80 46 3d ef f3 96 bc 6f 5b a4 bc 1c 22 e4 bd
       0.048462763 -0.018426863 -0.02006313 -0.11139318

a_fc2.bias f4 [64]
000000 79 bc 81 bd ba f3 ae bd 5b a5 23 3e eb 2f e1 bd
       -0.063347764 -0.08542581 0.15981047 -0.10995468
000010 00 a5 d5 3b d3 25 2e 3e af cf 65 3d 58 3d fa bb
       0.0065199137 0.17006616 0.056106266 -0.0076367073
000020 41 6a 14 3e d0 ba b0 bd 61 25 f5 3c f2 5f 78 bd
       0.14493658 -0.08629382 0.02992505 -0.060638376
000030 3a 82 e8 bd 3c d4 67 3d 8b 33 b1 bc 68 a3 e9 bd
       -0.11352964 0.056598887 -0.021631023 -0.114081204
000040 2c df 2f be 26 d2 30 3d 1f 62 cd 3d 1e 19 02 bd
       -0.17174977 0.043169163 0.10028481 -0.031762235
000050 18 0a fc 3c b5 2c b7 3d 4c 59 15 bc e5 80 03 bb
       0.030766532 0.08944074 -0.009115528 -0.002006584
000060 4d b9 cd 3d 38 55 d6 3d 46 41 c4 3d a6 73 c0 3c
       0.10045109 0.10465473 0.095827624 0.023492645
000070 bb e2 1c 3e 53 a1 55 3c 39 e3 f2 bd bb 9f f7 3d
       0.15320866 0.013038951 -0.118597455 0.12091013
000080 0d 8a d7 bd bc f9 58 bd 23 07 04 3d 93 aa 00 be
       -0.10524378 -0.05297254 0.03223337 -0.12565069
000090 2c f6 f2 bd 1f 25 3f be a4 fb 21 bd 8c 5c 2b bd
       -0.1186336 -0.18666504 -0.039546624 -0.041836306
0000a0 b6 37 24 3e 8a 5d b6 bd ef 81 0a be 95 5d 83 3d
       0.16036877 -0.0890456 -0.13526128 0.06414334
0000b0 dd 8e d5 bd 46 ab 68 bd c1 2f 0c bc 5a 4e 01 bd
       -0.1042764 -0.056803964 -0.008556307 -0.031568862
0000c0 5d 86 a1 bd 44 e4 9b bd 1b eb af bc ce e6 f1 3d
       -0.07886956 -0.076118976 -0.021474412 0.118116006
0000d0 4a 66 12 3e 39 2f b0 bc 06 b0 34 3e f3 42 ec bb
       0.14296833 -0.021506893 0.17645273 -0.0072101294
0000e0 cc db 29 be 75 8a 42 3d d5 34 8f bd 8f aa 6f bb
       -0.16587752 0.047495324 -0.06992499 -0.0036570167
0000f0 3e 81 2e 3e ec 3b cb 3b 07 7b 7d bd d2 b3 fd 3d
       0.1704149 0.0062022116 -0.061884906 0.12387814

a_fc3.weight f4 [3, 64]
000000 66 64 0b 3e 00 79 fa 3d 0d 8c ab bd 8c 74 dc 3d
       0.13612518 0.1223011 -0.08376322 0.10764417
000010 22 9b bc bd 19 56 a8 bd bc 0b eb bd 08 7a 45 bd
       -0.09209277 -0.08219547 -0.114768475 -0.04821208
000020 dc 99 02 be 0b 51 04 3e ca 6f ae 3c 97 86 42 bd
       -0.12754005 0.1292154 0.02129354 -0.047491636
000030 47 08 20 3e cc 87 8a bd 01 27 67 3c ea d4 05 3e
       0.15628158 -0.067641824 0.01410842 0.13069502
000040 0f 99 6c 3d ec 8f e9 3c a8 13 29 be ca 41 8b 3d
       0.057763156 0.02851101 -0.16511405 0.06799658
000050 cd d1 e7 bd c3 a6 f5 bd da 17 37 3d a6 3e bb 3c
       -0.11319313 -0.11994698 0.04470048 0.022857022
000060 ca 5e 7f bb 60 5d 0d be e8 f1 58 bd 58 5b 91 bd
       -0.003896641 -0.13805151 -0.052965075 -0.070975006
000070 d1 71 59 bd df 81 72 3d 5b 94 f9 3d 4d 0b 0e be
       -0.05308706 0.059205886 0.121865 -0.13871498
000080 4c 97 98 3d d4 17 b4 3d 97 1e 1b 3d b8 92 12 3e
       0.074507326 0.08793607 0.03787097 0.14313781
000090 d4 e1 f0 3d bd ff aa 3d 13 35 3c bd e5 39 25 3d
       0.11761823 0.083495595 -0.045949053 0.040338416
0000a0 63 db 2a be 89 f4 d3 3d d7 cb f8 3d 67 b6 39 bd
       -0.16685252 0.10349376 0.12148254 -0.045339968
0000b0 06 eb 03 3e a8 37 7c 3d 11 7d 00 3c 65 e1 f1 3d
       0.12882623 0.061576515 0.007842318 0.11810569
0000c0 f0 74 82 3d c4 6a fa 3d 1d 27 6c 3d a6 9d 8a bd
       0.0636996 0.12227395 0.05765449 -0.0676835
0000d0 24 5d 24 be 24 1c ee 3d 93 e3 b0 bd ae fa f5 bc
       -0.16051155 0.11626461 -0.08637156 -0.03002676
0000e0 fd 8f ea 3d 64 f2 8e bd f1 88 90 bb b3 ae 26 3c
       0.11453245 -0.06979826 -0.004410856 0.0101734875
0000f0 16 79 19 be c2 c7 a8 bd 31 a9 0c 3e 29 b8 ed bc
       -0.14987597 -0.08241226 0.13736416 -0.029018478
000100 22 11 d0 bd 3e ac 61 bd 5c 7a d6 3d e9 b2 ee bd
       -0.10159518 -0.055095904 0.10472557 -0.11655218
000110 aa 32 f5 3d c7 4f 28 3d 31 5b ef 3d ec 8e 38 3e
       0.11972554 0.041091707 0.11687315 0.1802327
000120 54 10 7c 3b 27 49 08 be 76 e1 87 3c 0e 94 22 be
       0.003846188 -0.13309155 0.016587 -0.15876791
000130 c8 72 bb bc 61 62 41 3d 3d ac c9 bc dc 06 83 bd
       -0.02288188 0.047212962 -0.024618262 -0.06397793
000140 55 c3 7a bd 6b fc de 3d 3f f6 79 bc 11 b5 56 bc
       -0.06122144 0.10887989 -0.015256464 -0.013104693
000150 f8 79 0f 3e 49 d2 fe 3d c4 b2 3f be f0 2b 27 3d
       0.14011371 0.124424525 -0.18720537 0.040813386
000160 37 15 da bc 28 52 41 3d 60 49 1d 3d 95 7e 8f bc
       -0.026621444 0.04719749 0.038400054 -0.017516414
000170 d9 41 41 3d 6b 5c ac 3b be 35 62 3d 5a 34 84 bb
       0.047181938 0.0052600405 0.055227034 -0.004034561
000180 9f 30 0c bd b3 c0 39 3d 88 88 83 bd c4 31 ce bc
       -0.034226056 0.045349788 -0.06422526 -0.025170214
000190 97 6b de bd cd 1c 5f bd 97 27 2a be 44 0c fa bc
       -0.10860365 -0.054470826 -0.16616665 -0.030523427
0001a0 ff 4a 32 bc 58 78 18 be f9 cd d0 bd 52 e2 1a 3e
       -0.010882138 -0.14889657 -0.10195536 0.15125397
0001b0 55 90 26 bc ea 93 45 be c4 9a 3b 3d 39 41 b1 bd
       -0.010166247 -0.19294706 0.045801893 -0.08655018
0001c0 bc 1e 85 3d 00 e7 16 be ad cf ba 3b f2 44 c7 3d
       0.06500003 -0.14736557 0.0057010264 0.09729947
0001d0 5b 7a bd bb 17 8b 95 bd f7 73 d7 3d 5f bf 8f 3c
       -0.005782408 -0.0730192 0.105201654 0.017547308
0001e0 d5 18 26 bd 65 63 16 3c 0b 31 a8 3d 97 f5 22 3d
       -0.040551025 0.009178971 0.08212479 0.039784994
0001f0 dc ea f9 3c 40 e1 98 3d b1 de 6e 3d e8 46 ed 3d
       0.030507497 0.07464838 0.058317844 0.1158579
000200 a5 c8 b4 bd fe 2e b1 bd cc 04 ee 3d aa 00 93 bd
       -0.088273324 -0.08651541 0.11622009 -0.07177861
000210 9c 80 57 bc 94 44 d7 3d bb ef 1b 3d 76 5d 22 bd
       -0.013153221 0.10511127 0.03807042 -0.039639913
000220 71 f1 f1 3d df 97 62 bd 6f 69 d3 3c 8c 2f 89 bd
       0.118136294 -0.055320617 0.02580711 -0.06698522
000230 42 4f 08 be 31 a8 0f 3d 75 b2 90 3c 0d eb b4 bd
       -0.13311484 0.03507251 0.01766322 -0.08833895
000240 a3 f1 2e be 1a f1 5e 3d 37 a6 04 3e b7 04 96 bd
       -0.17084365 0.05442915 0.12954031 -0.07325118
000250 a3 8c 71 bc e2 4b 80 3d 27 2a b3 3c 8a e1 64 3c
       -0.014743003 0.062644735 0.021870686 0.013969788
000260 d1 72 af 3d 5a a5 ec 3d 8b 72 56 3d d2 97 13 3c
       0.08566821 0.11554976 0.05235533 0.009008365
000270 aa 99 1e 3e 7e 98 8f 3a 3d 21 8b bd 48 62 06 3e
       0.15488306 0.001095548 -0.06793449 0.13123429
000280 3e 6b 96 bd 4c a9 75 bd a2 d8 45 3c 43 3d e9 bd
       -0.073446736 -0.059975907 0.012075575 -0.11388638
000290 c0 3d 96 bd 91 91 0a be 2c 28 84 bd bb 8d 02 bd
       -0.07335997 -0.13532092 -0.06452975 -0.031873446
0002a0 77 7b 25 3e 16 3c 4f bd 5b 7d a8 bd e2 e1 27 3d
       0.1616038 -0.05059441 -0.08227035 0.040986903
0002b0 8e 7c 0a be d5 5d 84 bd f8 80 8b bc a6 39 0f bd
       -0.13524076 -0.064632095 -0.01702927 -0.034967087
0002c0 40 20 83 bc b9 7f 9b bc 05 e7 8b bd e9 bc a1 3d
       -0.016006589 -0.018981801 -0.06831173 0.0789736
0002d0 38 19 1f 3e 76 70 52 bd 11 64 f0 3d 94 4b 28 3d
       0.15536964 -0.051376782 0.11737836 0.041087702
0002e0 f8 c9 fe bd 40 43 99 3d 47 26 8c bd 5f 1b 46 3b
       -0.12440866 0.0748353 -0.06843238 0.0030228717
0002f0 8f 74 14 3e 2d d5 19 3d be b9 e7 bd fc 04 f1 3d
       0.14497589 0.037556816 -0.113147244 0.11768529

a_fc3.bias f4 [3]
000000 ad b8 21 bd d4 0c aa 3c 09 e8 3d 3e
       -0.03948276 0.02075807 0.18545546

c_fc1.weight f4 [64, 11]
000000 30 d7 18 3e 19 2b 83 be 68 9a bf bd 99 4c d3 bd
       0.14925838 -0.25618818 -0.093556225 -0.10317344
000010 8e 04 b8 3c 11 4e a4 bd 8a 46 fc bd 7a 90 c7 bd
       0.02246311 -0.080227025 -0.12318142 -0.097443536
000020 43 dd 24 be f6 76 c4 bd b1 77 90 bd 00 f4 9d 3e
       -0.1610003 -0.095930025 -0.07054079 0.3085022
000030 af 25 44 3e f4 7f af 3e 1a 9a e1 3d 61 76 95 be
       0.19155 0.34277308 0.11015721 -0.29191878
000040 e6 44 fd be 70 95 20 3e 52 7c 12 be fc 2c 02 be
       -0.49466628 0.15682006 -0.14305237 -0.12712473
000050 33 79 61 3e 55 47 b1 3e 28 d6 ca 3c 03 f5 c5 3b
       0.2201889 0.34624735 0.02476032 0.0060411706
000060 5a c4 4a bd fc 20 e3 bd be 38 60 3e 57 98 50 be
       -0.04950366 -0.11090276 0.21896645 -0.20370613
000070 2e 82 9e bd 17 ca b8 3d fc 2a a1 be 01 73 4f bd
       -0.077396736 0.090229206 -0.31478107 -0.050646786
000080 fd 36 f9 3d 77 cc 6a 3e 0f e4 85 bd f1 1e a4 be
       0.12168691 0.2292956 -0.06537639 -0.32054856
000090 2b ce 7f be 30 fc 85 3e c9 7c ac bd e0 11 3b be
       -0.2498099 0.26168966 -0.084222384 -0.18268538
0000a0 36 1f 94 3d ec cb a2 be 58 18 87 be eb 50 83 bd
       0.072325155 -0.31796205 -0.2638576 -0.06411918
0000b0 c6 8d 9d 3e 6a 42 d3 be 21 6f 23 be f7 37 0f be
       0.30772227 -0.41261607 -0.15960361 -0.13986193
0000c0 61 a1 53 3e 52 c6 67 3d 2f 25 df bd f1 23 42 bc
       0.2066703 0.056585617 -0.10895764 -0.011849389
0000d0 73 f3 47 be 5d 55 59 be 4a 45 d7 bd 3b 87 8c be
       -0.19526462 -0.2122397 -0.10511263 -0.27446923
0000e0 af 38 8e bb 9e ab 2e 3d b7 d2 f4 3d 02 cb a8 3e
       -0.0043402533 0.042644136 0.11954253 0.32967383
0000f0 b5 be cb 3e ff a2 6b 3e 9d ed 26 3e 4f f0 90 3c
       0.39793935 0.23011397 0.1630158 0.017692713
000100 12 59 1d be 2b 47 e7 bd 96 a1 36 3e 69 5d be 3d
       -0.15366009 -0.11292871 0.17835078 0.0929516
000110 5c ed 9b 3e 64 7b 0e 3e ef 36 e9 bd 99 cf 34 be
       0.30454528 0.13914257 -0.11387431 -0.17657317
000120 3e d7 09 3e bb f1 d3 3d cf 23 d3 3d ba a9 0b 3e
       0.13461015 0.10348841 0.10309564 0.13638964
000130 d4 63 25 3d d2 d8 e5 3d 8f 48 b7 bc 36 76 23 3d
       0.040378407 0.11222996 -0.022373466 0.039907657
000140 f1 f8 c0 be d1 32 1d 3d 6c 22 96 bb 9a 3a 4c bd
       -0.37689927 0.03837854 -0.00458174 -0.049860574
000150 79 39 b8 be f8 fe ff bd cd c5 6d be d9 db 0c 3d
       -0.35981348 -0.12499803 -0.23219986 0.03438935
000160 88 75 06 3e c6 82 ad be 5c dc 07 bc e7 fb 1a 3d
       0.13130772 -0.33888835 -0.008292284 0.03783789
000170 b3 d8 bb 3d e3 9a 31 3e 39 ca f0 bd 0f 32 67 bc
       0.091721915 0.17344241 -0.11757321 -0.014111056
000180 67 67 3a be b1 7f d0 bd 79 10 c0 bd 07 40 3c 3d
       -0.18203507 -0.10180605 -0.09378142 0.0459595
000190 57 f1 dd 3d fe d2 41 3e c3 0d 82 3e 61 c9 98 be
       0.108370475 0.18928143 0.25401124 -0.2984114
0001a0 7e 9a 68 bd 27 81 f1 3c 46 00 52 bd af 38 d2 3d
       -0.05678796 0.02948053 -0.051269792 0.10264718
0001b0 0d 41 f8 3a 73 d5 93 3d 2d 27 01 be 95 07 22 3e
       0.0018940285 0.072184466 -0.126126 0.15823205
0001c0 c0 b7 58 3e c9 14 29 3e 55 8d 6c be fe 24 85 bd
       0.21163845 0.16511835 -0.23100789 -0.06501196
0001d0 b4 d1 8a 3e d7 1c a7 3d dd 73 35 3e ff 2f f3 bc
       0.27113116 0.08159798 0.1771998 -0.029685972
0001e0 04 79 b7 bd 1d 6c 69 3e a1 1b 68 be 5b 8e 40 be
       -0.08958629 0.22795148 -0.2266679 -0.18804304
0001f0 a7 a4 85 be 6b 14 09 3c e6 fb 7d 3e dd 6a e7 bd
       -0.26102182 0.008366684 0.24803123 -0.112996794
000200 f2 86 d0 3c df 76 1c be 4e ef 57 be 86 d7 4e be
       0.025454972 -0.1527972 -0.21087381 -0.20199403
000210 4d b7 29 be 4a 00 7b 3e 4e 8f b9 3e 1c a4 70 3e
       -0.1657383 0.24511829 0.36242145 0.23500103
000220 a3 05 98 bb 55 a7 81 be 15 17 a4 3d d3 37 dd 3d
       -0.004639344 -0.25322977 0.08012215 0.10801663
000230 09 a5 3d 3e e0 21 91 3e b0 6f 1b 3e b5 e2 0c 3e
       0.18519987 0.28346157 0.15179324 0.13758357
000240 ab 8d cd 3d 6f d0 44 be 87 de 1a be 1e fa b2 be
       0.10036787 -0.19220136 -0.1512395 -0.3495645
000250 dd f1 02 be 7e 34 d8 bd 97 a7 18 be 34 db 7a be
       -0.12787576 -0.10556887 -0.1490768 -0.24497682
000260 6d 60 ba bd 94 8a e9 3d 43 9c b8 3d 47 6e 40 bb
       -0.09100423 0.11403385 0.090141796 -0.0029362605
000270 f5 4a a4 3c 4f 40 85 3d 75 77 54 bc f7 0c a5 be
       0.020055274 0.065064065 -0.012967934 -0.32236454
000280 a7 43 2c 3c 4e b7 4a bd 05 06 b0 3d 65 bf 98 3d
       0.010514176 -0.04949122 0.08594898 0.074583806
000290 ee 09 25 3d 1a da 4b 3e f2 07 a5 3c e8 8e 55 be
       0.040292673 0.19907418 0.02014539 -0.20855296
0002a0 a5 f1 d6 bd 33 05 64 bd 47 f8 f8 3d e0 25 af bd
       -0.10495309 -0.05566902 0.1215673 -0.08552146
0002b0 f9 e1 77 3d d6 6d 70 be ce 8e 8f be 74 d8 f4 bd
       0.06051824 -0.23479399 -0.2803864 -0.11955348
0002c0 79 2f 5f bc dd 83 f7 3d b8 e8 15 be fb 0d 36 3d
       -0.013622158 0.12085698 -0.14639556 0.044446927
0002d0 e4 2c 2a 3d fb 3f 48 be e4 00 64 3d 7b a7 7e be
       0.041546717 -0.19555657 0.055664912 -0.24868576
0002e0 78 58 8e 3c f6 0f c6 3e 46 f6 90 3c f3 4e 47 be
       0.01737617 0.38684052 0.017695557 -0.1946371
0002f0 ca 7b c0 3d 6c 19 c9 3e 97 b9 d9 bd 3d 07 4b 3d
       0.09398611 0.39277208 -0.106311016 0.04956745
000300 27 07 2d bb 43 3c 25 3e 06 7b f3 3d f8 c6 89 3e
       -0.0026401968 0.1613627 0.11888699 0.26909614
000310 ea a5 8a 3e 9e 83 94 3d 06 b3 4f 3e 99 db c0 bd
       0.27079707 0.072516665 0.20283136 -0.09416885
000320 9b d2 81 be 86 a1 e3 bd 3d 7a 9e 3c 7d 84 0f 3e
       -0.25355992 -0.111147925 0.019345397 0.14015384
000330 b6 3a 95 bc 12 66 70 bc 97 70 09 be 04 65 25 3e
       -0.018216472 -0.014672773 -0.13421856 0.16151816
000340 43 32 6d 3e 72 99 99 bd e5 91 b9 3e 2d 01 59 3e
       0.23163705 -0.074999705 0.3624412 0.21191855
000350 a6 d4 ca 3d 88 9b af bb dd 9e 38 bd 1d bc 8d 3e
       0.09903841 -0.005359117 -0.04507338 0.27682582
000360 9e fc d9 bd 03 2f 85 3e 9a 44 1f 3c 39 54 2d bd
       -0.10643886 0.2601243 0.009720946 -0.04231665
000370 a7 3d 22 be 0c 61 48 3d 5d 70 93 3e cd 5f 87 3e
       -0.15843831 0.048920676 0.28796664 0.26440278
000380 d7 ab 90 bd 9b fc c7 bc 4d 1d c4 3e 82 47 08 3e
       -0.07064026 -0.024412444 0.38303605 0.13308528
000390 98 6a a9 3c da eb e3 3c be e9 5c 3d 64 f1 a5 3e
       0.02068071 0.027822424 0.05393385 0.3241073
0003a0 1f 4c 30 bd ff e0 85 be 27 67 97 be 3d 44 25 be
       -0.043041345 -0.2614822 -0.29570886 -0.16139312
0003b0 fb c6 15 3d 94 cf 4e be 08 a2 72 bd e3 c7 90 be
       0.036566716 -0.20196372 -0.059236556 -0.282775
0003c0 92 31 17 be 56 5a ce bd 36 82 34 3e e3 01 62 be
       -0.14765003 -0.10075824 0.17627797 -0.22071032
0003d0 20 5c aa be 3d 7c df bd 84 29 4e 3e 87 56 76 3e
       -0.3327341 -0.109123684 0.20133024 0.24056445
0003e0 fc 11 03 be 85 91 4c be db ff f3 bd 70 65 65 be
       -0.12799829 -0.19977386 -0.11914035 -0.22401977
0003f0 f1 28 37 be 6f 72 a8 bd 22 cc 83 bc 37 74 30 be
       -0.17886712 -0.082249515 -0.016088549 -0.17231832

c_fc1.bias f4 [64]
000000 97 4e 87 3e 40 48 99 bd 33 1d 0f 3e 3a eb 47 3e
       0.26427147 -0.07484484 0.13975982 0.19523326
000010 ac e7 84 3e c9 e9 0d bd de ca 07 be f7 da 35 3e
       0.25958002 -0.034646783 -0.13260981 0.1775931
000020 c8 44 54 3e ac a1 16 be 07 c3 62 be 99 e3 48 3e
       0.20729363 -0.1471011 -0.2214471 0.19618072
000030 91 c4 68 be c5 c2 f3 3d 94 ec 0f be d4 71 48 3e
       -0.22731234 0.11902384 -0.14055091 0.19574672
000040 64 c9 2d bd 6e ad 5b be 06 24 0f 3e 45 f5 45 be
       -0.04242839 -0.21452877 0.13978586 -0.19331844
000050 4d e5 2d be 5c d5 73 3e af 9d 7a 3e c0 e6 06 3e
       -0.16982003 0.23811859 0.24474214 0.13173962
000060 dd 6e 10 3e 78 8a 4c be f7 c0 57 3e c9 49 3d 3e
       0.14104791 -0.19974697 0.21069704 0.18485178
000070 0e 19 30 be c6 ab 97 3e ae db 78 be 39 f1 3d be
       -0.17197058 0.2962324 -0.24302551 -0.1854905
000080 8b 1a fc bd 2f 0f 5d be 34 46 7f 3e 50 ea 06 3e
       -0.1230975 -0.21587823 0.24929124 0.1317532
000090 22 07 7a 3e 77 6b 46 be 37 fd 1c be c4 c4 e9 bd
       0.24416783 -0.19376932 -0.15330969 -0.11414483
0000a0 b8 c2 5d 3e 38 63 f9 bd 84 d7 26 bd d0 bc 92 3d
       0.2165631 -0.121771276 -0.040732875 0.071649194
0000b0 38 4c 8d 3e 1d cc 51 be 8c 33 3f be f7 a4 19 3e
       0.27597213 -0.2048802 -0.18672007 0.15004335
0000c0 d2 02 a6 be 4d 46 5d be c5 6c 57 be 52 c4 de bd
       -0.32424027 -0.21608849 -0.21037586 -0.10877289
0000d0 55 d2 30 3e 10 f9 f4 bd 0e 60 85 be e0 27 8e 3d
       0.17267735 -0.119615674 -0.26049846 0.06941199
0000e0 6b 8e 85 3e c6 1e 41 3e a7 06 b0 bd 13 d2 13 be
       0.2608522 0.18859395 -0.08595019 -0.14435606
0000f0 16 40 d4 3d 00 cd b6 be 14 34 a8 3e 03 ae 7d be
       0.10363786 -0.35703278 0.32852232 -0.24773411

c_fc2.weight f4 [64, 64]
000000 e9 f2 4e 3e 59 7e 07 bd 07 e3 2b 3e 01 1a 36 3e
       0.2020985 -0.03307948 0.16785823 0.17783357
000010 a5 50 2f 3e 83 a5 48 3e 47 3c fe bd 70 3a 6c 3e
       0.17120607 0.19594388 -0.12413841 0.23069167
000020 e0 de 73 bd 03 33 5d be 09 ef 20 be 06 87 19 bd
       -0.059538722 -0.2160149 -0.15716185 -0.037482284
000030 ca 8d e3 3c 7a ec 8b bd e3 62 de be d6 b0 d1 bd
       0.027777571 -0.06832214 -0.4343482 -0.10238807
000040 8f 2c 05 bb 7f 0d fc 3d 30 b8 85 3d 3f b1 51 be
       -0.0020320748 0.12307262 0.065292716 -0.2047777
000050 ba 77 be bd c2 48 fe 3d e9 48 3e 3e b1 9e 8c 3e
       -0.0930018 0.12416221 0.185825 0.27464822
000060 78 57 cd 3d 66 51 24 be 2b 8f 5d bd 75 b5 05 bd
       0.10026449 -0.16046676 -0.054091614 -0.032643754
000070 91 3d 5a be df ea 37 3e fc 16 cc bd 5c 43 d4 bd
       -0.21312548 0.1796069 -0.099653214 -0.1036441
000080 7d a6 09 be a1 3e 33 bd c6 93 b9 3d 15 ae f3 3c
       -0.13442416 -0.0437609 0.09061389 0.029746095
000090 c5 0c 5f 3e e3 df 87 be 24 5c 3b be 18 51 88 be
       0.21782215 -0.26538 -0.18296868 -0.2662437
0000a0 49 a8 1f 3e 9e 90 5f be b1 17 de bd d7 d1 64 3e
       0.1559154 -0.21832511 -0.108443625 0.22345673
0000b0 1f b5 cf 3d b4 0c 81 bc ce fa e8 bd 70 d8 93 3d
       0.10141968 -0.015753128 -0.11375962 0.072190166
0000c0 01 7d 4b be 5a 77 b1 bc 54 45 a1 bc 32 ee 4f 3d
       -0.19871904 -0.021663357 -0.019686379 0.05076427
0000d0 25 1b 6f 3e e4 95 6a be 46 ea 81 bd 71 f1 fc 3d
       0.23350199 -0.22908741 -0.06343512 0.12350739
0000e0 c2 85 85 be 28 2e a1 3d d0 e9 04 bf 27 49 9e 3d
       -0.26078612 0.07870132 -0.5191927 0.077287965
0000f0 8c 05 98 bd 86 83 23 be 49 b4 3f 3e b7 b3 ac be
       -0.07422933 -0.15968141 0.18721117 -0.33730862
000100 07 5b fc bd 0f fb d0 be f0 96 27 3e 6c 05 3e be
       -0.123220496 -0.40816543 0.16366172 -0.18556756
000110 34 7a a8 bd 14 23 80 3e 54 e8 39 bd dd 19 d5 3d
       -0.082264334 0.25026762 -0.04538758 0.10405324
000120 6e 00 b4 bc 09 b2 56 3e 69 da a5 3d 71 a2 6f be
       -0.021972861 0.20966353 0.08098299 -0.2340181
000130 94 e9 a2 3e 89 cb 99 be cc 1d 82 bd df 54 40 be
       0.3181883 -0.30038098 -0.063533396 -0.18782376
000140 98 f5 5d be 0b 05 20 3e 81 ce 24 be 46 85 23 3e
       -0.21675718 0.15626924 -0.160944 0.15968809
000150 a0 d6 89 3d cc 04 fa bd 41 a7 35 be 23 dd 5e bd
       0.067303896 -0.12207946 -0.17739584 -0.05441011
000160 3e 78 a8 3c 31 23 56 3e 63 7b f0 bd c8 3a 72 be
       0.020565148 0.20911862 -0.11742284 -0.23655236
000170 31 0b 5a 3e 9a f1 d8 be fc c9 0d 3d 9f fb 9b 3d
       0.21293332 -0.42371827 0.034616455 0.07616352
000180 a2 cf ce be 11 cf 16 3e e8 c1 46 bd a1 88 86 3d
       -0.40392786 0.14727427 -0.048524767 0.06569029
000190 00 6a e0 3c 8c dd be 3c fa bb 4c bd 8a ff 3a 3e
       0.027394295 0.023299001 -0.049983956 0.18261543
0001a0 78 51 94 3c 61 3d 99 bd c6 b8 c0 3e 2e 20 d3 3e
       0.018105254 -0.0748241 0.3764097 0.4123549
0001b0 0b 76 a6 be 3c 20 ec 3d 4d 2c 8e bc a4 32 98 3d
       -0.32511935 0.11529586 -0.017355109 0.07431534
0001c0 09 f3 b5 3d 01 fd db 3d ff f3 8f 3c 3f 92 90 3d
       0.08884246 0.10741616 0.017572401 0.07059144
0001d0 fc bd 44 be 7e ac 10 be 77 16 06 3d ed 0a 13 3e
       -0.19213098 -0.141283 0.032736268 0.14359637
0001e0 68 bf 32 be 8f 4c 8d 3d e1 e8 c7 3c 8b dd b1 bc
       -0.17455828 0.06899368 0.024403038 -0.021712085
0001f0 53 36 6d bd f7 7c cb bc 70 44 95 be cc 78 2a be
       -0.057913136 -0.024839861 -0.29153776 -0.16647643
000200 f3 5e db 3d fc 44 d1 be 63 d6 2c 3e 7a 40 a7 3d
       0.107114695 -0.40872943 0.16878657 0.08166595
000210 48 d2 cd 3d af c3 15 bc f5 da a8 be 24 40 8e 3b
       0.100498736 -0.009140893 -0.3297955 0.0043411423
000220 c1 fe ff bb 99 dc 3c be 1c 51 75 bd 86 0e be 3d
       -0.0078123515 -0.18443526 -0.059891805 0.09280114
000230 e0 3f 2d 3e 8a 7f ee 3d 0c 7c 83 be b5 0a 34 3e
       0.16918898 0.1164542 -0.25680578 0.1758221
000240 64 08 d5 bd 80 69 a3 3b 35 2a 9d 3e 5f 06 a3 be
       -0.10401991 0.004986942 0.30696264 -0.31840798
000250 01 9f 21 3e 2d a5 5e 3e e0 2b 35 bc c5 90 37 be
       0.15783311 0.21742697 -0.011057824 -0.17926319
000260 cb a1 a6 3e ec 99 aa be 59 55 70 3e 69 db 68 bc
       0.32545313 -0.33320558 0.23470058 -0.014212468
000270 88 cb d2 bd 21 31 ae 3e a8 76 36 be 51 24 28 be
       -0.10292727 0.34021857 -0.17818701 -0.16420104
000280 d8 91 6c bd d4 45 a5 bd 7a ba 7a 3e 69 59 bc bd
       -0.057756275 -0.08069959 0.24485198 -0.09196741
000290 26 81 f0 3d 93 52 02 be 7b 6b 52 bb 82 13 20 bd
       0.11743383 -0.12726812 -0.003210752 -0.039081104
0002a0 7b 5e 2a 3e 18 6a e0 be 9d 83 b5 3d ba 0f 0e 3e
       0.16637604 -0.43830943 0.08862994 0.13873187
0002b0 6d 7a 13 3e 6a b9 42 be b9 1b a2 bd e3 35 4b 3e
       0.1440217 -0.19016042 -0.07915444 0.19844775
0002c0 aa 8e 24 be ea 4d 58 be e4 a9 39 3d 9d c5 69 3d
       -0.16070047 -0.21123472 0.045328036 0.057073224
0002d0 ae 1c 28 3e 9e 5f 48 be 52 07 ab bd 7e ad 60 3e
       0.1641719 -0.19567725 -0.083510056 0.21941182
0002e0 6d aa 31 3e 2c d7 c6 3d 2e ae cc bb db 5a e2 3d
       0.17350169 0.097090095 -0.00624635 0.110524856
0002f0 11 ef b5 3d 21 f2 87 be 09 16 09 3e 2d a1 62 be
       0.08883489 -0.26551917 0.13387312 -0.22131796
000300 2f f8 72 be 19 60 8e 3e 51 9e e8 3c 93 d5 b9 bd
       -0.23727487 0.27807692 0.028395804 -0.09073939
000310 47 b1 d5 bd 4b 64 38 3e 26 eb 80 3e 6f 24 46 be
       -0.104342036 0.18007009 0.25179404 -0.19349836
000320 cf 6b 01 be 87 8f cd 3d ee 5c ea 3e b1 48 86 be
       -0.12638782 0.10037141 0.45774025 -0.26227334
000330 be 16 03 3e 63 b9 ef bd 5d 1f b5 3e 81 a9 55 be
       0.12801644 -0.117052816 0.3537549 -0.20865442
000340 1b 2f ba 3c d2 3e 5b 3d bb 09 f0 bd cf 4d b7 3d
       0.02272754 0.053526707 -0.11720606 0.08950388
000350 b5 ca 40 bc af 9f 6c be 81 88 30 be e5 0f 2d bd
       -0.011767079 -0.2310779 -0.17239572 -0.042251486
000360 55 40 83 be b8 ca 92 3e 1a 53 ff be d8 d8 76 bb
       -0.2563502 0.28670287 -0.4986809 -0.003766587
000370 41 a4 89 bc 22 73 08 be 8d 01 8c 3c d4 e8 6e 3d
       -0.016801955 -0.1332517 0.017090583 0.05832751
000380 c9 7d 68 3e 33 cc 3c 3d e4 d2 bd 3c 0f a7 a4 be
       0.22704233 0.046093177 0.02317185 -0.32158706
000390 eb 49 53 be 11 95 6d 3e c8 e7 75 3e 4c 9f 86 3e
       -0.20633666 0.23201396 0.24014199 0.2629341
0003a0 3f 53 1a bd 09 bd 99 3e d1 f9 ea 3d 2d b2 22 be
       -0.037677046 0.30027035 0.1147343 -0.15888281
0003b0 39 47 92 3e 49 e7 bf 3d e8 4a 58 3c 83 b3 28 be
       0.28569964 0.09370286 0.013201453 -0.16474728
0003c0 02 8d 22 3d f4 a4 c5 3d 1c 81 eb 3d de 4a df 3d
       0.039685257 0.09650603 0.11499235 0.10902952
0003d0 83 1d 8d be f2 89 92 3e e7 e2 b0 3e 70 1b 10 3c
       -0.27561578 0.2862087 0.34548113 0.008795604
0003e0 e2 92 06 be f6 9b 8f be 5b 34 67 3e c1 81 45 3e
       -0.13141969 -0.28048676 0.22578566 0.19287778
0003f0 21 98 b2 3b e3 64 4f 3d 7f 18 18 3c ea 56 05 3d
       0.005450264 0.050633322 0.009283184 0.03255359

c_fc2.bias f4 [64]
000000 d4 3b ee 3d d7 12 89 3c 5e f5 0f 3e 50 dc 28 be
       0.11632505 0.016732616 0.14058444 -0.16490293
000010 a5 89 a5 bc 94 90 c8 3d 66 d0 6a 3d c1 d1 2b 3e
       -0.020207236 0.09793201 0.05732765 0.16779234
000020 2c 80 f3 3d 22 26 f7 3d 5d b5 27 3e 40 d1 b3 3d
       0.11889681 0.1206782 0.16377778 0.08780146
000030 15 83 d8 bd 15 16 f1 3d 05 a8 f5 3a 86 e7 3c be
       -0.10571877 0.1177179 0.001874209 -0.18447694
000040 a6 8f 69 bd 5b 65 8a 3d 05 11 f9 3d 4c ad 3a be
       -0.05702176 0.06757613 0.12161449 -0.1823017
000050 80 08 f1 3d 76 2b 36 3e 7e a9 c4 3d 0a 5c 3d be
       0.11769199 0.17790017 0.096026406 -0.18492141
000060 d6 73 37 3e 67 47 f6 bd 17 00 02 be 95 3e ac 3d
       0.17915282 -0.12025338 -0.12695347 0.08410374
000070 72 ce dd bd 5f 27 fc bd 71 25 0b bd 88 4c 2b 3e
       -0.10830392 -0.12312197 -0.033971254 0.16728413
000080 7c 94 12 3e 97 8f da bd e7 49 29 bd cf 05 96 3d
       0.14314455 -0.10671919 -0.041330244 0.07325327
000090 2c 6e 17 3e f4 6c 4e be 68 2d da bd 80 06 02 be
       0.14788121 -0.2015875 -0.10653192 -0.12697792
0000a0 e3 27 00 3e e7 e4 e0 3d 00 9b 0f 3e 33 f5 9c 3d
       0.12515216 0.1098116 0.14023972 0.076639555
0000b0 df c2 21 bd ec 4c ed bd 69 5e 3a be de d3 c6 3d
       -0.039492484 -0.11586937 -0.18200077 0.09708379
0000c0 94 a3 d7 3d 38 57 0c bd ac 16 e9 3d db 28 41 be
       0.10529247 -0.034262866 0.113812774 -0.18863241
0000d0 b9 99 a9 3c e1 90 6c 3d 73 9e c9 3d 9d 3b ca 3d
       0.020703183 0.057755355 0.09844675 0.098746516
0000e0 43 f6 ee 3d d0 41 13 3e 9c d7 16 be 85 4d af 3d
       0.116680644 0.14380574 -0.14730686 0.085597076
0000f0 97 31 8d bd 2d 38 0e be 42 58 a3 bd 43 44 18 be
       -0.06894224 -0.13888617 -0.07975818 -0.1486979

c_fc3.weight f4 [1, 64]
000000 f5 55 3d 40 d2 86 3a 40 a9 9f 38 40 a6 e8 36 c0
       2.9583714 2.9144788 2.884745 -2.8579497
000010 34 a8 42 c0 fb 1a 3f 40 4d a4 38 40 50 31 35 40
       -3.0415163 2.9860218 2.8850281 2.8311348
000020 06 8d 3e 40 d4 a3 3b 40 bd 65 35 40 54 a5 48 40
       2.9773574 2.9318743 2.8343346 3.1350908
000030 a3 22 43 c0 29 a4 3a 40 14 ce 3c c0 81 fb 35 c0
       -3.048989 2.9162695 -2.950078 -2.8434756
000040 c6 5f 36 c0 f7 46 36 40 29 6e 3a 40 40 f2 34 c0
       -2.8495955 2.8480814 2.9129736 -2.8272858
000050 80 71 3b 40 e0 55 35 40 3b 59 44 40 b8 fa 33 c0
       2.9288025 2.8333664 3.0679462 -2.8121777
000060 6f 4d 34 40 a5 83 3b c0 68 90 39 c0 52 53 3b c0
       2.8172262 -2.92991 -2.8994389 -2.9269605
000070 f1 8d 3e c0 1b d3 39 40 eb 65 3c c0 e4 e8 34 40
       -2.9774134 2.9035099 -2.9437206 2.8267145
000080 b9 67 3a 40 be 8b 3e c0 a2 81 39 c0 06 ec 34 40
       2.9125807 -2.9772792 -2.8985372 2.8269057
000090 61 ff 37 40 71 29 35 c0 7d 5f 3c c0 b9 d8 39 c0
       2.874962 -2.8306544 -2.9433281 -2.9038527
0000a0 fa a7 3c 40 3e 7a 42 40 6f 73 39 40 a9 5e 39 40
       2.9477525 3.038711 2.8976705 2.8964026
0000b0 8e 20 3b c0 68 cf 40 c0 a8 2a 36 c0 fa 02 42 40
       -2.923862 -3.012659 -2.8463535 3.0314317
0000c0 4e 96 3f 40 af 77 3c 40 ef c3 3d 40 dd 41 35 c0
       2.9935489 2.944805 2.9650838 -2.832145
0000d0 91 26 3d 40 a0 84 37 40 b9 55 46 40 5d 38 42 c0
       2.955479 2.8674698 3.098982 -3.0346901
0000e0 27 10 3f 40 2f b4 37 40 8e c7 36 c0 84 b9 46 40
       2.9853609 2.8703725 -2.8559299 3.105073
0000f0 f0 98 3d c0 f6 dd 39 c0 62 a3 37 40 b1 90 37 c0
       -2.9624596 -2.9041724 2.869347 -2.8682063
