PPO/model/ppo_399.pth (torch_old, 42209 bytes, 12 tensors)

a_logstd f4 [1, 3]
-0.5845206 -0.5860674 -0.58208203
00000000: 24a3 15bf 8308 16bf 5403 15bf

a_fc1.weight f4 [64, 11]
0.18105897 0.09275896 0.13485935 -0.14523241 0.22325881 -0.08385332 0.05116192 0.027327882
0.10390741 0.047278214 0.008009389 0.04173353 -0.15865724 0.09100721 -0.20409754 -0.10853428
0.1030929 -0.10162391 -0.0643425 0.089558356 -0.13113593 -0.148447 -0.21412364 -0.16219148
-0.0464515 0.35636052 -0.17154488 0.10223751 -0.09191237 -0.17820153 -0.14817148 0.007851905
0.020885235 0.38133317 -0.18241274 0.041332174 -0.1666952 -0.103740685 -0.17901516 -0.06829145
0.14094393 0.13409993 0.006790433 -0.080484875 -0.23466152 0.13944732 -0.05707121 0.29704806
-0.07312266 -0.05060174 -0.082862236 0.21479206 -0.19678332 -0.06627138 0.09555826 0.19436471
-0.055052496 -0.021528894 -0.1378792 -0.051684126 -0.2999099 -0.15169905 0.41384128 -0.010701135
-0.015116415 -0.049897954 0.056393884 0.08945973 -0.13739432 0.1980749 0.31180337 -0.026101612
0.27594653 -0.47661445 -0.15011314 0.032505352 0.009333932 -0.28820997 0.079980716 -0.1819924
-0.0013570683 0.26746616 0.17516978 -0.1259667 0.16046432 0.00693871 -0.109438755 0.036062893
0.004596661 0.025813723 -0.060412 0.07125353 -0.17253841 0.08239227 -0.010001498 -0.06222938
0.022253929 0.114583306 0.010905463 -0.27792364 0.313481 -0.14320715 0.07649089 -0.1167361
0.1898907 -0.032835685 0.18930623 -0.06016456 0.05551065 0.15598719 -0.13971792 -0.27605683
0.1930683 0.18580733 0.15190463 -0.10472288 0.059706647 -0.4781917 -0.29035294 0.009788021
-0.027946198 -0.045944113 0.0959615 -0.08667813 0.1180543 0.21894301 -0.01551939 0.20290552
-0.20456597 -0.015564662 0.14156194 0.12033148 0.29304025 0.114419796 0.39264107 0.08357286
0.22390044 -0.12094133 -0.10132475 0.15057 0.17852515 -0.17752399 -0.045780916 -0.07399103
0.083133794 -0.1982716 -0.39299357 -0.32127517 0.051037878 -0.21752195 0.30841804 0.032638762
-0.113543525 -0.107013464 -0.1792244 0.20896088 0.09505034 0.32151446 0.15968512 0.25012863
0.26982015 -0.11313346 -0.20124482 -0.0020094498 0.14149724 0.17994562 -0.2228687 -0.12918314
-0.05029231 0.13900259 -0.10173516 0.010522683 -0.08935086 0.13609217 0.07142321 -0.08174071
-0.22783516 0.18024723 -0.119510144 -0.03674988 -0.15111127 -0.15358931 -0.08410487 0.3918907
-0.2575743 -0.13973811 0.012940896 0.10576333 -0.018900326 -0.19419587 -0.031140674 -0.19771302
-0.14975442 -0.039259717 0.24586217 -0.021349426 -0.04019833 -0.07120838 -0.024722012 -0.104477756
0.0143436575 -0.19120602 0.0783106 -0.024375506 -0.0015206777 -0.08825811 0.010883931 -0.032277353
-0.059703812 0.2124843 0.009045712 0.01104615 -0.13401763 0.054439053 0.0026335355 -0.0050181644
0.085341625 0.37197295 -0.13407663 -0.101251915 0.22166201 -0.19027998 0.14186984 -0.1699851
-0.12778476 -0.13183159 0.017726617 0.36805722 0.20978406 -0.06585428 -0.028593881 -0.16131547
0.11631955 -0.15126231 0.14437252 0.026254935 0.010591237 0.04284751 -0.122627296 -0.16729581
0.057598326 0.05031186 -0.17038403 0.18171363 -0.14162661 0.22751972 -0.17011465 0.049398214
-0.16940866 0.08597838 -0.13812661 0.09237436 0.12794581 -0.041545555 0.13929899 0.02673725
00000000: 8667 393e 69f8 bd3d 9218 0a3e ceb7 14be
00000010: f59d 643e 4abb abbd 298f 513d b9de df3c
00000020: 68cd d43d cda6 413d d039 033c c7f0 2a3d
00000030: 0b77 22be fd61 ba3d f2fe 50be 3847 debd
00000040: 5f22 d33d 3220 d0bd 00c6 83bd 5f6a b73d
00000050: 7f48 06be 7e02 18be 3a43 5bbe 8615 26be
00000060: ee43 3ebd e374 b63e 76a9 2fbe e661 d13d
00000070: 8d3c bcbd 767a 36be 44ba 17be 47a5 003c
00000080: 8317 ab3c 1a3e c33e 68ca 3abe ed4b 293d
00000090: 26b2 2abe ff75 d4bd c04f 37be 63dc 8bbd
000000a0: 9b53 103e 7e51 093e 4882 de3b 41d5 a4bd
000000b0: 1c4b 70be 47cb 0e3e 80c3 69bd af16 983e
000000c0: 55c1 95bd c543 4fbd adb3 a9bd 73f2 5b3e
000000d0: 9181 49be 4ab9 87bd 0db4 c33d 8b07 473e
000000e0: ba7e 61bd 5d5d b0bc 3430 0dbe bcb2 53bd
000000f0: ca8d 99be ff56 1bbe 01e3 d33e d053 2fbc
00000100: d7aa 77bc cc61 4cbd 46fd 663d aa36 b73d
00000110: 19b1 0cbe 26d4 4a3e b1a4 9f3e 0cd3 d5bc
00000120: dd48 8d3e cf06 f4be 42b7 19be 5524 053d
00000130: 59ed 183c 4290 93be eecc a33d 375c 3abe
00000140: a8df b1ba 53f1 883e b55f 333e 6afd 00be
00000150: c250 243e 1e5e e33b 6d21 e0bd afb6 133d
00000160: 969f 963b 4d77 d33c 9372 77bd 5fed 913d
00000170: e9ad 30be 47bd a83d 53dd 23bc 3ce4 7ebd
00000180: df4d b63c a7aa ea3d d4ac 323c 024c 8ebe
00000190: 9580 a03e e5a4 12be 41a7 9c3d 5613 efbd
000001a0: b572 423e b67e 06bd 7ed9 413e 1d6f 76bd
000001b0: 235f 633d 1bbb 1f3e 3712 0fbe 5257 8dbe
000001c0: b2b3 453e 4744 3e3e e38c 1b3e f378 d6bd
000001d0: f58e 743d 8bd5 f4be 24a9 94be f05d 203c
000001e0: 6def e4bc e52f 3cbd 7787 c43d 4e84 b1bd
000001f0: 74c6 f13d 9932 603e 0a45 7ebc 77c6 4f3e
00000200: be79 51be ed02 7fbc 9df5 103e 5a70 f63d
00000210: 5f09 963e ed54 ea3d 4008 c93e 3f28 ab3d
00000220: 2846 653e 17b0 f7bd 5a83 cfbd 062f 1a3e
00000230: 4ccf 363e d9c8 35be c584 3bbd 9c88 97bd
00000240: 0d42 aa3d b607 4bbe 7436 c9be 2e7e a4be
00000250: 180d 513d 13be 5ebe f8e8 9d3e 39b0 053d
00000260: 8289 e8bd e029 dbbd 9a86 37be d7f9 553e
00000270: c1a9 c23d 8b9d a43e 7f84 233e dc10 803e
00000280: de25 8a3e 84b2 e7bd 1f13 4ebe f9b0 03bb
00000290: a7e4 103e aa43 383e b137 64be 9648 04be
000002a0: 4fff 4dbd b256 0e3e 865a d0bd 5567 2c3c
000002b0: 95fd b6bd bf5b 0b3e 5546 923d ac67 a7bd
000002c0: 9f4d 69be bb92 383e bcc1 f4bd 0b87 16bd
000002d0: eabc 1abe 8446 1dbe 2d3f acbd e6a5 c83e
000002e0: c7e0 83be 8217 0fbe 0d06 543c 729a d83d
000002f0: dbd4 9abc 48db 46be ba1a ffbc 4875 4abe
00000300: 3959 19be ccce 20bd 4bc3 7b3e fee4 aebc
00000310: 01a7 24bd b3d5 91bd d185 cabc 6ff8 d5bd
00000320: a901 6b3c 83cb 43be 4f61 a03d 24af c7bc
00000330: 7a51 c7ba abc0 b4bd 8452 323c 4235 04bd
00000340: fc8b 74bd 7c95 593e 7734 143c e9fa 343c
00000350: eb3b 09be 7cfb 5e3d 6597 2c3b 6a6f a4bb
00000360: 97c7 ae3d 3d73 be3e 624b 09be 2a5d cfbd
00000370: 5efb 623e c1d8 42be 5446 113e 9310 2ebe
00000380: 02da 02be dcfe 06be 6937 913c ff71 bc3e
00000390: a2d1 563e 9cde 86bd b73d eabc e22f 25be
000003a0: f238 ee3d 82e4 1abe 64d6 133e 9714 d73c
000003b0: de86 2d3c df80 2f3d 0524 fbbd 984f 2bbe
000003c0: 39ec 6b3d cf13 4e3d 2779 2ebe 2313 3a3e
000003d0: 9106 11be eefa 683e 8932 2ebe c855 4a3d
000003e0: 7779 2dbe 6f15 b03d 1071 0dbe c52e bd3d
000003f0: 3a04 033e ac2b 2abd 65a4 0e3e 1408 db3c

a_fc1.bias f4 [64]
0.07162624 0.11191719 -0.09328873 -0.05783213 -0.062035356 -0.017897258 -0.027772015 0.037343062
-0.048706975 -0.025006564 -0.033578586 -0.008360169 0.051690217 -0.06616545 -0.03935369 0.09502397
-0.047817986 -0.016861282 0.053214677 0.07039651 0.01729889 -0.016363582 -0.109533474 -0.011529664
-0.16037394 0.061108075 0.048721682 0.07849308 -0.08369367 0.054702662 0.10147127 -0.018324994
-0.101551406 0.028038181 0.04749217 -0.11867412 -0.03599887 -0.0153789995 -0.07085013 -0.033324763
0.054158587 0.12834129 0.008240894 0.049381807 0.06672655 -0.01913442 -0.15835434 0.033529144
0.0936468 0.054311376 -0.029213164 0.13559003 -0.11950145 0.057883162 0.015455299 0.005232615
-0.015479697 -0.044853114 -0.057743248 0.007774104 -0.05672879 -0.07371836 0.09316706 -0.019788736
00000000: c7b0 923d d734 e53d 290e bfbd 62e1 6cbd
00000010: c918 7ebd 459d 92bc 2382 e3bc 0af5 183d
00000020: f780 47bd 91da ccbc b389 09bd 17f9 08bc
00000030: 1fb9 533d c081 87bd 5631 21bd ed9b c23d
00000040: cbdc 43bd ac20 8abc a2f7 593d 0c2c 903d
00000050: 67b6 8d3c eb0c 86bc 1653 e0bd eae6 3cbc
00000060: 1139 24be 764c 7a3d 6390 473d fbc0 a03d
00000070: 9667 abbd e60f 603d 2bd0 cf3d 4c1e 96bc
00000080: 2ffa cfbd 54b0 e53c 2687 423d 6b0b f3bd
00000090: 8d73 13bd 33f8 7bbc df19 91bd 8c7f 08bd
000000a0: 65d5 5d3d e66b 033e d104 073c 9444 4a3d
000000b0: eea7 883d cabf 9cbc a427 22be db55 093d
000000c0: e5c9 bf3d 9b75 5e3d 7250 efbc 1dd8 0a3e
000000d0: 2dbd f4bd e516 6d3d 3938 7d3c 5b76 ab3b
000000e0: 8e9e 7dbc e6b7 37bd 2f84 6cbd e9bd fe3b
000000f0: 735c 68bd a7f9 96bd 5fce be3d fd1b a2bc

a_fc2.weight f4 [64, 64]
0.17387585 0.12772852 -0.0278811 -0.057148617 0.090110555 0.07668173 0.13224542 -0.0006931938
0.13798985 -0.086425096 -0.12440128 0.14055747 -0.0053349757 -0.06215591 -0.055689543 0.09282388
0.16943702 -0.1918034 0.22703098 0.28730002 -0.17251523 0.09676228 0.048601057 0.166931
0.14325745 -0.111127704 0.15961577 0.1281117 0.07926053 0.06628936 -0.07387224 -0.02294339
0.06408485 -0.09407217 0.039310273 -0.012545372 -0.03122703 0.13751897 -0.14520279 0.027096925
-0.08584748 -0.10208584 0.03867577 -0.1291671 -0.028450407 -0.014464054 0.025202978 0.01855508
0.16169116 -0.017081343 -0.17946075 -0.015182993 -0.016292728 -0.101747 -0.050983436 -0.059349433
0.15098749 -0.15810193 0.020599872 -0.048877534 -0.025179222 0.22060016 0.17146847 -0.020031672
0.013276 -0.01464955 -0.1436175 0.07507907 -0.011922936 -0.07744398 -0.26429668 0.051303193
0.00037120463 -0.010909595 0.019650668 -0.034673385 -0.0500666 0.027342316 -0.02808411 -0.03192514
-0.08817452 0.1339338 0.2645614 -0.04695453 -0.0030227466 0.08256751 -0.102876164 0.006567132
0.22581202 -0.08985987 0.042852823 0.12721078 -0.17950273 -0.06657425 -0.06173213 0.012584453
-0.0675912 -0.1402152 0.41798922 0.074273355 -0.0775868 -0.13902031 -0.116976224 -0.1575864
-0.19231403 0.1658944 0.09768705 0.019668596 0.021746583 -0.034230124 -0.1275554 0.060390472
-0.016987128 0.037727047 -0.18144028 -0.044944886 -0.11718559 0.15824138 -0.1107376 0.004219382
0.011202927 -0.015447834 -0.101316094 0.1396361 -0.09417542 -0.010879318 -0.26228774 -0.11201214
-0.024676908 -0.010429582 0.022875411 -0.021260504 0.32260272 0.1253893 0.091578506 0.024867782
0.1651597 0.14317134 0.11306888 -0.0061581605 0.022819737 0.10042759 -0.09469461 -0.10710155
-0.049015917 -0.178327 -0.12403517 0.17219436 0.17671144 -0.03976309 0.15811382 -0.02442273
0.04029191 -0.07794341 0.08556403 -0.0026741906 0.1043243 -0.2689303 0.0046653557 0.18652362
-0.1402671 -0.11432213 0.11593936 0.060408823 -0.2584955 0.029296512 0.07587015 -0.03406332
0.04869444 -0.02419424 0.04620031 0.035850458 0.19408198 -0.037045144 -0.1468478 -0.21847011
0.14896491 -0.01621904 0.032932892 -0.027677665 0.05682352 -0.054537285 0.17151153 -0.049655385
0.17464082 0.10991693 0.058220748 0.08853957 -0.1498473 -0.2676152 -0.011240657 0.020337973
-0.0064868885 -0.0281239 -0.05346564 0.067759976 0.07552203 0.06465241 0.062014494 0.22692999
-0.0037794074 0.05457305 0.07551046 0.25115395 -0.33244643 0.031860467 0.098989226 0.032250077
0.10539943 -0.091974385 -0.122543305 -0.078230746 0.098005146 0.037860617 0.04539749 -0.0028523838
-0.0018828483 0.14510743 -0.19437572 0.11283864 -0.26430312 -0.056665003 -0.19160752 -0.16425307
0.3214069 0.05637616 0.17251866 -0.036299486 -0.06789635 0.088929184 -0.033553444 -0.1173912
-0.048288614 -0.08842483 -0.078443706 0.1641453 -0.085224554 -0.14296563 0.12661758 -0.09368563
0.056063518 -0.058984503 0.038758207 0.19848602 0.003358395 -0.036433514 0.045929298 -0.20098719
0.047547594 -0.09621143 0.22786552 0.12753436 3.9452563e-05 0.030155871 -0.03345571 0.09628253
00000000: 830c 323e 44cb 023e e866 e4bc ab14 6abd
00000010: e28b b83d 500b 9d3d 586b 073e 73b7 35ba
00000020: 364d 0d3e a4ff b0bd 19c6 febd 4cee 0f3e
00000030: 05d1 aebb 3297 7ebd b81a 64bd 721a be3d
00000040: e680 2d3e 1c68 44be cf7a 683e fd18 933e
00000050: d5a7 30be 4d2b c63d e711 473d f6ef 2a3e
00000060: 15b2 123e ec96 e3bd 5172 233e b72f 033e
00000070: 5853 a23d b7c2 873d 544a 97bd c7f3 bbbc
00000080: eb3e 833d e9a8 c0bd cf03 213d 1b8b 4dbc
00000090: d4cf ffbc c6d1 0c3e 0ab0 14be 5ffa dd3c
000000a0: ced0 afbd 6212 d1bd 7c6a 1e3d 6144 04be
000000b0: d410 e9bc a4fa 6cbc 7a76 ce3c d300 983c
000000c0: 5e92 253e 2cee 8bbc 8fc4 37be 17c2 78bc
000000d0: 5478 85bc bb60 d0bd 02d4 50bd 6418 73bd
000000e0: 779c 1a3e 79e5 21be 10c1 a83c cf33 48bd
000000f0: a844 cebc 02e5 613e 6e95 2f3e 7619 a4bc
00000100: 9483 593c ab04 70bc 7710 13be 0ec3 993d
00000110: 6b58 43bc f39a 9ebd e551 87be 4c23 523d
00000120: 3e9e c239 28be 32bc 70fa a03c ae05 0ebd
00000130: a312 4dbd fefc df3c a610 e6bc f0c3 02bd
00000140: d894 b4bd f125 093e 9874 873e 6553 40bd
00000150: 4619 46bb 2819 a93d bdb0 d2bd 1931 d73b
00000160: 443b 673e 7408 b8bd 7186 2f3d 8b43 023e
00000170: 90cf 37be 1558 88bd d4da 7cbd 062f 4e3c
00000180: 416d 8abd 9394 0fbe af02 d63e a11c 983d
00000190: d4e5 9ebd 575b 0ebe 3b91 efbd 545e 21be
000001a0: f8ed 44be 39e0 293e 2610 c83d 0920 a13c
000001b0: e425 b23c e334 0cbd e29d 02be 005c 773d
000001c0: 9728 8bbc ad87 1a3d 7bcb 39be 2118 38bd
000001d0: 00ff efbd 070a 223e 65ca e2bd be42 8a3b
000001e0: 7b8c 373c e918 7dbc d07e cfbd c4fc 0e3e
000001f0: 0bdf c0bd 2b3f 32bc 944a 86be 9f66 e5bd
00000200: 3a27 cabc d6e0 2abc 3765 bb3c 822a aebc
00000210: 2f2c a53e 0d66 003e 838d bb3d 85b7 cb3c
00000220: a01f 293e 829b 123e a890 e73d 65ca c9bb
00000230: 75f0 ba3c fbac cd3d 3fef c1bd 0f58 dbbd
00000240: eac4 48bd 5a9b 36be 2706 febd b853 303e
00000250: d8f3 343e 9fde 22bd 97e8 213e 2d12 c8bc
00000260: 2109 253d cba0 9fbd 323c af3d 7941 2fbb
00000270: fba7 d53d 3bb1 89be d7df 983b 0c00 3f3e
00000280: 2ea2 0fbe b921 eabd 9d71 ed3d 3e6f 773d
00000290: 8659 84be 3dff ef3c cf61 9b3d fb85 0bbd
000002a0: d273 473d 0033 c6bc 893c 3d3d eed7 123d
000002b0: 6dbd 463e a6bc 17bd 455f 16be a1b6 5fbe
000002c0: 428a 183e cbdd 84bc a4e4 063d 45bc e2bc
000002d0: c8bf 683d 7d62 5fbd b8a0 2f3e 7263 4bbd
000002e0: 0bd5 323e 211c e13d e178 6e3d 3c54 b53d
000002f0: 9271 19be dc04 89be bc2a 38bc d29b a63c
00000300: f78f d4bb 1864 e6bc c9fe 5abd bec5 8a3d
00000310: 4bab 9a3d 7c68 843d e902 7e3d 5660 683e
00000320: efaf 77bb fe87 5f3d 3aa5 9a3d 4097 803e
00000330: 6b36 aabe 1f80 023d ddba ca3d a818 043d
00000340: a8db d73d 115d bcbd fcf7 fabd 7137 a0bd
00000350: ecb6 c83d bc13 1b3d b8f2 393d 0fef 3abb
00000360: e8c9 f6ba 0b97 143e 6e0a 47be f217 e73d
00000370: bd52 87be 9019 68bd c334 44be f531 28be
00000380: 728f a43e b0ea 663d bba8 303e c5ae 14bd
00000390: 3e0d 8bbd 8120 b63d 566f 09bd cc6a f0bd
000003a0: 48ca 45bd 1418 b5bd 18a7 a0bd b515 283e
000003b0: 368a aebd 9565 12be 0aa8 013e 40de bfbd
000003c0: dca2 653d bc99 71bd edc0 1e3d eb3f 4b3e
000003d0: 8518 5c3b 4f3b 15bd 5c20 3c3d 96cf 4dbe
000003e0: 44c1 423d 800a c5bd 9455 693e 5e98 023e
000003f0: de79 2538 7209 f73c db08 09bd c62f c53d

a_fc2.bias f4 [64]
0.011023453 -0.017836006 -0.012470956 -0.06649029 0.06887566 0.07475725 0.09450038 0.060168553
-0.018812777 -0.085030966 -0.08130011 0.12761794 -0.047541738 0.03759545 -0.034092166 -0.16729955
-0.029417897 -0.0030363903 -0.017890481 -0.021056157 -0.025947543 -0.077943064 0.11040625 0.010311354
-0.017235458 -0.043546584 -0.0008206274 -0.06605782 -0.00500617 0.05014843 -0.06213448 -0.13050224
0.08094247 0.018179432 -0.052228518 -0.10010181 0.10242042 -0.090761155 0.064125046 0.08245871
0.03402607 0.029124392 -0.0046817935 -0.1570149 0.050337326 -0.0034178917 0.07636641 0.055645853
-0.07931583 0.11867005 -0.058426425 -0.007970032 0.044538416 -0.004244141 0.057534236 -0.042477436
-0.012209129 -0.04370672 0.014813951 -0.034295008 0.03234205 0.04550799 -0.03942059 0.020994417
00000000: b79b 343c d11c 92bc fb52 4cbc 102c 88bd
00000010: af0e 8d3d 541a 993d 6a89 c13d 4d73 763d
00000020: 411d 9abc b724 aebd ac80 a6bd 47ae 023e
00000030: 20bb 42bd b0fd 193d 3aa4 0bbd 9350 2bbe
00000040: cdfd f0bc 2dfe 46bb 0f8f 92bc f67d acbc
00000050: f18f d4bc 9da0 9fbd ac1c e23d f4f0 283c
00000060: 6031 8dbc e75d 32bd 5f1f 57ba 5349 87bd
00000070: cc0a a4bb 7168 4d3d b980 7ebd 61a2 05be
00000080: 2ac5 a53d 08ed 943c 92ed 55bd 2e02 cdbd
00000090: ccc1 d13d fce0 b9bd fe53 833d 1de0 a83d
000000a0: ec5e 0b3d 4796 ee3c bb69 99bb 84c8 20be
000000b0: 832e 4e3d b5fe 5fbb fe65 9c3d e8ec 633d
000000c0: 5670 a2bd 4809 f33d 8c50 6fbd bd94 02bc
000000d0: ea6d 363d 6f12 8bbb 05a9 6b3d d2fc 2dbd
000000e0: cc08 48bc d105 33bd 37b6 723c ec78 0cbd
000000f0: 1979 043d 9666 3a3d 7c77 21bd 7cfc ab3c

a_fc3.weight f4 [3, 64]
-0.012792531 -0.0067582307 0.03242685 0.05988044 -0.031212628 -0.008303556 -0.16882725 -0.04367331
0.04199125 0.16061333 -0.0072017624 -0.13411438 0.08452285 -0.17120025 0.008117026 -0.0769381
0.09555182 -0.021279637 0.12612504 0.011406666 0.037159294 0.063854404 0.06669443 0.016281052
-0.11023597 -0.108358815 -0.0073417043 0.04506398 -0.036043316 -0.1809118 0.025353052 0.11702436
-0.1558768 0.019629419 0.010530938 0.008395508 -0.00045695482 0.102494754 -0.03053521 -0.019204492
0.0022875143 -0.028807664 -0.11504643 0.043044787 -0.07718446 0.018825524 -0.035204716 -0.02009894
-0.004844322 0.02552406 0.08690967 0.008111632 -0.036085747 0.020060215 0.010462841 0.1778918
-0.0052557755 0.09873252 -0.00015891972 -0.0058728806 -0.060923092 0.0083929105 0.03562371 -0.010444413
0.0057717715 0.018785393 -0.015836902 -0.030823426 0.111817345 0.0025695222 -0.025721636 0.041009925
-0.008859083 -0.022439316 -0.05422496 0.0155522 -0.028038854 -0.11838409 -0.021169081 -0.16048433
-0.005938797 0.015160281 0.029999144 0.004046767 -0.06811008 -0.021566058 0.12784207 -0.013783975
-0.034217037 -0.10262146 0.008531297 -0.01591815 -0.042198867 -0.11448153 -0.021666188 -0.03835399
-0.029541003 0.0017374426 -0.024674889 -0.027303996 0.11298136 0.028084718 0.02907674 0.11233877
-0.013026761 0.025682282 -0.0942656 -0.02707818 0.045123044 0.010410076 0.069306664 0.038409222
-0.01852018 0.13708483 -0.02126311 -0.018521138 0.097994864 -0.027501948 -0.0036744352 0.03470842
-0.012130726 -0.038843006 -0.0044370173 -0.0062939837 0.03748364 0.014059048 -0.037710965 0.021967985
-0.0021550518 0.008414052 0.008925467 -0.004593588 0.13930513 0.0014640333 0.006531146 0.0027848596
-0.002010251 -0.08662651 -0.000672421 -0.014028446 -0.016698517 0.05355151 -0.003260243 -0.13350318
-0.039396837 -0.002634338 -0.039040692 0.0031591537 -0.1111141 -0.0013843069 0.12791583 0.013428382
0.1450794 -0.023006901 -0.0020901267 0.0011552 -0.010449139 0.068205714 -0.0009647888 -0.0034634508
0.06998542 -0.0039192922 -0.0026006768 -0.0035944085 0.17538902 0.007183037 0.018813742 0.11099688
0.0054936083 -0.0022323916 0.14644665 0.04517261 0.056558464 0.0017403954 0.089194834 -0.0076253493
0.00066464307 0.1385024 0.005499962 -0.0035345207 0.055930935 -0.008941522 -0.00097330764 -0.05992276
0.010019449 0.0032104454 0.0071199834 -0.0037645847 0.12022405 0.013879197 -0.009910419 0.013633033
00000000: c497 51bc 2674 ddbb 04d2 043d 3145 753d
00000010: a0b1 ffbc a30b 08bc 0de1 2cbe c9e2 32bd
00000020: 04ff 2b3d d277 243e c3fc ebbb 4855 09be
00000030: 511a ad3d 1e4f 2fbe 46fd 043c b991 9dbd
00000040: acb0 c33d a252 aebc ec26 013e 06e3 3a3c
00000050: 5834 183d 19c6 823d 1797 883d d75f 853c
00000060: 65c3 e1bd 3aeb ddbd ae92 f0bb 0295 383d
00000070: 28a2 13bd f140 39be 34b1 cf3c 78aa ef3d
00000080: 2b9e 1fbe e0cd a03c f589 2c3c 508d 093c
00000090: 7093 efb9 c5e8 d13d fa24 fabc bd52 9dbc
000000a0: 1fea 153b 0dfe ebbc 769d ebbd bb4f 303d
000000b0: e312 9ebd fc37 9a3c d232 10bd 88a6 a4bc
000000c0: 1ebd 9ebb d517 d13c b2fd b13d a7e6 043c
000000d0: a6ce 13bd 5255 a43c 566c 2b3c 4529 363e
000000e0: a438 acbb 4734 ca3d b0a3 26b9 4b71 c0bb
000000f0: 7e8a 79bd 6b82 093c 2bea 113d 0b1f 2bbc
00000100: 2121 bd3b d3e3 993c 64bc 81bc 6981 fcbc
00000110: 7e00 e53d 6e65 283b 2eb6 d2bc 06fa 273d
00000120: b025 11bc a8d2 b7bc fe1a 5ebd a8ce 7e3c
00000130: bdb1 e5bc 5c73 f2bd c86a adbc 0156 24be
00000140: 3d9a c2bb d462 783c c4c0 f53c be9a 843b
00000150: 4c7d 8bbd 4dab b0bc 08e9 023e 2ed6 61bc
00000160: 2a27 0cbd 332b d2bd dac6 0b3c c866 82bc
00000170: b8d8 2cbd 4b75 eabd 4a7d b1bc 1319 1dbd
00000180: f9ff f1bc e6ba e33a fe22 cabc a1ac dfbc
00000190: c562 e73d ec11 e63c 5832 ee3c de11 e63d
000001a0: 326e 55bc a663 d23c 530e c1bd 0fd3 ddbc
000001b0: f1d2 383d 068f 2a3c a7f0 8d3d fd52 1d3d
000001c0: a2b7 97bc f75f 0c3e f92f aebc a4b9 97bc
000001d0: 88b1 c83d c44b e1bc cbce 70bb 6b2a 0e3d
000001e0: f4bf 46bc d819 1fbd 6664 91bb c33d cebb
000001f0: 7288 193d ec57 663c d076 1abd 34f6 b33c
00000200: c53b 0dbb 18db 093c 1f3c 123c cf85 96bb
00000210: 01a6 0e3e cee4 bf3a 3903 d63b 3182 363b
00000220: 6abe 03bb 3d69 b1bd 6945 30ba 91d7 65bc
00000230: 54cb 88bc d458 5b3d cda9 55bb 0fb5 08be
00000240: 945e 21bd dca4 2cbb 22e9 1fbd ce09 4f3b
00000250: ca8f e3bd a271 b5ba 5efc 023e b702 5c3c
00000260: b28f 143e f878 bcbc 82fa 08bb 146a 973a
00000270: de32 2bbc 70af 8b3d e1e9 7cba 10fb 62bb
00000280: 8454 8f3d 686d 80bb 1e70 2abb 2b90 6bbb
00000290: 2e99 333e af5f eb3b 471f 9a3c 5552 e33d
000002a0: ba03 b43b 514d 12bb 1cf6 153e ea06 393d
000002b0: d9a9 673d fb1d e43a c8ab b63d 11de f9bb
000002c0: 713b 2e3a 93d3 0d3e 0639 b43b 6ba3 67bb
000002d0: d617 653d 767f 12bc 9225 7fba 9171 75bd
000002e0: 9d28 243c 5666 523b c04e e93b 40b7 76bb
000002f0: 0738 f63d 9265 633c 4f5f 22bc 165d 5f3c

a_fc3.bias f4 [3]
-0.09336466 0.16584334 0.007867767
00000000: f935 bfbd d6d2 293e cee7 003c

c_fc1.weight f4 [64, 11]
-0.2808063 0.15104231 0.28779674 0.17612539 -0.038761396 -0.052492294 0.20581518 0.10089241
0.052454837 0.033941947 -0.075601906 0.39497727 -0.3460777 -0.2506156 0.050948307 0.07131783
0.068873025 -0.09812467 -0.032148093 -0.19201964 -0.07412824 0.030596402 -0.11807635 0.3818016
0.20775273 0.33788642 -0.11774909 -0.1938921 0.23555405 -0.04979787 0.31299728 0.09976228
-0.0017164641 0.36430797 -0.08782294 -0.010022499 -0.40802956 0.005938836 0.048724856 -0.3955805
-0.07108878 -0.09660341 -0.01261529 -0.03590485 0.23665434 -0.0804728 -0.43448955 -0.25301895
0.12637796 0.038919866 -0.39923817 -0.10049416 -0.33838582 -0.19724797 -0.07055636 -0.3503573
0.17594227 0.31121814 0.10004475 0.016800307 -0.29426843 0.36363947 0.09430565 0.21654536
0.17703292 0.050150957 0.2577273 -0.22800404 -0.2560461 -0.056388035 0.22556707 0.23951226
-0.43427005 -0.024666477 -0.14809327 -0.08590206 -0.023997827 -0.19596036 -0.014192336 0.3253954
0.18757068 -0.007762169 -0.21518216 0.12109309 -0.061891496 0.33938017 -0.09363706 -0.121919036
-0.1860232 0.110418305 0.2756762 0.3154718 -0.13152277 -0.083572604 0.19853209 -0.15399128
0.45662808 0.25866905 0.04262257 -0.34925047 0.25240633 0.2622963 0.28564382 -0.028180411
-0.22139794 0.36185285 0.27435187 0.1644396 0.21975444 0.12646022 0.23735897 -0.32644156
-0.24475949 -0.16600922 -0.10300742 0.19424449 -0.34340224 -0.14870508 -0.12302858 -0.15931864
-0.12323077 0.15121588 -0.21222225 -0.25035954 -0.24617463 -0.14353102 0.24033959 -0.037292067
0.07824899 -0.12918617 -0.049308278 -0.007205402 -0.3238207 0.36383495 0.39839333 0.36790207
-0.20383999 -0.47691506 0.35370842 -0.14450082 0.25350457 0.2035516 0.010860772 -0.187035
0.35802975 0.52308273 0.33057952 -0.13192463 -0.22354642 0.22548191 0.23909068 0.21766812
0.14623356 0.075523645 0.48494452 0.022686398 -0.37132567 -0.1892502 0.062490627 0.3082491
-0.25659454 0.049621757 -0.2011505 -0.13402683 -0.023102552 0.13452041 -0.27287942 0.038459625
-0.19827734 -0.17966717 0.105217874 0.08757031 -0.04311585 -0.16374722 0.03688384 0.023137633
0.1994769 0.012100699 0.16754119 -0.05265538 0.060512822 -0.006446063 0.14206772 -0.11291391
0.042367056 -0.0043148496 -0.096678466 -0.30638954 0.27144936 0.3375001 0.1794066 0.047307193
-0.14635879 0.3171612 0.088396735 0.2844793 0.15415318 0.056151826 0.23875973 0.0025728603
-0.24023758 -0.49461854 0.14521043 0.116427846 -0.30915004 -0.021061337 -0.1515482 -0.163392
-0.0761565 0.17497025 -0.022040125 -0.34257022 -0.18896608 0.036055464 0.21050273 -0.0611229
-0.07737291 -0.18680361 -0.18571347 -0.058900163 -0.41963613 0.37860635 0.19758871 0.024685718
-0.008335563 -0.13318472 0.048591483 -0.16568495 0.3135545 0.3474993 0.101336025 -0.29374725
0.43478662 0.23163493 0.4743911 -0.0721328 -0.23597264 0.26035035 0.10287942 0.1544222
0.051506646 0.017528214 0.086135566 -0.10418617 -0.004469358 -0.22424279 -0.27318767 0.06788416
-0.3192866 -0.26214948 -0.194475 -0.21968292 -0.16361143 0.06456051 -0.17926621 -0.1332083
00000000: d8c5 8fbe d6aa 1a3e 185a 933e 375a 343e
00000010: 45c4 1ebd 2902 57bd 37c1 523e aea0 ce3d
00000020: e2da 563d b606 0b3d 2cd5 9abd 763a ca3e
00000030: 1931 b1be b050 80be 2caf 503d 150f 923d
00000040: 4d0d 8d3d 96f5 c8bd b8ad 03bd cca0 44be
00000050: 8cd0 97bd 4ea5 fa3c 03d2 f1bd 807b c33e
00000060: 22bd 543e 73ff ac3e 6f26 f1bd a78b 46be
00000070: 1535 713e daf8 4bbd 2e41 a03e 2b50 cc3d
00000080: fafa e0ba 9386 ba3e 83dc b3bd 6835 24bc
00000090: 40e9 d0be 919a c23b b793 473d 8789 cabe
000000a0: ff96 91bd 02d8 c5bd 5cb0 4ebc f710 13bd
000000b0: 8455 723e ecce a4bd 6a75 debe b38b 81be
000000c0: 3969 013e 706a 1f3d f268 ccbe e2cf cdbd
000000d0: e840 adbe 5ffb 49be da7f 90bd 0862 b3be
000000e0: 362a 343e fc57 9f3e 43e4 cc3d cca0 893c
000000f0: 5aaa 96be f42e ba3e 5223 c13d 11be 5d3e
00000100: 1e48 353e 176b 4d3d d5f4 833e e479 69be
00000110: 7918 83be 24f7 66bd 0efb 663e b442 753e
00000120: a558 debe 5a11 cabc c3a5 17be 6bed afbd
00000130: 1797 c4bc d5a9 48be f986 68bc 3a9a a63e
00000140: 8712 403e cb59 febb b658 5cbe a7ff f73d
00000150: f081 7dbd 3dc3 ad3e c9c4 bfbd b0b0 f9bd
00000160: de7c 3ebe fe22 e23d 6e25 8d3e 8585 a13e
00000170: e8ad 06be 1d28 abbd ff4b 4b3e e4af 1dbe
00000180: 28cb e93e 4570 843e 0195 2e3d f5d0 b2be
00000190: 673b 813e b34b 863e e83f 923e 9bda e6bc
000001a0: 24b6 62be c744 b93e d977 8c3e db62 283e
000001b0: 4f07 613e ca7e 013e 3b0e 733e 5923 a7be
000001c0: 3ba2 7abe 52fe 29be 8ef5 d2bd 07e8 463e
000001d0: 6bd2 afbe 2546 18be 68f6 fbbd 6d24 23be
000001e0: 6a60 fcbd 56d8 1a3e ca50 59be 202f 80be
000001f0: 3415 7cbe ccf9 12be 951b 763e 91bf 18bd
00000200: 0241 a03d 6149 04be 7af7 49bd 4b1b ecbb
00000210: d4cb a5be 9348 ba3e 36fa cb3e a95d bc3e
00000220: 6ebb 50be 362e f4be 4519 b53e 06f8 13be
00000230: 5acb 813e d56f 503e 61f1 313c 1a86 3fbe
00000240: ad4f b73e c0e8 053f b841 a93e 4017 07be
00000250: 5ae9 64be bbe4 663e 30d4 743e 64e4 5e3e
00000260: 40be 153e 24ac 9a3d a64a f83e d3d8 b93c
00000270: 661e bebe ceca 41be 2cf6 7f3d d3d2 9d3e
00000280: 5c60 83be 2f40 4b3d 66fa 4dbe 543e 09be
00000290: 9041 bdbc b8bf 093e dab6 8bbe d787 1d3d
000002a0: 3709 4bbe acfa 37be 787c d73d 1058 b33d
000002b0: 3f9a 30bd 5aad 27be 8213 173d 228b bd3c
000002c0: ac43 4c3e 0342 463c eb8f 2b3e 2bad 57bd
000002d0: 4bdc 773d 7f39 d3bb 337a 113e 683f e7bd
000002e0: 1489 2d3d 9563 8dbb 5cff c5bd 17df 9cbe
000002f0: 69fb 8a3e d0cc ac3e 5db6 373e 30c5 413d
00000300: 14df 15be f462 a23e 5909 b53d 45a7 913e
00000310: 55da 1d3e 75ff 653d 6e7d 743e 6f9d 283b
00000320: d700 76be a43e fdbe 0bb2 143e b971 ee3d
00000330: ea48 9ebe d388 acbc 742f 1bbe 3c50 27be
00000340: f0f7 9bbd 672b 333e 7e8d b4bc 5d65 afbe
00000350: 5380 41be e5ae 133d 078e 573e 025c 7abd
00000360: b075 9ebd 7249 3fbe ac2b 3ebe 4c41 71bd
00000370: 8cda d6be b1d8 c13e b254 4a3e b439 ca3c
00000380: e391 08bc 9361 08be dd07 473d 51a9 29be
00000390: 378a a03e 6eeb b13e 4389 cf3d 0a66 96be
000003a0: 5a9c de3e b531 6d3e 64e3 f23e 5dba 93bd
000003b0: d0a2 71be a44c 853e 72b2 d23d da20 1e3e
000003c0: a2f8 523d 5497 8f3c d867 b03d 8f5f d5bd
000003d0: b173 92bb e79f 65be 41df 8bbe da06 8b3d
000003e0: 8979 a3be 7538 86be 7424 47be 8ff4 60be
000003f0: c189 27be 4d38 843d 9091 37be c267 08be

c_fc1.bias f4 [64]
-0.17401192 0.2811713 -0.26902652 0.20873663 0.3954321 -0.33770686 0.276827 -0.21035218
-0.3279737 -0.29778162 0.2044538 0.1894689 -0.49381655 -0.35559294 0.2941257 0.046769578
0.014681207 -0.26238823 0.29516104 0.1439773 -0.2544231 -0.35608035 0.16517378 0.11149173
-0.49329934 -0.32317165 -0.17257154 -0.112472005 -0.41305074 -0.12918201 -0.26520497 0.021593753
0.3263399 -0.20316666 -0.3460152 0.3314106 0.29042408 -0.22917318 0.36618513 -0.3486988
-0.018953674 0.32747248 -0.21375513 -0.029162774 0.2574738 0.41336116 0.27482006 0.23931724
-0.17636265 -0.27385506 -0.18377432 -0.2775043 -0.4024284 0.29301023 0.18537599 -0.22203994
-0.3092384 0.20856233 0.18842436 -0.25369674 -0.43793988 0.36308742 -0.2842433 -0.22757873
00000000: 2e30 32be aff5 8f3e d8bd 89be 0ebf 553e
00000010: 1476 ca3e eae7 acbe 45bc 8d3e 9066 57be
00000020: 2bec a7be d576 98be 565c 513e 2304 423e
00000030: 86d5 fcbe 4710 b6be a597 963e 7591 3f3d
00000040: 7289 703c c057 86be 591f 973e c96e 133e
00000050: bf43 82be 2a50 b6be 5123 293e c755 e43d
00000060: bb91 fcbe c176 a5be 98b6 30be b957 e6bd
00000070: 637b d3be 4a48 04be f2c8 87be 62e5 b03c
00000080: 0616 a73e ec0a 50be e728 b1be a6ae a93e
00000090: 77b2 943e 60ac 6abe 9e7c bb3e a688 b2be
000000a0: bc44 9bbc 79aa a73e a0e2 5abe c5e6 eebc
000000b0: 9bd3 833e 13a4 d33e 37b5 8c3e 940f 753e
000000c0: 6998 34be bb36 8cbe 562f 3cbe 0b15 8ebe
000000d0: 180b cebe 7005 963e 34d3 3d3e 705e 63be
000000e0: 7f54 9ebe 5d91 553e 51f2 403e 8ae4 81be
000000f0: a839 e0be 98e6 b93e 5688 91be 660a 69be

c_fc2.weight f4 [64, 64]
0.20065914 -0.07129663 0.19896369 0.13007864 -0.0035660858 0.266738 -0.07205978 0.19617589
-0.08402476 0.21202958 -0.09083319 -0.42448685 0.35886532 0.39140156 -0.25323033 -0.033811
-0.17378527 0.10192827 -0.14745595 -0.03188534 0.0116508715 0.1740843 -0.11319408 -0.079161055
0.21403877 0.39155203 0.32460743 0.38135737 0.47053975 0.20006143 0.026971443 0.064174555
-0.26289102 0.029844502 0.31567186 -0.34383008 -0.31807753 0.28776816 -0.27742136 0.07113723
0.22697441 -0.19174318 0.28196925 -0.023868203 -0.36988336 -0.04473524 -0.3295899 -0.091965474
-0.05987416 0.343683 0.07819286 0.2161936 0.25970763 -0.2004673 -0.19984953 0.25590253
0.2608671 -0.12041897 -0.42033643 0.34193155 0.16678968 -0.26554644 0.31066906 0.16361518
0.0768472 -0.09793077 0.4160457 -0.12363472 -0.20880572 0.08978354 -0.18222281 -0.20171097
0.10062841 0.25092772 -0.060834028 -0.2566087 0.41886598 0.27069825 0.14666946 0.00015703142
-0.069398865 0.06528355 -0.121079534 -0.06715805 0.30443686 0.27893645 0.037260212 -0.13035002
0.15937832 0.09596005 0.2624413 0.10331442 0.32952368 0.02046062 0.24845445 0.06928116
-0.34596515 0.19024664 0.21368764 -0.47976947 -0.117258474 -0.14062105 -0.3527515 0.110856935
0.09825745 -0.38172224 0.4315456 -0.12344676 -0.19049114 -0.3975572 -0.070846274 -0.30636975
0.2935189 0.25842622 0.13669533 0.23430052 0.32682517 -0.23951396 0.0251414 0.04766327
0.1589717 -0.16390353 -0.2070552 0.30352592 0.1003214 0.061112706 0.3226669 0.08953407
-0.026768591 -0.14577049 0.044255085 -0.041203294 -0.4767749 0.24222367 -0.15654474 0.052852653
0.40343767 0.0014111599 -0.16412994 -0.46705365 0.7066245 0.22795132 -0.38879853 -0.07867382
-0.037450172 0.12950227 -0.11207405 -0.32266146 0.124360815 -0.027893813 -0.0048030554 -0.23821464
0.3282307 0.28393722 0.21746913 0.047981054 0.22235294 -0.116516255 0.037998818 -0.08715969
-0.029527286 0.1059659 0.19862033 -0.2074329 -0.14661077 0.25466952 -0.46629167 -0.027293488
0.18009892 -0.31647652 0.35910422 -0.06036572 -0.2409472 -0.47593617 -0.0932025 -0.11767532
0.20412986 0.26990518 0.28740487 0.22382335 0.069868356 -0.27773303 -0.02377055 0.16797717
0.20714797 -0.18718763 -0.09457913 0.07947479 0.21339437 -0.2148617 0.33430177 0.22802381
-0.02224357 0.25429615 -0.20617966 0.24405663 0.12621067 0.050729867 0.113449894 -0.096044675
-0.37558037 -0.2193623 0.25036997 0.3300456 -0.28562626 -0.29189608 0.16639039 0.1632705
0.06617842 -0.20630968 0.24516103 0.062441725 -0.2249178 -0.013608514 0.14400424 0.16752034
-0.24218547 -0.43117017 -0.050656922 -0.31870514 -0.2536608 0.028556285 -0.040590644 0.069262736
0.19540808 -0.12107461 -0.3703175 0.3859373 -0.06960962 0.09584244 0.40339196 -0.23197423
-0.15227084 0.3376755 -0.13411517 -0.18358158 0.17907955 0.23158939 0.114856385 0.21210426
-0.254813 0.13344051 -0.020162355 -0.0069095264 -0.38529044 0.1855835 -0.082867846 -0.20870021
-0.24072777 0.014731104 0.32270008 -0.3022748 -0.36733356 0.496679 -0.2867284 -0.056057196
00000000: 9779 4d3e f803 92bd 23bd 4b3e 5633 053e
00000010: feb4 69bb e291 883e 1494 93bd 55e2 483e
00000020: 2c15 acbd 481e 593e c006 babd 5756 d9be
00000030: 32bd b73e c965 c83e 68a7 81be 677d 0abd
00000040: c4f4 31be c5bf d03d b1fe 16be 349a 02bd
00000050: 4ce3 3e3c 2843 323e 4cd2 e7bd 311f a2bd
00000060: fb2c 5b3e 8279 c83e f232 a63e 4641 c33e
00000070: 96ea f03e e7dc 4c3e 37f3 dc3c f36d 833d
00000080: a799 86be 757c f43c be9f a13e 7f0a b0be
00000090: 0fdb a2be 5956 933e 2c0a 8ebe 65b0 913d
000000a0: fb6b 683e 5358 44be 465e 903e 4087 c3bc
000000b0: 5a61 bdbe 4d3c 37bd 02c0 a8be 6558 bcbd
000000c0: 9b3e 75bd 38f7 af3e 9423 a03d db61 5d3e
000000d0: 66f8 843e 4d47 4dbe 5ba5 4cbe a805 833e
000000e0: 5f90 853e 399e f6bd 5636 d7be a711 af3e
000000f0: eaca 2a3e b4f5 87be 0410 9f3e bd8a 273e
00000100: 1162 9d3d ed8f c8bd f103 d53e 3334 fdbd
00000110: 2bd1 55be 6fe0 b73d 9e98 3abe 528d 4ebe
00000120: 4516 ce3d 9979 803e 1a2d 79bd 3762 83be
00000130: 9a75 d63e f698 8a3e 8530 163e cda8 2439
00000140: fe20 8ebd 62b3 853d 8cf8 f7bd 298a 89bd
00000150: 26df 9b3e c2d0 8e3e 2a9e 183d 7a7a 05be
00000160: 1234 233e b486 c43d b55e 863e 8396 d33d
00000170: 54b7 a83e 089d a73c d86a 7e3e 48e3 8d3d
00000180: 5822 b1be 04d0 423e efd0 5a3e 58a4 f5be
00000190: 3625 f0bd f7fe 0fbe d89b b4be f608 e33d
000001a0: 343b c93d 1971 c3be 8bf3 dc3e a8d1 fcbd
000001b0: 1c10 43be 9e8c cbbe da17 91bd 7fdc 9cbe
000001c0: 1c48 963e 7150 843e dcf9 0b3e 7aec 6f3e
000001d0: a155 a73e 2643 75be 56f5 cd3c 903a 433d
000001e0: 7ac9 223e 54d6 27be 4706 54be c067 9b3e
000001f0: 4e75 cd3d 5151 7a3d 9934 a53e a35d b73d
00000200: ce49 dbbc dc44 15be d244 353d c9c4 28bd
00000210: d71b f4be 7b09 783e 444d 20be 067c 583d
00000220: 628f ce3e abf6 b83a ae11 28be a821 efbe
00000230: 58e5 343f 126c 693e 9a10 c7be bd1f a1bd
00000240: 5a65 19bd 3e9c 043e 1487 e5bd e233 a5be
00000250: e2b0 fe3d 9181 e4bc f362 9dbb 8aee 73be
00000260: db0d a83e 3860 913e 3ab0 5e3e c887 443d
00000270: 7db0 633e 13a0 eebd a6a4 1b3d c880 b2bd
00000280: 35e3 f1bc a604 d93d 2163 4b3e 4a69 54be
00000290: 2221 16be 0b64 823e c8bd eebe 9896 dfbc
000002a0: da6b 383e 3609 a2be 82dc b73e 0c42 77bd
000002b0: ddba 76be e8ad f3be f4e0 bebd c2ff f0bd
000002c0: 6b07 513e 0331 8a3e bb26 933e f331 653e
000002d0: 2417 8f3d 0633 8ebe 75ba c2bc 3502 2c3e
000002e0: 991e 543e 1dae 3fbe b4b2 c1bd aec3 a23d
000002f0: 0e84 5a3e b504 5cbe 9a29 ab3e 137f 693e
00000300: 2638 b6bc 1b33 823e c320 53be fbe9 793e
00000310: 5f3d 013e 1fca 4f3d 6b58 e83d 12b3 c4bd
00000320: 124c c0be 83a0 60be 7e30 803e bdfb a83e
00000330: 9b3d 92be 6773 95be 3e62 2a3e 6230 273e
00000340: 8d88 873d d842 53be 7e0b 7b3e e5c2 7f3d
00000350: da50 66be 3ff6 5ebc d975 133e 748a 2b3e
00000360: 78ff 77be 56c2 dcbe a27d 4fbd 522d a3be
00000370: d4df 81be dfee e93c 6042 26bd 9fd9 8d3d
00000380: 0e19 483e f7f5 f7bd 419a bdbe 9399 c53e
00000390: 7d8f 8ebd 0b49 c43d 6489 ce3e a78a 6dbe
000003a0: e3ec 1bbe cee3 ac3e 7d55 09be cffc 3bbe
000003b0: a160 373e c525 6d3e d339 eb3d dc31 593e
000003c0: d976 82be a1a4 083e 862b a5bc 4f69 e2bb
000003d0: ca44 c5be 9a09 3e3e 9eb6 a9bd 82b5 55be
000003e0: 5781 76be ba5a 713c f238 a53e c3c3 9abe
000003f0: 2513 bcbe b64c fe3e 11ce 92be 3b9c 65bd

c_fc2.bias f4 [64]
-0.1361444 -0.11626686 -0.09337246 0.11405471 0.1065855 0.09483255 0.115254454 0.10006321
0.14895295 -0.092439406 -0.082231015 0.10740287 -0.08837936 0.08898554 0.12031291 -0.09226113
-0.14156766 -0.09630278 -0.096041925 -0.10419112 0.10770316 0.13249849 -0.08796094 -0.11967553
0.08761854 0.09804102 0.1184097 0.14778662 -0.114205785 0.10947311 0.10010427 -0.11290437
-0.10165269 -0.09935278 -0.11624483 0.089564435 -0.115514554 0.12104361 0.10661847 0.16882063
-0.14561102 0.08481958 -0.10606357 0.10364367 0.09515473 -0.10361838 0.12014079 -0.11591068
0.079650715 0.09573984 0.10073305 0.119508244 0.11847559 0.09909027 0.1123182 0.08347649
-0.09116065 -0.1809145 0.12311266 0.11587895 0.10714757 -0.08512702 -0.11870017 0.10694425
00000000: 7069 0bbe 521d eebd 0f3a bfbd 8495 e93d
00000010: 8049 da3d 9137 c23d 870a ec3d f1ed cc3d
00000020: 1f87 183e df50 bdbd bc68 a8bd 09f6 db3d
00000030: 3d00 b5bd 0d3e b63d 9d66 f63d 67f3 bcbd
00000040: 1df7 10be 643a c5bd a1b1 c4bd 2762 d5bd
00000050: 7993 dc3d afad 073e de24 b4bd 7218 f5bd
00000060: 5971 b33d bbc9 c83d c980 f23d 6055 173e
00000070: b9e4 e9bd 7033 e03d 7803 cd3d 683a e7bd
00000080: 492f d0bd 7879 cbbd c511 eebd 8f6d b73d
00000090: e592 ecbd b6e5 f73d c95a da3d 51df 2c3e
000000a0: 0e1b 15be e3b5 ad3d db37 d9bd 2243 d43d
000000b0: 7ce0 c23d e035 d4bd 600c f63d 9462 edbd
000000c0: ea1f a33d 4013 c43d 214d ce3d bdc0 f43d
000000d0: 55a3 f23d d7ef ca3d 1607 e63d b9f5 aa3d
000000e0: 6fb2 babd a741 39be 7e22 fc3d f151 ed3d
000000f0: 2f70 db3d 1357 aebd 1319 f3bd 9605 db3d

c_fc3.weight f4 [1, 64]
-6.8358502 -6.9288025 -6.832877 6.891362 6.828425 6.984211 6.8449006 6.9410825
6.814053 -7.06212 -6.9835367 6.891849 -6.9308906 7.115357 6.886662 -6.958873
-6.8492618 -6.9418564 -6.949997 -7.1441975 6.8842335 6.830281 -6.9496274 -6.858972
6.9339833 6.9202895 6.8271127 6.8374867 -6.9215717 6.9366746 6.826655 -6.8568134
-7.0990133 -6.9359903 -6.89624 6.944355 -6.850283 6.8699 6.911889 6.835224
-6.850153 6.882345 -6.8313627 6.8758054 6.9239793 -6.9164457 6.8600574 -6.851011
6.8998733 6.955655 7.0311027 6.875491 6.831087 6.9155765 7.00935 6.9975953
-6.84326 -6.840527 6.8751454 6.9154153 6.992434 -7.1057453 -6.8584723 6.948136
00000000: 49bf dac0 c0b8 ddc0 eea6 dac0 0a86 dc40
00000010: 7582 da40 a87e df40 6d09 db40 591d de40
00000020: b90c da40 e3fc e1c0 2279 dfc0 078a dc40
00000030: dbc9 ddc0 01b1 e340 895f dc40 16af dec0
00000040: 272d dbc0 b023 dec0 6066 dec0 449d e4c0
00000050: a44b dc40 a991 da40 5963 dec0 b37c dbc0
00000060: 31e3 dd40 0373 dd40 b577 da40 b1cc da40
00000070: 847d ddc0 3df9 dd40 f573 da40 046b dbc0
00000080: 1e2b e3c0 a2f3 ddc0 00ae dcc0 2838 de40
00000090: 8535 dbc0 39d6 db40 322e dd40 28ba da40
000000a0: 7434 dbc0 2c3c dc40 869a dac0 9906 dc40
000000b0: 3d91 dd40 8653 ddc0 9785 db40 7b3b dbc0
000000c0: c3cb dc40 ba94 de40 cbfe e040 0604 dc40
000000d0: 4498 da40 674c dd40 984c e040 4dec df40
000000e0: fcfb dac0 99e5 dac0 3101 dc40 154b dd40
000000f0: 05c2 df40 4462 e3c0 9b78 dbc0 2157 de40
